weights/MachineLearning/lasso.pt (torch, 18917 bytes, 1 tensors)

weight f4 [1, 4377]
000000 ef 59 bb c1 6e 33 0b bf d7 dd 96 42 57 14 07 c0
       -23.418913 -0.5437535 75.43328 -2.1106164
000010 9e fc b1 3d e3 7e 96 be c3 7c 25 bf 52 80 84 3d
       0.08690761 -0.29393682 -0.64643496 0.06469788
000020 00 fb 48 3b f3 c6 8c 42 30 76 c2 bb 81 8d 0f 3f
       0.0030667186 70.38857 -0.005934499 0.5607529
000030 34 ec 47 be c0 cb 85 bf cb c1 d1 3e 6c 56 f5 be
       -0.19523698 -1.0452805 0.40968165 -0.47917497
000040 f6 ac 5a 3d 91 5e d5 bc da 83 f5 3c 16 3f 78 3d
       0.053387605 -0.02604607 0.029970098 0.06060704
000050 42 91 27 bf e4 e0 29 3e 9a 0d 97 bd d6 0e db 42
       -0.6545602 0.16589695 -0.07375641 109.52898
000060 46 8c 78 42 b8 30 bb bf e2 0b 0c 3e 08 3e 01 be
       62.136986 -1.4624243 0.13676408 -0.1262132
000070 c9 6b a8 3d e1 11 4b be c9 ed 3b 3d 22 d5 14 3e
       0.082236834 -0.19831039 0.045881066 0.14534429
000080 e3 aa 6b 3e 7a 6b d3 3d 63 38 91 3d 2c 1c fb be
       0.23014407 0.10323234 0.07090833 -0.4904493
000090 10 04 81 be 8e b5 2d be 12 3a 68 3e ab ec aa be
       -0.25198412 -0.16963789 0.22678402 -0.33383688
0000a0 32 9a d3 be 88 fe f0 3d c4 90 57 41 71 c9 82 be
       -0.4132858 0.11767298 13.472843 -0.25544313
0000b0 01 17 db 3c 46 a2 d6 3c 39 ef 4b bf ea 67 8b 3e
       0.026744368 0.026200425 -0.796619 0.27227718
0000c0 ad f5 86 be 81 e5 82 be 05 b4 51 be e9 76 bc 3e
       -0.2635931 -0.25565723 -0.20478828 0.3680947
0000d0 b4 b8 0e 3e 80 cc 4f bb a9 d1 81 be e0 44 ec 3d
       0.13937646 -0.0031707585 -0.2535527 0.11536574
0000e0 c5 39 0e 3f 75 d7 be bd 36 87 23 3d 08 06 21 bc
       0.555569 -0.09318439 0.03992387 -0.009828098
0000f0 a6 b0 b9 3d 00 03 3c 3d 94 a0 38 3d 81 68 62 be
       0.09066896 0.0459013 0.045075014 -0.22110178
000100 48 59 6b 3d a9 90 c7 bd 88 aa 75 3d ee bb be bd
       0.057458192 -0.097443886 0.059977084 -0.093131885
000110 61 bf 82 be f8 fd 6c bc be e1 cf 3d 4a 96 8c 3e
       -0.25536636 -0.014464848 0.10150479 0.2745841
000120 ac 6d 11 be 3b 27 5b 42 b5 af 1b 3d c6 be f1 3c
       -0.14201993 54.78831 0.038009364 0.029509913
000130 71 8e 24 3e 08 e3 8b 41 f6 1b 96 3e 50 62 65 3e
       0.16069962 17.485855 0.29318208 0.22400784
000140 68 97 40 3c 4c 93 53 be c0 11 03 be 2a 6e ca 3d
       0.011754848 -0.20661658 -0.1279974 0.098842934
000150 78 c8 d9 bd 14 3a 2b 3e c4 82 be bf ee 92 87 3e
       -0.106339395 0.16721374 -1.4883657 0.26479286
000160 42 d6 9f 3e 39 e7 29 3f 5e 0b d1 3d a8 d5 67 be
       0.31218153 0.6636844 0.10207246 -0.22640097
000170 ea 31 ee 3d 2c 4c 70 3e 10 fd 69 bc e6 87 88 3e
       0.11630614 0.23466557 -0.014281526 0.26666182
000180 38 ce 8a 3e e6 03 79 be 86 06 c1 42 e9 dc 89 3d
       0.27110457 -0.24317893 96.51274 0.067315884
000190 73 fd 58 c0 48 12 23 3e 50 c5 5c 42 28 63 86 bd
       -3.3904693 0.15924942 55.192688 -0.06561881
0001a0 92 c1 0d 3e 74 89 84 be f4 cd 8b be e8 cc c7 3d
       0.13843372 -0.25886118 -0.27305567 0.0975588
0001b0 6d 77 13 3e d6 0f 54 3e bc 66 b0 bd 7b 5d d2 3e
       0.14401026 0.20709166 -0.08613345 0.41086945
0001c0 60 55 78 bd 95 27 c9 3d 8a 9f 9f 3e ea 18 3f be
       -0.060628295 0.09822003 0.31176406 -0.18661848
0001d0 ac 64 d2 be 26 da f5 3d 14 ab 4d bf 30 8d 96 bb
       -0.41092432 0.12004499 -0.8033917 -0.0045944676
0001e0 92 f3 c0 3d 95 46 b0 bd c5 89 eb 3d da 8d 8b 3e
       0.09421457 -0.086072125 0.11500887 0.27256662
0001f0 aa 64 82 3d dc c3 92 3d 90 c2 0c be 00 6e 3a 3c
       0.063668564 0.071662635 -0.13746095 0.011378765
000200 c6 9f ee bd 88 2b 6d 3d ee 75 45 3e 2b b3 1f 3e
       -0.11651568 0.057902843 0.19283268 0.15595691
000210 21 8d a4 3d ac 4d 65 3e 58 3c 99 be 84 75 63 be
       0.08034731 0.2239291 -0.2992885 -0.22212797
000220 c0 a2 43 bb 28 0d 3b 3d c0 a2 fc be da 56 b5 42
       -0.0029851645 0.045666844 -0.49342918 90.66963
000230 96 2d da 3e 7c a1 bd 42 65 5d 87 3e d6 02 a6 be
       0.42612904 94.8154 0.26438442 -0.3242404
000240 34 1c 8d 41 2a cd 89 41 18 c0 89 41 28 ee d9 be
       17.638771 17.225178 17.218796 -0.4256451
000250 14 b8 89 41 ec 16 8d 41 ce b6 89 41 e2 c2 89 41
       17.214882 17.636192 17.21426 17.220158
000260 56 b3 89 41 a0 11 8d 41 7c c9 89 41 10 29 8d 41
       17.212566 17.633606 17.223381 17.64505
000270 ab 8e 60 bf eb 0d df bd 1a 07 fa 3c 0c d2 15 3f
       -0.87717694 -0.108913265 0.030520964 0.5852363
000280 ca de a6 bd 9a 6f f6 3c 65 77 1b bd 54 2b 24 bf
       -0.081479624 0.030082513 -0.03795566 -0.64128613
000290 de e3 27 bf 57 8f 46 3f 6c 82 69 3e 8a 60 0c 42
       -0.6558207 0.7756247 0.22803658 35.094276
0002a0 26 93 7a 3e 26 0e fb be 68 20 95 bc 9a 44 83 be
       0.24470195 -0.49034232 -0.018203929 -0.25638276
0002b0 6a 93 fd 3b 66 99 58 bf 51 5c 2e be e9 31 98 bd
       0.0077385204 -0.8460907 -0.17027403 -0.074313946
0002c0 e0 c5 8a 3c 9e ff b3 3d dc b1 57 3d fc 9e da be
       0.016940057 0.087889895 0.052659854 -0.4269942
0002d0 3a ce d2 be 42 be 5d bf da 86 3f 3f ac 30 bd 3c
       -0.41172963 -0.86618435 0.7481514 0.023094498
0002e0 60 14 37 3c e8 31 08 bf 9e 6a b3 3d 2f 54 e5 bd
       0.011174291 -0.5320115 0.0876057 -0.11197697
0002f0 9e b3 eb be f0 9e 07 bc 1e 5f 15 3e 26 a2 87 bd
       -0.46035475 -0.00827764 0.14587066 -0.06622724
000300 00 90 15 c3 e0 49 1e 3c 98 f6 9d 3c 8c 6d 13 be
       -149.5625 0.009661168 0.019282624 -0.14397258
000310 d0 78 67 3e de 2e 20 be 21 18 85 bd 14 3a ae 42
       0.2260468 -0.15642878 -0.06498743 87.113434
000320 34 d1 4e 3d 69 26 2c bf c8 c7 b2 3c b7 85 89 3c
       0.05049248 -0.6724611 0.021823779 0.016787393
000330 a5 c6 b3 3e e0 3b 2e 3d 0a 4e 23 bd ec 08 7f 3c
       0.3511249 0.04253757 -0.039869346 0.015566092
000340 1d 66 14 be 96 72 ea 3e 5b c8 1f be 5d 41 10 bf
       -0.14492078 0.45790547 -0.15603773 -0.56349736
000350 78 ed 86 3e a7 16 b8 bf 61 e3 85 c1 80 1d 81 ba
       0.2635305 -1.4381913 -16.736025 -0.0009850711
000360 c2 b7 86 be fa b5 9d bf 80 79 fd be 9f 0e 28 3e
       -0.2631207 -1.232116 -0.4950676 0.16411828
000370 41 61 de 3e 74 40 17 bf 49 d2 3a 3d dc 24 c9 bc
       0.43433574 -0.5908272 0.0456107 -0.024553709
000380 ea 22 21 bd f5 09 28 43 a0 2e 8d 3b e3 9b 11 3e
       -0.039339937 168.0389 0.0043085366 0.14219622
000390 b4 34 03 3f ca af c8 3d 15 e6 32 be 8c c1 0f 3e
       0.51252294 0.09799154 -0.17470582 0.14038676
0003a0 29 40 c2 be 6e 14 fa bd 74 7a 11 c0 b5 07 c5 3d
       -0.37939575 -0.12210928 -2.273099 0.096206106
0003b0 d8 a0 2a bd 61 b9 05 be e2 fd 21 3e 80 c5 fc 3c
       -0.0416573 -0.13058998 0.15819505 0.030855894
0003c0 5e 92 38 bf 80 b9 59 bb 63 38 ee be f8 5d a0 3d
       -0.7209834 -0.003322214 -0.46527395 0.07830423
0003d0 28 b6 43 3c 78 7c 3f be 52 22 0f be 02 24 13 c2
       0.011945285 -0.18699825 -0.13977936 -36.785164
0003e0 94 03 b8 be 55 17 23 bf bc 81 4e be 08 ab 64 3d
       -0.3594023 -0.63707477 -0.20166677 0.05582717
0003f0 76 4a 22 3d c4 e3 79 3d af b9 23 be a0 a2 93 bb
       0.039621793 0.06100823 -0.15988801 -0.0045054704
