weights/MachineLearning/lasso.pt (torch, 18277 bytes, 1 tensors)

weight f4 [1, 4377]
000000 72 52 b8 c1 5a e1 59 bd a6 63 95 42 b4 a0 9d bc
       -23.040257 -0.053193428 74.694626 -0.019241668
000010 12 1e ea 3e b0 ab 82 be 2a 3c 10 3f 86 7e bf 3d
       0.45726067 -0.25521612 0.56341803 0.09350304
000020 98 02 dc 3c 24 07 91 42 ce 76 2f bd 4c b6 f4 3e
       0.026856706 72.51395 -0.04283791 0.4779533
000030 96 f7 9d be e1 5d 00 c0 a5 3d 94 be 47 b2 29 c0
       -0.30852956 -2.00573 -0.2895328 -2.6515062
000040 6c 83 7f be 71 ee 59 3f 94 9f 47 bd 96 f7 c8 bd
       -0.24952477 0.8512946 -0.04873617 -0.09812848
000050 b4 91 09 c0 da 3d c5 bd c0 8e ad bd f4 9d df 42
       -2.149518 -0.09630938 -0.08474493 111.8085
000060 66 41 76 42 74 97 2b bf 96 5b 68 be 8c 11 13 be
       61.563866 -0.67027974 -0.22691187 -0.14362162
000070 3b 23 25 3f a5 26 54 bf c6 89 0f bd db ee 62 be
       0.6450688 -0.82871467 -0.0350435 -0.22161429
000080 b9 9d 4a c0 e4 39 c7 be 00 f2 19 3f 81 5b 90 3e
       -3.1658766 -0.38911355 0.6013489 0.28194812
000090 98 89 61 be 88 42 7b 3d fb a9 a1 be 73 3b 81 bf
       -0.22025144 0.061342746 -0.31574997 -1.0096267
0000a0 41 bc 42 bf 92 e9 ee 3d 05 2b 12 41 cc d4 80 bd
       -0.760685 0.11665644 9.135503 -0.06290588
0000b0 96 04 8d bc 04 fd 2c 3e 58 68 bb bc 9a e0 c9 bd
       -0.0172141 0.16893393 -0.022876903 -0.098572925
0000c0 ed 6e 42 bf 49 2f 81 bf b2 ca fc 3d 28 4b 5a 3e
       -0.7595051 -1.0092555 0.123433486 0.21317732
0000d0 c2 99 59 3e f8 aa ea bc f1 74 d3 3d 98 7b 6a bc
       0.2125006 -0.028645977 0.10325039 -0.014311694
0000e0 ec 52 a8 3e a4 02 52 3d 7a b5 c0 bd 28 18 eb bc
       0.32875764 0.05127205 -0.09409614 -0.028698042
0000f0 5a 25 0a be 5e a2 b4 3d 26 d9 0c 3e 77 19 50 be
       -0.13490811 0.088200316 0.1375471 -0.20322214
000100 f6 89 c5 3e 12 0c ed 3b bc a9 1e 3d be 29 63 bd
       0.38581818 0.007234105 0.03873609 -0.05545973
000110 d8 43 40 bf 81 46 64 be 80 0a 0a 3c 28 99 0e 3f
       -0.7510352 -0.2229252 0.008425355 0.5570245
000120 bb e2 cb 3d 4e f0 5b 42 86 58 07 bd ff 3b 7c 3e
       0.09955355 54.984673 -0.033043407 0.24632262
000130 53 89 17 bd b3 e7 98 41 63 f4 39 3e 6f 19 05 3f
       -0.036996197 19.113134 0.18159632 0.51991934
000140 a1 f7 3a 3d 1e 81 90 be 75 58 f7 3d 0f 89 5e 3e
       0.045646314 -0.2822351 0.12077419 0.21731971
000150 51 dd 60 3e 3d 48 89 3d a4 4f d1 be 16 d4 88 be
       0.21959426 0.067032315 -0.40881073 -0.2672431
000160 5a 13 45 3f 1d 2e e6 3e 40 97 2f bd 33 9f 72 bf
       0.76982653 0.44957057 -0.042868853 -0.9477417
000170 f0 29 18 3d c6 48 21 bd 6e b6 e5 3e 68 f5 82 be
       0.03714937 -0.039376043 0.44865745 -0.25577855
000180 0c f0 ed bc 98 1a 75 be 3c 06 c0 42 eb cc d3 3d
       -0.029045127 -0.23935926 96.01218 0.103418194
000190 7d 22 8a bf 25 5d 09 3e 8a f9 62 42 fd bc 4f 3e
       -1.0791775 0.13414438 56.74369 0.20286937
0001a0 8e 5b 03 3e 76 af 0b bd 06 88 f7 bf a0 0c 5c bc
       0.12827894 -0.03410288 -1.9338386 -0.013430744
0001b0 69 fa 64 3e d0 61 ca bc 1c fc eb 3d da 7b cd 3d
       0.22361149 -0.024704844 0.115226954 0.100333884
0001c0 ea 8b 6f be 46 5a 04 bd d6 2d 3a be 66 71 06 bd
       -0.23393217 -0.032312654 -0.18181548 -0.03282299
0001d0 38 b8 a4 bc 02 2e 2c be 5e 6c 2a bf 0a 09 1a be
       -0.020107374 -0.16814426 -0.66571605 -0.1504251
0001e0 24 8b aa be 6c b5 9a be f8 ef df 3c bc 49 26 3d
       -0.3330928 -0.3021654 0.027336106 0.040597662
0001f0 10 54 26 bd 84 c1 be bc dd 55 31 be d8 d5 30 be
       -0.040607512 -0.023285635 -0.1731791 -0.17269075
000200 6c 8c 23 3e 63 db 0d be 6e cd 8f bd 5d 80 a0 bd
       0.15971535 -0.1385322 -0.070216045 -0.07836983
000210 1a 67 d2 3d f4 ba e4 3c 52 3b eb be ad 32 7e be
       0.10273571 0.027921177 -0.45943695 -0.24824019
000220 fc 26 a4 bd ce 2d 62 bf 18 36 39 3d 02 6b b7 42
       -0.08015248 -0.8835114 0.045217603 91.709
000230 82 3e af 3f 35 ed bd 42 86 a8 2b be 7c 4a 0e bd
       1.3690951 94.963295 -0.16763505 -0.034739003
000240 c9 02 8f 41 fe c0 96 41 89 ee 8e 41 58 7f 84 be
       17.87636 18.844234 17.866472 -0.25878406
000250 4c d4 96 41 d1 f1 8e 41 2a d7 96 41 fe d5 96 41
       18.85366 17.868074 18.85506 18.854488
000260 d9 f1 8e 41 cc c1 96 41 78 c9 96 41 c4 cb 96 41
       17.86809 18.844627 18.848373 18.849495
000270 dd 9b 29 c0 20 34 4d bc ed 8a 5d 3d dc fc de bd
       -2.6501381 -0.012524635 0.054087568 -0.10888073
000280 56 18 ca be 24 b9 75 bd 38 e2 0a be 02 0b 5d 3e
       -0.39471692 -0.059991017 -0.13562858 0.2158623
000290 34 a9 8f 3e 2d ca 06 bf 37 6d 03 3e 6f e4 19 42
       0.2805878 -0.52652246 0.12834631 38.47308
0002a0 3a 86 d2 3d ac db bf be 2e 5c 0b 3e d3 46 e0 3d
       0.10279508 -0.37472284 0.13609383 0.10951009
0002b0 92 59 27 3e 68 35 5e 3e 36 3f 46 bf fb 84 14 bc
       0.16342762 0.2170006 -0.774402 -0.009064908
0002c0 a8 72 27 be f6 2d f7 3d e1 ef 16 3e fd d6 b8 be
       -0.16352332 0.12069313 0.14739944 -0.36101523
0002d0 db 57 df bd 78 e8 c8 3d 51 ac a1 3f 28 62 ec bc
       -0.10905429 0.09809965 1.2630712 -0.028855398
0002e0 5f 2e 9c bd 20 71 17 bc 68 a1 9d be f3 50 e5 3d
       -0.07626032 -0.00924328 -0.30787206 0.111970805
0002f0 f8 fa 07 bf 4f ce 70 be a4 82 55 3e 2e 21 79 be
       -0.5311732 -0.235162 0.20850617 -0.24329063
000300 22 e8 15 c3 ca 83 5b 3f c8 8b 06 bf 00 cf f3 ba
       -149.90677 0.8574797 -0.5255704 -0.001860112
000310 ff 47 f7 be da 09 69 be 5d 29 31 3e f2 70 ae 42
       -0.48297116 -0.22757664 0.17300935 87.2206
000320 e3 13 5f 3e c4 82 48 bf de c6 92 be 00 12 a9 be
       0.2178493 -0.7832453 -0.2866735 -0.33021545
000330 84 00 12 be 98 92 bd 3d c8 71 45 be 7e 7c 38 bd
       -0.14258009 0.09256476 -0.19281685 -0.0450406
000340 19 31 98 3d c0 96 43 bc 16 dd 54 be a9 75 23 bf
       0.0743124 -0.011937797 -0.20787463 -0.6385141
000350 0d 81 6d be 42 3c 33 bf a2 12 78 c1 51 de 19 be
       -0.2319376 -0.7001382 -15.504549 -0.15026213
000360 9c b5 49 bf a5 21 b8 be d4 e4 d0 bc d6 e4 10 be
       -0.7879274 -0.3596317 -0.025499739 -0.14149794
000370 6a a9 51 3e d3 ec d2 bd b4 10 21 be 4a 61 b9 be
       0.20474783 -0.10299077 -0.15729028 -0.36207038
000380 8c 6b 44 be 97 47 25 43 4c dc e6 3d f8 72 f0 3e
       -0.19181651 165.27965 0.11272487 0.46962714
000390 70 ea 98 bc eb 6c 5e 3e be 43 27 be ab 27 65 3e
       -0.018666476 0.21721236 -0.16334435 0.22378413
0003a0 2a 05 67 be d3 67 42 be 0b d1 bb bf 77 9f 41 bd
       -0.22560564 -0.18984918 -1.467317 -0.04727122
0003b0 cc 82 43 be 79 5f ab bd d2 59 aa bd d6 89 07 3e
       -0.19092864 -0.08367819 -0.08317913 0.13236174
0003c0 70 9e fd be 13 2a 42 3d bf d3 c6 be 4e 7a 92 bd
       -0.4953494 0.047403406 -0.38833424 -0.07152234
0003d0 2e c3 53 be 60 bb 78 3d 67 d1 9a 3e 8b df 10 c2
       -0.20679924 0.06072557 0.30237886 -36.218304
0003e0 34 72 41 bf 74 f1 9f bf f3 16 ce be ac 61 d6 be
       -0.75564885 -1.2495561 -0.40251884 -0.41871393
0003f0 7c 16 1d 3d 94 1f e8 bc d4 b7 44 bd ba 82 25 be
       0.03835152 -0.02833537 -0.048026875 -0.1616315
