weights/MachineLearning/ridge.pt (torch, 18277 bytes, 1 tensors)

weight f4 [1, 4377]
-9.83673 -33.825226 60.205967 -36.108925 7.758715 -42.215416 -41.688416 -48.159748
-15.158018 89.042145 -41.822792 21.73962 -8.749046 -89.622536 -42.206215 -89.62212
-29.063272 16.298428 -40.046124 -9.704097 -75.95417 36.70135 14.124257 123.140976
82.58616 -18.408655 -121.28717 -11.913098 -41.75229 -128.11635 -10.397268 -68.77964
-85.9112 -31.2563 27.749748 -40.73758 1.0413903 6.9946547 -54.7056 -108.880905
-108.24297 7.3342524 65.869545 -109.15378 -21.233643 -15.427859 -82.754715 36.69391
-109.19103 -108.06732 7.3396034 -15.673634 2.9157755 -0.068197355 -78.89325 7.5548
21.860357 -16.015892 36.677498 1.0428728 -9.080838 83.16259 -25.019241 -33.934505
36.72121 -10.079476 36.675392 -52.92033 -108.07278 -12.910743 -40.137543 36.719074
-49.07278 72.00645 -40.152287 -4.362414 -9.904398 46.641926 14.985764 13.737995
-14.330727 -16.20204 -9.16975 0.657377 -6.1177044 7.502182 -41.79006 -42.21443
21.081337 19.391977 -40.493137 -83.04866 -33.07026 12.006736 7.34809 -42.219494
-59.528706 -46.906578 115.617386 3.9863534 -88.77415 -25.296408 58.062733 -8.733183
7.371894 -9.787716 -83.762764 -33.88648 -118.31517 -0.067825116 -14.285499 -26.525206
-64.68824 -40.75978 21.046207 -40.700493 -43.30468 -4.785546 -59.49664 -81.628746
-11.692188 -9.770208 38.018215 36.685905 -68.03886 -5.0829415 36.69351 -31.26214
-7.912395 36.707645 -40.15548 -36.33543 5.08821 -18.66563 -48.340237 18.676062
6.603081 -133.51393 -36.539375 90.31943 5.2563953 122.72748 6.1619363 -8.296513
31.464256 31.468426 29.529903 -38.898556 29.526934 29.52344 31.463436 29.519169
31.4708 31.465954 31.473307 29.522722 -89.59663 -45.129868 -41.28006 7.579463
-8.785031 -40.454132 6.953863 -41.21726 -41.24703 51.19646 -12.829755 72.039215
4.8949194 -44.389668 -58.750294 8.054817 6.901261 -49.280315 -128.38737 -34.66399
-6.366095 7.6230435 -67.995834 -106.90395 -109.08783 -58.28272 -11.772431 -0.07034713
-14.657274 -92.36221 -16.432673 12.908134 -49.2212 0.77415717 -26.257242 1.1676637
-139.27394 27.820068 -127.21741 -33.638985 -102.73819 6.0546327 7.063701 86.69295
0.7468509 -106.022095 -85.840706 -13.817649 11.170401 -14.851027 -14.569332 -9.110507
1.0459855 1.4960262 -16.140383 -84.07976 6.9911027 -98.848236 -56.46076 -6.3759694
-43.366726 -105.89012 -44.26949 36.687916 51.217148 -9.107247 -9.643141 -42.257744
-14.914446 170.28018 -1.5800427 -8.262617 -36.91425 0.6231151 -47.903385 3.1839082
-35.67431 -29.985203 -48.621143 -34.81885 -14.4549465 -9.187182 -14.872756 -28.922615
-25.825346 25.391563 -16.929981 7.6378417 -74.47769 -26.933163 -13.348025 -40.98507
-56.13456 -110.699104 -75.41891 -16.427496 36.7247 6.438157 -18.49768 -19.9292
00000000: 3f63 1dc1 084d 07c2 e9d2 7042 8a6f 10c2
00000010: 6547 f840 96dc 28c2 f0c0 26c2 95a3 40c2
00000020: 3e87 72c1 9415 b242 8a4a 27c2 beea ad41
00000030: 18fc 0bc1 bd3e b3c2 2ad3 28c2 873e b3c2
00000040: 9581 e8c1 2e63 8241 3b2f 20c2 fb43 1bc1
00000050: 89e8 97c2 2fce 1242 f5fc 6141 2e48 f642
00000060: 1d2c a542 ed44 93c1 0893 f2c2 0d9c 3ec1
00000070: 5802 27c2 c91d 00c3 365b 26c1 2d8f 89c2
00000080: 89d2 abc2 e70c fac1 7cff dd41 48f3 22c2
00000090: 474c 853f 36d4 df40 89d2 5ac2 06c3 d9c2
000000a0: 677c d8c2 32b2 ea40 35bd 8342 bc4e dac2
000000b0: 80de a9c1 83d8 76c1 6a82 a5c2 90c6 1242
000000c0: cf61 dac2 7822 d8c2 08de ea40 34c7 7ac1
000000d0: 119c 3a40 0eab 8bbd 58c9 9dc2 ecc0 f140
000000e0: 03e2 ae41 8c20 80c1 c2b5 1242 db7c 853f
000000f0: 1d4b 11c1 3f53 a642 6827 c8c1 efbc 07c2
00000100: 85e2 1242 8945 21c1 9ab3 1242 6bae 53c2
00000110: 4325 d8c2 6792 4ec1 d88c 20c2 55e0 1242
00000120: 874a 44c2 4d03 9042 f19b 20c2 e598 8bc0
00000130: 6a78 1ec1 5591 3a42 b0c5 6f41 d4ce 5b41
00000140: a84a 65c1 c79d 81c1 4cb7 12c1 dc49 283f
00000150: 3cc4 c3c0 e011 f040 0529 27c2 94db 28c2
00000160: 94a6 a841 c522 9b41 f9f8 21c2 ea18 a6c2
00000170: f247 04c2 971b 4041 8e23 eb40 c3e0 28c2
00000180: 651d 6ec2 56a0 3bc2 1a3c e742 6a20 7f40
00000190: 5d8c b1c2 0b5f cac1 3d40 6842 1ebb 0bc1
000001a0: 8ee6 eb40 7c9a 1cc1 8986 a7c2 c18b 07c2
000001b0: 5ea1 ecc2 e5e7 8abd 6791 64c1 9f33 d4c1
000001c0: 6160 81c2 040a 23c2 a25e a841 4ecd 22c2
000001d0: fe37 2dc2 3123 99c0 8ffc 6dc2 eb41 a3c2
000001e0: 3413 3bc1 c652 1cc1 a712 1842 5ebe 1242
000001f0: e513 88c2 75a7 a2c0 27c6 1242 dd18 fac1
00000200: 5732 fdc0 a1d4 1242 369f 20c2 7b57 11c2
00000210: 9ed2 a240 3653 95c1 675c 41c2 9368 9541
00000220: 714c d340 9183 05c3 5228 12c2 8ca3 b442
00000230: 6434 a840 7874 f542 952e c540 84be 04c1
00000240: ccb6 fb41 56bf fb41 3e3d ec41 1f98 1bc2
00000250: 2937 ec41 0130 ec41 1eb5 fb41 4227 ec41
00000260: 33c4 fb41 46ba fb41 55c9 fb41 892e ec41
00000270: 7931 b3c2 fc84 34c2 c81e 25c2 f68a f240
00000280: 7d8f 0cc1 08d1 21c2 0c86 de40 79de 24c2
00000290: f5fc 24c2 2dc9 4c42 ad46 4dc1 1414 9042
000002a0: 2ea3 9c40 058f 31c2 4d00 6bc2 88e0 0041
000002b0: 21d7 dc40 0b1f 45c2 2b63 00c3 eda7 0ac2
000002c0: 0db7 cbc0 f9ef f340 defd 87c2 d3ce d5c2
000002d0: f82c dac2 8121 69c2 e15b 3cc1 2812 90bd
000002e0: 3284 6ac1 74b9 b8c2 1d76 83c1 b887 4e41
000002f0: 82e2 44c2 2a2f 463f d50e d2c1 0176 953f
00000300: 2146 0bc3 808f de41 506f fec2 528e 06c2
00000310: f479 cdc2 8dbf c140 d709 e240 ca62 ad42
00000320: 9f31 3f3f 500b d4c2 71ae abc2 1715 5dc1
00000330: f6b9 3241 ce9d 6dc1 fc1b 69c1 a3c4 11c1
00000340: dae2 853f c97d bf3f 811f 81c1 d628 a8c2
00000350: 1db7 df40 4cb2 c5c2 d1d7 61c2 f107 ccc0
00000360: 8777 2dc2 bec7 d3c2 f513 31c2 6dc0 1242
00000370: 5cde 4c42 49b7 11c1 4e4a 1ac1 ee07 29c2
00000380: 92a1 6ec1 ba47 2a43 d73e cabf ae33 04c1
00000390: 31a8 13c2 7984 1f3f 119d 3fc2 27c5 4b40
000003a0: 7eb2 0ec2 b2e1 efc1 0d7c 42c2 8146 0bc2
000003b0: 7647 67c1 b3fe 12c1 cff6 6dc1 8461 e7c1
000003c0: 4f9a cec1 ec21 cb41 9a70 87c1 3369 f440
000003d0: 94f4 94c2 1e77 d7c1 8391 55c1 b6f0 23c2
000003e0: ca89 60c2 f165 ddc2 7bd6 96c2 836b 83c1
000003f0: 18e6 1242 6205 ce40 40fb 93c1 006f 9fc1
