weights/python/lasso.pt (torch, 22373 bytes, 1 tensors)

weight f4 [1, 5248]
00000000: 801c 0a43 6d69 bb41 6c9f d73d b20c e0be
00000010: c1a9 afbe 3a3e 263e fc80 693e db03 62bf
00000020: c36a c83d 9c12 9f3e 004e 75bd 1016 33be
00000030: 6172 493e a011 643c 6e74 d9bd dd4b 053f
00000040: a678 9abe 6b7d 2dbe 90fa bf3f f44a 2fbe
00000050: 30e1 863d d83b df3c e003 b8be 1688 233f
00000060: e4c2 b13d fc32 af3e 6000 a33a 47a7 9b3d
00000070: 3512 923d 3088 ba3d 64db f7bc 8227 adbd
00000080: 2c2c e4c1 6eb8 56bf 958d a0be 3ac4 523e
00000090: fa35 d43f 8c18 fabc 51dc a4be a71d 253d
000000a0: 3680 8abd 1ccc 823e c001 49bc ddc9 1d3d
000000b0: dd3b 813e 4ea5 1f3d 803e 30be 58b5 6e3e
000000c0: 4662 f8bd b2b8 393e f4f1 81be debd 37be
000000d0: 9885 ec3c 80b3 933b 8cd5 26bc fc53 273f
000000e0: ccd1 813e c6ba 803d 592d 483e 6085 bfbc
000000f0: 90b1 8b3e ed53 a3bd 1aea 39bf 3ca6 dfbe
00000100: 4af2 cdbe 9c7f 98bc 7273 a4bd 595e 64bf
00000110: 5a01 0d3f e47d fdbc 48f5 35be 6a47 2fbe
00000120: 5a16 9e3e d70a 1ebe 1870 673d 3e44 81be
00000130: a8ea 903c c33c 1e3e 3e40 b5bd 7439 f1bc
00000140: af4b 00bf dc2c 6f3c d7ab 9abd 2449 b742
00000150: a810 763f 1c2e 32bd 7ce9 693f 56b1 5b3f
00000160: 626d 85bd 6fce 1fbe 46b9 0bc0 318d 6d42
00000170: 3ff8 c23e cca2 f13d 4e73 133e c214 de3d
00000180: 3626 d3be b813 653d 68c9 38be 9f71 11bd
00000190: 80e2 a1ba 08f6 75be 9018 0c3e d84c 933d
000001a0: bcfb 0dbe de31 a93f c84c 743c 1c70 123e
000001b0: de33 35be 1911 313d 158b 05bf 1a3c 263e
000001c0: 62a6 8a42 7c20 18bd 58f6 f73c fbe3 2cbe
000001d0: 6117 1ebd c787 833f 32b8 d33d c8b8 0ebe
000001e0: e0a7 42bc 3e11 cfbd beee 2c3e 1667 f1be
000001f0: 0233 cfbe b75b 88be 4c5a c542 7dd3 2dbf
00000200: f0e8 773d cb23 11bd 104e 46bc 9332 dc3f
00000210: 28ee 4fbf 5e85 e0be 9dcc e03f 3871 b53c
00000220: 2410 09be 2b23 27be d2bc 103d 0c6e 813d
00000230: f9ca 09be d6f2 b7be fffe 08be f0c5 7b3d
00000240: 77de 9a3d 9668 d63d b9fa d23d c2bb 0d3e
00000250: a5a3 d242 c92f cc3e 3645 ee3d 3688 14be
00000260: 9253 0dc1 099a 953f 022b d5bd d267 38be
00000270: a16b aabe 0a91 61bd 297b 353e be46 97be
00000280: 9edc fcbc 7f28 babe 26e5 0fbe 4c15 123e
00000290: b584 453d 42de 9a3f 715e 3cbf 9033 1e3c
000002a0: 166b 43bd b857 13bf af71 c13d 98db 003d
000002b0: 9ec8 253e e0f2 62bc 9ef7 03bd 89f4 9ebf
000002c0: bb91 cabe ec03 813e 55e4 8c3f 572a 673d
000002d0: 3929 1d3e 2055 72be 802f debd e4b6 1abe
000002e0: c6f5 7abe e92b 843d 109e 073f ee64 153e
000002f0: 0851 e43e 28c5 d6bd 5468 703d 8676 693f
00000300: 0ef1 00c0 d867 fcbe 78c7 bbbc 2237 073e
00000310: 8cf6 cfbd af16 6ebf dff6 82be e137 1cbd
00000320: 99a5 f141 d4e1 a7bc e020 92bc e408 8d3f
00000330: d2dc adbd e564 f43e 8b75 f43e 2822 81bd
00000340: ac6f 75bd 451f 6b3d 1a98 e33d 400c 9b3e
00000350: 0922 01be b6cb 36be d74e 673f 004f fcba
00000360: 6245 963d b0d1 87bd 9d8f bb3c c91e 8d3d
00000370: f98f 3e3e a232 b13f 0280 21c0 fe93 633d
00000380: 00fe 103a 7d73 84be a44f 1a3d 462e 07be
00000390: 300a 383c f609 f93c a4a8 17bd 8d8a 15bf
000003a0: aa17 8bbd f00b 9b3f 426f cb42 e144 533d
000003b0: 0ee7 7a3e 7eb9 0ebe 6c55 18bf 0007 84bd
000003c0: 80b4 913d aa86 a3be 8639 8d3f e83d 0d3d
000003d0: ec81 a53e 26a4 6c3f 6c9d 113e 4523 5ebe
000003e0: 0013 4a3c 067c 4fbe 0076 e739 761e d1bd
000003f0: 3ef2 713e 7a6a 12be 944c f3be 1e68 8a3d
138.11133 23.426477 0.10528454 -0.43759686 -0.343092 0.16234675 0.2280311 -0.8828713
0.09785988 0.31068885 -0.05988884 -0.17488885 0.19672538 0.013920218 -0.1061791 0.52068883
-0.30170172 -0.16942374 1.4998341 -0.17118436 0.0658592 0.027250215 -0.35940456 0.63879526
0.086797506 0.34218585 0.0012436025 0.07600265 0.07132379 0.09108007 -0.03025598 -0.08454801
-28.521568 -0.8387517 -0.3135802 0.20582667 1.6578972 -0.030529283 -0.32199338 0.04031148
-0.067627355 0.25546348 -0.012268484 0.03852259 0.25240985 0.038976006 -0.17211342 0.23311365
-0.12128119 0.18136862 -0.25379908 -0.17943522 0.028872296 0.004507482 -0.0101827495 0.65362525
0.25355375 0.06285624 0.19548549 -0.023379028 0.27283907 -0.07974992 -0.72622836 -0.43681514
-0.40223914 -0.018615536 -0.08029832 -0.89206463 0.5508019 -0.030943818 -0.17769349 -0.17117086
0.30876428 -0.15433823 0.056503385 -0.25247377 0.017690018 0.15452866 -0.08850144 -0.029446341
-0.50115484 0.014598098 -0.07552307 91.64285 0.96119165 -0.043501005 0.91371894 0.8581747
-0.06515004 -0.15606092 -2.1831832 59.387882 0.38080022 0.11798629 0.14399454 0.10843803
-0.4124009 0.05592701 -0.1804558 -0.03550875 -0.0012350827 -0.24019635 0.13681245 0.07192391
-0.1386556 1.3218343 0.014910884 0.14300579 -0.17695567 0.043229196 -0.5216535 0.16233864
69.32497 -0.037140355 0.030268833 -0.16883843 -0.038596515 1.0275811 0.10337867 -0.13937676
-0.011880845 -0.101107106 0.16887948 -0.4714896 -0.40468603 -0.26632473 98.67636 -0.6790083
0.06052488 -0.035434525 -0.0121035725 1.7202934 -0.8122277 -0.4385175 1.7562443 0.022148713
-0.13385063 -0.1632201 0.035336323 0.06319818 -0.13456334 -0.35927457 -0.13378523 0.061468065
0.07561963 0.10469167 0.10301728 0.13841155 105.31962 0.39880207 0.11634295 -0.14505085
-8.832903 1.1687633 -0.10408594 -0.18008354 -0.3328524 -0.05506996 0.17722763 -0.2954616
-0.030866917 -0.3635902 -0.14052257 0.14265937 0.048222262 1.2099078 -0.73581606 0.009655848
-0.047709547 -0.57555723 0.094455115 0.03145942 0.1618981 -0.013851851 -0.032218568 -1.2418376
-0.3956431 0.25198305 1.1007181 0.056436863 0.15347756 -0.23665285 -0.10848904 -0.1510883
-0.24507818 0.06453688 0.5297556 0.14589283 0.44593072 -0.10486823 0.058693245 0.9119648
-2.0147128 -0.49297976 -0.022922263 0.13204625 -0.10154447 -0.9300336 -0.25578973 -0.038139228
30.205858 -0.020493425 -0.017837942 1.1018338 -0.08489384 0.47733226 0.47745928 -0.06305343
-0.05992095 0.057402868 0.111129954 0.30282784 -0.1261064 -0.17851147 0.90354675 -0.0019249618
0.073374525 -0.066317916 0.022895629 0.068906374 0.18609609 1.3843577 -2.523438 0.05556106
0.0005531013 -0.2586936 0.037673607 -0.13201246 0.011232898 0.030400258 -0.037026063 -0.58414537
-0.06791623 1.2113018 101.7173 0.05157936 0.24502203 -0.13937947 -0.59505343 -0.06446648
0.07114506 -0.31938678 1.103318 0.034482867 0.32325685 0.9243797 0.14220208 -0.21693142
0.0123336315 -0.20262155 0.0004414767 -0.10210888 0.23627564 -0.1429843 -0.47519362 0.0675814
