weights/python/lasso.pt (torch, 22373 bytes, 1 tensors)

weight f4 [1, 5248]
00000000: cc35 6243 3995 3142 4b7a 66be c06a d13d
00000010: acb6 a53c de79 67c0 a69a eac1 782c 8ac2
00000020: ba9a 893f 2936 6f3f df60 ebc1 74fd cd41
00000030: 3483 efc1 0915 82bf c670 eec1 467a a8c2
00000040: de13 eb3e feeb 0042 ceac 3842 62d5 19c2
00000050: d15b 47c1 65ef e33d 002a af3a dc9a 7a40
00000060: 0764 13bc ca14 783c b0b5 11c2 43e7 25c1
00000070: 8dc8 8cbe 54ea 5f3f 920c 46be 68d5 c1bf
00000080: 5012 3f41 458f e141 8a66 b842 e3a6 7fc2
00000090: ca1b 0942 27c3 233f c0cc aabe 6cba 2ec2
000000a0: f7c0 0bc2 cdc6 01c1 4079 a040 29c2 46bf
000000b0: 9044 d1be 7e2c ca3e f43a efbf 716c 35c2
000000c0: 1a99 30bf 3cb2 0bc2 6388 91c0 0b3c f9bf
000000d0: 566b 80bf 5e31 563e 5665 9840 c519 f442
000000e0: a5e3 6e40 d2c4 713c 0e81 eec1 ef8b cc40
000000f0: de4f f7c0 0d4e 9ac0 e872 63c2 fa65 abc1
00000100: c315 693f 8f56 4ec2 b5a5 c6c0 1585 b03f
00000110: 864d b041 1c31 d3c0 cf10 9cc2 a819 11c1
00000120: 8289 663e 5334 c63f 3e37 74c2 8849 b041
00000130: f050 7f3f cf11 033f ccfc 26c2 bf9d bcbe
00000140: cc6c 03c0 4dfe 643f 4ab8 0ec0 83f5 f542
00000150: c8e9 da41 8a78 bb3f 88e5 da41 ea42 d941
00000160: 687b 893f 7ad6 893f e4c2 f7c2 3261 9c42
00000170: 8573 da3f 701c 79bf edeb 2e40 fbb6 6e40
00000180: 587c 473e 2b5c 983d 8848 2abe 004b dcba
00000190: 79aa 2abe 20ad 4dc2 18a9 d3c0 5825 703f
000001a0: 70e2 fdc0 90df da41 2795 eac1 3bf1 1e40
000001b0: 5bfe 403e 5452 10c0 83f3 a6c2 1a8b 5dc0
000001c0: 2b75 9542 e949 36bf ce69 6ac1 3c8a 7040
000001d0: b806 7a40 7be5 3c3f 7057 263f d0a0 98be
000001e0: 4495 d3c0 b567 933e 3c97 9c3d c9b5 2bc1
000001f0: b378 d13e 1eab 3640 e99d 4f43 7c5a 5dbe
00000200: 5ac4 8440 b497 a1c0 502b 78bf e9c7 1142
00000210: 4a1d ab3d e96e 7ac1 b364 8f42 4c8b 2242
00000220: 774c 84bd 175b aec1 a288 37c0 1ed7 0e3c
00000230: 10fd 74bb 5db1 8e3d 9036 733b 486c c1bd
00000240: 02a1 efc0 69cc bbc0 54bc a4c0 c2dc 19c2
00000250: 6475 9d42 8e79 3742 dc5a 45be 13cd a4bd
00000260: e670 1ec3 ce55 1642 5bd2 3f3e 9216 ecc1
00000270: 4d2a fb3e a5de ccbf 06d7 8c3f 0098 f4b9
00000280: 3e6b d3c0 284d b3bd f891 813f 6c38 74c2
00000290: ca5a cf40 f012 b241 ac10 08c2 c644 1f3f
000002a0: 54d4 923f c02c d33d 2997 e1c0 2786 69be
000002b0: 5d14 f6bf 9438 bb3f 1361 9bc1 e241 1542
000002c0: ee4e 62c2 1ec0 6742 0042 d941 f4ef bac2
000002d0: 78c6 4ac0 319b 18bf d0f1 e03f 96f4 823f
000002e0: 78de a3c1 0340 09bf 6089 39c2 bd54 2f40
000002f0: 39f1 003e be3b ca3e f4da 95bd feef da41
00000300: d863 f8c2 0090 a7be e2cf 92bf 24a3 bd3f
00000310: bfe9 9dbf 174a aec1 932b c640 b7e2 8740
00000320: 41f7 8842 e67d 50c1 a959 47bf aef6 da41
00000330: 685a d0c1 a1d8 9241 8306 b341 5dc1 21bf
00000340: e5e5 9342 241d 1140 c0c3 fa3e 9f20 6a3e
00000350: 4b57 0b3e efbc 653d 9eb4 ff41 bb04 52bf
00000360: f8d4 3f42 d80d 75c1 e3a8 3fc2 e7da 0ec2
00000370: 6afc 83bd f873 2fbd 0300 8cc2 b954 c0c2
00000380: 6df7 b241 812f 963e 9c7e a9bb 0c4c 96be
00000390: f424 603f a025 b5c1 a248 cbc0 8408 27c2
000003a0: da95 6540 884f d941 efe1 fe42 0a3e dc40
000003b0: bc27 11c1 86d8 26bf 3c9e 893e dc3e 8d3e
000003c0: 1aa5 4d3f b92a 29c2 283a d941 edcd bfbe
000003d0: 12ad 3542 9d80 33bd 9be4 1e40 8710 f941
000003e0: 542c 4cc2 825a 0f3d aebe 65bf b507 933e
000003f0: eeec cfbd f8eb 5ec2 9a42 13bf 75c5 923e
226.21014 44.395725 -0.22507589 0.10225439 0.020228706 -3.6168132 -29.325512 -69.08685
1.0750344 0.93442017 -29.4223 25.748756 -29.939064 -1.016267 -29.805065 -84.238815
0.45913595 32.23046 46.168755 -38.45838 -12.459916 0.11129645 0.0013363957 3.9157019
-0.008996016 0.015141675 -36.42743 -10.36896 -0.27496758 0.8746693 -0.19340733 -1.5143251
11.941971 28.194956 92.20027 -63.912975 34.277138 0.63969654 -0.33359337 -43.682053
-34.938442 -8.111035 5.014801 -0.77640015 -0.40872622 0.3948707 -1.8689866 -45.3559
-0.68983614 -34.924057 -4.547899 -1.9471449 -1.0032756 0.2091727 4.76237 122.05033
3.7326443 0.014756398 -29.813015 6.3920817 -7.7284994 -4.8220277 -56.862213 -21.424793
0.9104883 -51.58453 -6.207728 1.3790613 22.037853 -6.599745 -78.03283 -9.068764
0.22513393 1.5484718 -61.053947 22.035904 0.99732876 0.5119905 -41.746872 -0.368391
-2.0535154 0.8945053 -2.229998 122.979515 27.364151 1.4646161 27.362076 27.157673
1.0740786 1.0768578 -123.880646 78.189835 1.7066504 -0.9730902 2.7331498 3.7299182
0.19481027 0.07439455 -0.16629231 -0.001680702 -0.16666593 -51.419067 -6.6143913 0.9380698
-7.9338913 27.359161 -29.322828 2.4834735 0.18847029 -2.255025 -83.47561 -3.461615
74.72884 -0.7120653 -14.650831 3.7584372 3.90666 0.7378766 0.6497717 -0.2981019
-6.611971 0.2879006 0.07646033 -10.731881 0.409124 2.8541942 207.61684 -0.21616548
4.1489687 -5.0497684 -0.9694109 36.445225 0.08355196 -15.652078 71.69668 40.636032
-0.06459897 -21.794477 -2.8677144 0.00871828 -0.0037382282 0.06967423 0.003711138 -0.09444481
-7.4884043 -5.8687024 -5.1479893 -38.465584 78.72928 45.868706 -0.19272941 -0.08046927
-158.44101 37.583794 0.18732588 -29.51102 0.4905571 -1.6005446 1.100312 -0.00046652555
-6.606841 -0.08754951 1.0122671 -61.0551 6.4798326 22.259247 -34.01628 0.62214315
1.1471047 0.1031127 -7.049702 -0.22805081 -1.9224964 1.4626641 -19.4224 37.31434
-56.57708 57.937614 27.157227 -93.46866 -3.1683636 -0.59611803 1.7573795 1.0230892
-20.483627 -0.536133 -46.384155 2.739547 0.12592019 0.39498705 -0.073171526 27.367184
-124.19501 -0.3272705 -1.1469691 1.4815412 -1.2336959 -21.786177 6.192819 4.246425
68.48292 -13.030737 -0.77871186 27.37045 -26.044144 18.355776 22.37818 -0.63185674
73.94901 2.2674036 0.4897747 0.22864006 0.13607518 0.056088384 31.963192 -0.8203847
47.957977 -15.31588 -47.91493 -35.71377 -0.064446285 -0.042835206 -70.00002 -96.165474
22.370813 0.29333118 -0.0051725637 -0.29354894 0.87556386 -22.643372 -6.3526163 -41.758316
3.5872712 27.163834 127.44128 6.882573 -9.072201 -0.6517414 0.26878536 0.2758702
0.8033005 -42.29172 27.153397 -0.37461796 45.419014 -0.043823827 2.482703 31.13307
-51.04329 0.034998424 -0.8974408 0.28716817 -0.101526126 -55.73044 -0.575235 0.28666273
