weights/python/lasso.pt (torch, 22373 bytes, 1 tensors)

weight f4 [1, 5248]
000000 c2 d9 2a 43 8c 3d 0e 42 43 da 1b be 38 c1 a3 c0
       170.85062 35.560104 -0.15219979 -5.1173363
000010 89 31 6b 3d c2 33 05 3f d0 ed 4b c2 7b ba 5b c2
       0.057420287 0.520321 -50.98224 -54.93211
000020 b2 ff cb bc 72 76 2a 40 dc 5b 18 c2 fd 48 bd 41
       -0.024902198 2.6634793 -38.089706 23.660639
000030 c7 2a 26 c2 f6 02 2e 3d a9 c2 26 c2 39 37 cf c2
       -41.541775 0.042483293 -41.690098 -103.60786
000040 58 63 f6 be b7 7f 33 42 0a 8c 1b 42 03 92 6b c2
       -0.48122668 44.87472 38.886757 -58.89259
000050 5e b9 c8 c1 a4 a9 45 be 2c 17 5e 3d 68 b1 a7 c1
       -25.090511 -0.19302994 0.054221317 -20.961624
000060 00 62 e7 3a e2 3d 1b 40 e1 ed 47 c2 60 8b 9f c1
       0.0017653108 2.425652 -49.982304 -19.943054
000070 09 46 3e c1 6a b8 c5 bc 05 10 5a 3e 03 1a 10 3e
       -11.892098 -0.024135787 0.21295173 0.14072423
000080 d8 b0 05 42 a1 dc 68 42 72 5a ae 42 8f 56 b7 c2
       33.4227 58.215458 87.17665 -91.66906
000090 cd dc 00 42 ad 9b 54 3e a4 c4 88 bd 9f d5 3b c2
       32.215626 0.2076251 -0.06678131 -46.958614
0000a0 74 c0 35 c2 fa 5b 15 c2 a1 47 2f c1 72 46 1a bc
       -45.437943 -37.33982 -10.954988 -0.0094162095
0000b0 f2 e2 60 bd 6e c9 af bd cf f4 2e 3d 43 02 71 c2
       -0.054903932 -0.085833415 0.042713936 -60.25221
0000c0 c2 66 0b c2 d0 3a 3a c2 1e 4e 86 c1 7c 38 2f bd
       -34.85035 -46.557434 -16.788143 -0.042778477
0000d0 00 70 b7 37 26 71 a8 3b 0c 56 ca bf 63 da dd 42
       2.1867454e-05 0.0051404415 -1.580751 110.92654
0000e0 ba 26 9c be ab 20 14 40 ef 29 26 c2 9c c2 bd 41
       -0.30498296 2.314494 -41.54095 23.720024
0000f0 83 66 fc be 6e 8c 54 c1 46 68 87 c2 82 d8 62 c2
       -0.4929696 -13.284285 -67.70366 -56.711433
000100 69 0c c6 3c 70 5a 63 c2 b3 ff a6 c0 9a e0 5e 40
       0.02417584 -56.838318 -5.2187133 3.4824586
000110 46 e0 e8 41 93 78 e8 bd 1f 4c 95 c2 81 18 0c c2
       29.109509 -0.11351123 -74.648674 -35.02393
000120 0a 87 43 3e a8 e1 fc 3e 9d 1c 88 c2 22 d7 e8 41
       0.19094482 0.49390912 -68.055885 29.105045
000130 67 bd bb 3f 3a 7e 6f 3e 51 41 6b c2 70 f4 81 3e
       1.4667176 0.23387995 -58.813786 0.25381804
000140 18 22 03 40 98 96 b9 3b 5b e9 d9 c1 b6 6d d2 42
       2.048956 0.005663704 -27.238943 105.21428
000150 fc 45 e9 41 47 96 4a 40 7c 5d e9 41 aa 4d e9 41
       29.159172 3.1654222 29.170647 29.162922
000160 50 23 ae 3b 00 35 83 39 67 56 f7 c2 e8 01 be 42
       0.005314268 0.00025025755 -123.668755 95.00372
000170 70 c0 c6 40 bf f8 12 c0 6f e5 aa c1 e0 21 2c be
       6.210991 -2.2964323 -21.362028 -0.16809797
000180 2c 97 be 3c be 55 6e bd be e1 a6 bd b3 56 e5 3d
       0.023265444 -0.05818724 -0.08148526 0.11198177
000190 d0 e6 f8 3b e8 cb 46 c1 93 4e e7 bd b6 ea c6 bf
       0.0075958744 -12.424782 -0.11294284 -1.5540378
0001a0 1d 67 a7 c1 fb 3e ea 41 a9 63 18 c2 59 87 a8 c1
       -20.925348 29.280752 -38.097324 -21.066088
0001b0 11 49 d4 3d 25 42 21 c2 c7 69 b5 c2 e2 cf 13 3f
       0.10365499 -40.314594 -90.7066 0.5773908
0001c0 4b db 8c 42 bf e3 a5 bd 88 ad c0 c1 1e 28 76 bd
       70.42831 -0.0810008 -24.084732 -0.060096852
0001d0 d0 f9 da bc 74 2f ad bd f1 6f 8b c0 18 22 7a be
       -0.026730448 -0.084563166 -4.3574147 -0.24427068
0001e0 93 90 e4 bd ee 63 b3 bd 62 ea 0c c1 9b 15 28 c2
       -0.11160388 -0.087592945 -8.807222 -42.0211
0001f0 6c c8 25 3c f9 b3 12 c1 7f 13 09 43 d1 ee 35 41
       0.010118585 -9.168939 137.07616 11.370805
000200 8c 77 ae bf 23 d9 6b c1 ec 30 13 c0 3f e0 00 42
       -1.3630233 -14.740512 -2.299861 32.21899
000210 a8 cf a3 c0 b2 80 e9 c1 2f 3e 9a 42 6b 96 18 42
       -5.1190987 -29.18784 77.12145 38.146893
000220 35 01 92 be ed 7e 60 c2 33 34 28 3d e8 20 44 3d
       -0.28516546 -56.12395 0.041065406 0.047882944
000230 30 05 cb bb bc a4 77 3d 60 09 fb 3c d5 39 92 be
       -0.0061956868 0.060459837 0.030644119 -0.28559747
000240 b2 8c 8b bc 4c f0 ac c1 98 21 aa bf 2d 07 6c c2
       -0.017034862 -21.617332 -1.3291502 -59.007008
000250 4d 71 94 42 44 3d 22 42 ef 46 04 bc e6 90 1a 40
       74.22129 40.55983 -0.0080735525 2.415094
000260 58 e6 f9 c2 13 0b 08 42 f6 49 d9 bd 16 47 29 c2
       -124.94989 34.010815 -0.1060981 -42.31942
000270 3a ef 94 3e e9 3d 1c bf fc 12 27 c1 08 5f cd bd
       0.29088765 -0.6103197 -10.442135 -0.100278914
000280 93 7f e7 bd d6 62 f3 bd 66 1f b0 3f 47 30 87 c2
       -0.1130363 -0.11884086 1.3759582 -67.59429
000290 46 28 f2 be 82 82 d5 41 ec 8b 34 c2 a2 e8 68 3e
       -0.4729635 26.688725 -45.136642 0.22744992
0002a0 a0 46 04 3b 07 ca af c0 9e 5c 15 c2 83 d3 40 3e
       0.0020183697 -5.4934115 -37.340446 0.18830685
0002b0 b8 9b 02 40 75 fd db c1 9f bb 45 c2 f8 51 4f 42
       2.0407543 -27.498758 -49.433224 51.830048
0002c0 96 0c 74 c2 57 fe 11 42 c8 44 ea 41 a9 d0 c4 c2
       -61.01229 36.49838 29.283585 -98.40754
0002d0 60 4e 96 c1 34 c2 ff bf 63 73 d7 40 60 8e 33 be
       -18.788269 -1.9981141 6.7328353 -0.1753478
0002e0 47 d3 f8 c1 32 ad 16 bc dd ab 81 c2 33 e0 aa c1
       -31.103163 -0.009196566 -64.83567 -21.359472
0002f0 73 9e 08 bc ec 23 cf 3d 42 1f a3 bd 73 31 ea 41
       -0.0083385585 0.101142734 -0.07964946 29.274145
000300 04 03 fb c2 34 54 8d bd b9 fc d2 3e db b3 4a 40
       -125.50589 -0.06900826 0.41208437 3.1672275
000310 76 80 32 3d c7 82 60 c2 bf eb be 41 d0 c3 dc bc
       0.04357954 -56.127712 23.86511 -0.02694884
000320 81 84 8e 42 17 29 2a c2 6c 19 ef 3c 2a 4a e9 41
       71.2588 -42.540127 0.029186927 29.161213
000330 78 30 11 c2 75 d9 07 42 d6 dc 07 42 9f 79 03 bc
       -36.297333 33.96236 33.96566 -0.008024602
000340 dc 36 81 42 7a d0 8b 40 a1 c7 8b c0 0a 97 44 3e
       64.60715 4.369199 -4.368119 0.19198242
000350 fe 98 f5 3d 49 55 d2 3d 3e d8 fb 41 c8 2e 20 be
       0.119920716 0.10270173 31.480587 -0.15642846
000360 e5 78 42 42 d1 96 57 c1 6f 62 87 c2 aa 36 3a c2
       48.61806 -13.47432 -67.69225 -46.553383
000370 32 18 7d be c2 47 bf bf 06 bc 5d c2 ec 72 b1 c2
       -0.24716261 -1.4943774 -55.433617 -88.72446
000380 95 8c af 41 b7 a2 a0 c1 00 42 e5 3a 79 27 af be
       21.943644 -20.07945 0.0017490983 -0.34209803
000390 80 fc 2a bd f4 45 e6 c1 41 e8 1b bd 50 40 6a c2
       -0.04174471 -28.784157 -0.03806329 -58.562805
0003a0 70 b8 f1 bc e2 45 e9 41 dd 92 e8 42 4b 51 61 be
       -0.029506892 29.159122 116.28684 -0.22003667
0003b0 41 11 0c c2 46 68 0b c2 33 2e 36 bd 6f c4 b7 bd
       -35.01685 -34.85183 -0.044477653 -0.089730136
0003c0 65 bb 81 be 40 0b 3d c2 02 4d e9 41 0d 82 cf 3e
       -0.25338283 -47.260986 29.162601 0.40528908
0003d0 15 3f 22 42 a5 be c3 bf d1 e1 aa c1 fe a8 15 42
       40.561604 -1.5292555 -21.360262 37.41503
0003e0 96 a0 8b c2 85 1d 05 c2 5a 23 95 bf 11 ae d5 3d
       -69.813644 -33.278828 -1.1651413 0.10433591
0003f0 ff ca 84 bf 19 be 89 c2 ea 05 b1 c1 51 b3 f5 3d
       -1.037445 -68.871284 -22.127888 0.119970925
