weights/python/mean_squared_error.pt (torch, 22476 bytes, 1 tensors)

weight f4 [1, 5248]
000000 70 79 5c 43 ae 7e ea 41 2a 78 c7 c1 ed 42 76 c1
       220.47437 29.311855 -24.933674 -15.391339
000010 d6 7c c7 c1 34 5c 76 41 8e 63 5e c2 65 68 39 c2
       -24.935955 15.397511 -55.59722 -46.351948
000020 4a b8 50 c1 05 dd c9 40 11 f4 56 c2 e2 ef e1 41
       -13.044992 6.30823 -53.738346 28.24213
000030 40 a2 82 c2 4b 17 ac c0 44 99 82 c2 d1 f1 cc c2
       -65.316895 -5.3778434 -65.29935 -102.4723
000040 ef 47 f5 40 68 d1 e1 40 35 56 f2 41 7d f8 74 c2
       7.665031 7.0568123 30.292093 -61.242664
000050 da 27 ca c1 14 1e 22 41 1d 95 c0 3f b7 61 41 c2
       -25.269459 10.132343 1.5045506 -48.345425
000060 50 b8 bf 3f 8a eb 31 41 c0 8a 8f c2 58 67 19 c2
       1.4978123 11.120005 -71.770996 -38.35092
000070 c3 70 19 c2 27 80 36 c2 c5 50 13 c1 86 4c cd c1
       -38.36012 -45.62515 -9.207219 -25.662365
000080 5e d6 ab 41 16 00 9f 42 4c ae c2 42 2e 1f a0 c2
       21.479671 79.50017 97.34042 -80.0609
000090 e3 90 fb 41 d6 b3 d9 c1 2f 48 c7 c1 04 86 29 c2
       31.445745 -27.21281 -24.910246 -42.380875
0000a0 4e 2d 23 c2 ef 0a 25 c2 45 76 0a c2 75 d5 ab c1
       -40.794243 -41.260677 -34.615498 -21.479227
0000b0 f9 6b 19 c2 00 44 2d 41 99 cb 86 c2 87 81 6b c2
       -38.355442 10.829102 -67.39765 -58.87649
0000c0 f5 3c 64 c2 21 16 3f c2 4d 73 03 c2 53 e0 17 c1
       -57.05953 -47.77161 -32.8626 -9.492267
0000d0 b7 6c ab c0 98 d5 ef bf b4 cb c8 c1 99 bd f6 42
       -5.357021 -1.8737059 -25.099464 123.37031
0000e0 da e2 bd c1 26 ff 31 41 31 95 82 c2 a4 1e 07 42
       -23.735767 11.124792 -65.29139 33.779922
0000f0 a5 d1 13 c1 cf 97 3b c2 65 39 2c c2 35 7f a3 c2
       -9.238683 -46.89825 -43.05605 -81.74845
000100 ed 4c 0d c1 40 0d 79 c2 f7 f0 b6 c1 be 47 73 c0
       -8.831281 -62.26294 -22.867659 -3.8012538
000110 36 d2 ff 41 06 7d f4 c1 ce 49 74 c2 e7 75 3e c2
       31.977642 -30.561047 -61.072075 -47.61514
000120 18 74 c7 c1 80 af c0 40 0d e5 80 c2 8a b9 ff 41
       -24.931686 6.0214233 -64.447365 31.965595
000130 39 87 ea 40 f4 29 fc c1 36 6d 8a c2 ad 68 13 c1
       7.3290067 -31.520485 -69.2133 -9.213056
000140 63 85 34 c1 7a d2 8c 40 22 3f 68 c2 b9 3a e0 42
       -11.282565 4.400693 -58.061653 112.11469
000150 14 93 ea 41 78 82 73 c0 5e 74 ea 41 78 88 ea 41
       29.321815 -3.8048382 29.30682 29.316635
000160 5e 6c 50 c1 cc 62 50 c1 3c 38 15 c3 f0 15 aa 42
       -13.026457 -13.02412 -149.21967 85.04285
000170 98 8a 08 bf 07 2f 23 c2 8b 92 29 c2 bc f4 bd c1
       -0.5333648 -40.795925 -42.39311 -23.7445
000180 7e 78 0e c1 a2 e0 99 3f d3 5d 99 3f 6a e2 99 3f
       -8.904417 1.2021677 1.1981758 1.2022221
000190 b3 da 99 3f f5 b1 23 c2 1a 5e f4 c1 65 75 f1 c0
       1.2019867 -40.923786 -30.545948 -7.5455804
0001a0 86 24 3b c2 5a a0 ea 41 1b e5 56 c2 e9 84 29 c2
       -46.785667 29.328297 -53.723736 -42.379795
0001b0 9e 84 2d 41 11 a1 83 c2 fb 9e bf c2 70 48 76 41
       10.844877 -65.81458 -95.81051 15.392685
0001c0 f6 f0 87 42 ad 35 31 c1 bb 6d 0f c2 f8 d2 d5 40
       67.97063 -11.075604 -35.85716 6.682003
0001d0 b8 da d5 40 8c 8e c7 c1 8b 34 10 c2 6b 30 20 c2
       6.682949 -24.944603 -36.05131 -40.047283
0001e0 1a 6c f4 c1 c8 58 2d 41 22 85 a7 c1 f4 ec 7c c2
       -30.552784 10.834175 -20.940006 -63.2314
0001f0 ac fc 51 c0 72 de 89 c1 82 f0 4c 43 1e a2 54 bf
       -3.2810469 -17.233616 204.93948 -0.8305987
000200 68 1b ff 3f ce be e9 c1 0d 45 23 c2 80 6d fb 41
       1.9930239 -29.218166 -40.817432 31.428467
000210 11 54 76 c1 40 c4 5d c2 de 28 ad 42 7c 86 38 42
       -15.395524 -55.44165 86.57982 46.131332
000220 4d e8 be 3f 8b 77 a3 c2 d9 46 fd 40 ad 4c c0 3f
       1.4914643 -81.73348 7.9148984 1.50234
000230 6d 1a bf 3f 8d 70 bf 3f cd a9 be 3f 6d 4f be 3f
       1.492994 1.4956223 1.4895569 1.4867989
000240 b5 94 5b 40 b8 eb 46 c2 94 b6 7f c2 b5 ed 74 c2
       3.4309514 -49.730194 -63.9283 -61.232136
000250 48 6f 8e 42 af 27 26 42 d8 ed 07 c1 de db 31 41
       71.21735 41.538754 -8.495567 11.1161785
000260 ad 3f 1a c3 00 a4 00 42 ce 62 2d 41 d1 4d ff c1
       -154.24873 32.160156 10.836622 -31.912996
000270 9d 5e 00 c2 2f 9f 4b c2 e6 c8 ea c1 04 66 c7 c1
       -32.092396 -50.905453 -29.348095 -24.924812
000280 16 4e f4 c1 86 bd e7 c0 15 b3 ea 40 66 dc 80 c2
       -30.538128 -7.241885 7.3343606 -64.430466
000290 e5 6d 0a c2 d0 6e fb 41 ea 06 6f c2 a6 c8 d9 c1
       -34.60732 31.429108 -59.756752 -27.222973
0002a0 00 73 50 c1 d5 1d 76 c1 86 22 25 c2 c2 70 c7 c1
       -13.028076 -15.382283 -41.283714 -24.930058
0002b0 3b 80 34 c1 fd 1b 13 c2 f3 88 99 c2 ed 36 3b 42
       -11.281306 -36.777332 -76.76748 46.80364
0002c0 2c 48 4e c2 46 f5 27 42 ee 96 ea 41 49 81 c8 c2
       -51.57048 41.989525 29.323696 -100.25251
0002d0 e6 5d e9 c1 8f c7 39 c2 21 8f ea 40 fb 01 76 c1
       -29.170849 -46.44488 7.329972 -15.3754835
0002e0 5c 28 56 c2 59 61 ef c0 70 4a 90 c2 a5 8e 29 c2
       -53.539413 -7.4806333 -72.145386 -42.3893
0002f0 bb 8d 36 c2 6a 44 2d 41 4e a1 9a 3f 18 79 ea 41
       -45.63841 10.829203 1.2080476 29.309128
000300 d4 35 15 c3 15 70 c7 c1 b6 86 7e 40 e4 c0 72 c0
       -149.21027 -24.929728 3.976972 -3.793023
000310 cb a1 ab c0 79 73 a3 c2 b1 20 07 42 44 0d d6 40
       -5.3635 -81.72553 33.781925 6.6891193
000320 e8 d9 8e 42 91 45 5f c2 79 e2 ab c1 2a 7c ea 41
       71.4256 -55.817936 -21.485582 29.310627
000330 f2 72 18 c2 9d 5f 48 42 ef 57 48 42 16 82 86 c1
       -38.11225 50.093372 50.085873 -16.813519
000340 e3 08 85 42 bd 4f 43 41 73 42 10 c2 f6 85 c7 c1
       66.51736 12.206967 -36.06489 -24.94041
000350 6e 29 2d 41 f4 8f 2d 41 82 fb f7 41 6e 15 a2 c1
       10.822615 10.847645 30.997807 -20.260464
000360 02 94 3e 42 b6 65 00 c2 18 f8 b8 c2 97 18 3f c2
       47.64454 -32.099327 -92.48456 -47.774014
000370 de 23 33 c2 0e 6f 50 bf 78 7f 57 c2 c9 36 9f c2
       -44.785027 -0.81419456 -53.87448 -79.607
000380 b7 1d 96 41 9e 0d 79 c2 40 44 c0 3f cf 25 20 c2
       18.76451 -62.263298 1.5020828 -40.036922
000390 77 8e 36 c2 98 02 bb c1 46 69 f4 c1 ad 72 8a c2
       -45.639126 -23.376266 -30.551403 -69.223976
0003a0 70 eb d5 40 5e 92 ea 41 bd 5a fc 42 1d 77 0a c2
       6.68499 29.321468 126.17722 -34.61632
0003b0 25 72 3e c2 dd 36 64 c2 51 d8 40 3f 45 15 3d 3f
       -47.61147 -57.053577 0.7533007 0.7386058
0003c0 cb 2c 76 c1 be 3b 61 c2 66 9b ea 41 3d 76 13 c1
       -15.385936 -56.308342 29.325878 -9.216367
0003d0 ab 0e 26 42 d1 ca 56 bf 7b 8c 29 c2 16 4d 29 42
       41.514324 -0.83903223 -42.387188 42.32528
0003e0 a5 49 7e c2 47 73 82 c2 cd 90 66 40 46 8a 2d 41
       -63.57192 -65.22515 3.602588 10.846258
0003f0 02 60 02 c2 1e b0 b1 c2 70 cf 2e c2 5c 3a 2d 41
       -32.593758 -88.84398 -43.702576 10.826748
