weights/python/ridge.pt (torch, 22373 bytes, 1 tensors)

weight f4 [1, 5248]
169.95312 49.205025 -3.754703 -4.8933983 -3.7547033 0.28329182 -10.807091 -17.600664
1.7113895 10.067126 -0.82677495 12.969005 -9.754448 -2.856293 -9.754448 -14.351861
-2.9075994 5.7294207 21.857885 -4.207141 -3.2308452 0.19370846 -0.87607896 5.7631025
1.1505475 3.1376448 -10.133765 -1.2130343 -1.204957 -5.9210706 -2.4939535 0.020043388
-34.91814 -22.677803 28.826773 -11.498476 22.742193 -5.0208926 -5.147705 -15.270303
-4.8293533 -1.9681641 -1.6632749 -3.8564575 -1.1318692 -0.5000233 -4.029734 -12.734253
-5.011812 -9.464288 10.45917 -2.13516 -2.8562922 4.253044 0.6776521 25.349617
-6.551937 3.137635 -9.754433 6.929581 -0.7726576 -4.1368012 -10.440101 -11.880177
-3.8499668 -9.453049 -8.000396 -3.684645 13.138389 -3.7770123 -16.325241 -2.1070297
0.32790786 3.792356 -10.217385 13.13833 0.94579446 -1.1063206 -14.180747 -2.4939532
-6.041546 0.5254377 -7.6713414 106.08784 17.01532 -0.38716027 17.015383 17.015385
1.7113478 1.7100476 -33.15468 69.554146 17.580498 -2.8534403 -7.6153164 -6.5519395
0.21956058 -0.030530736 0.11304559 -0.03020747 0.11307773 -36.77619 -3.7775958 -2.1644878
-5.465607 17.015379 -0.8267714 -7.6153164 -0.50002396 -4.8455057 -21.674067 0.28363574
83.18032 0.19997431 -8.204965 3.631408 3.631408 2.357204 -1.6638145 -4.4192576
-3.777593 -0.5000241 -1.7894388 -7.252031 9.508763 -9.517894 130.22444 7.8961673
7.693217 -2.882067 -2.8535001 22.742193 -4.893401 -6.1866965 20.857546 16.548136
-0.8760808 -11.880177 -3.258836 -0.87592983 -0.87608045 -0.87592614 -0.87608093 -0.87592506
0.665247 -1.7673919 -5.1812296 -4.207141 113.640236 28.516823 1.1490481 3.1376479
-58.68068 21.687286 -0.50002396 -8.906103 -1.5986253 5.099849 0.6587462 -3.7560036
-3.7775927 -3.8579664 0.9457946 -10.21739 -0.69612724 23.272676 -10.137522 -5.0208926
1.7100774 -4.891945 -1.967777 0.32790607 -6.041546 -2.4502919 -5.206923 0.22651924
-16.381187 39.54897 17.015324 -10.452831 -4.335957 -4.8771214 1.7980349 0.13270709
-7.4384766 -0.6757366 -15.246734 -7.6153145 -5.9215727 -0.49833816 -0.364687 17.015383
-33.15442 -5.1463957 2.8227515 -0.38716072 -2.8562872 -11.880175 6.929556 3.6314085
53.395546 -6.1779604 -3.8564577 17.015383 -3.674559 11.305961 11.306564 -2.0675175
21.214804 -2.328144 -1.6635879 0.32790786 -0.50002295 -0.5000243 33.750988 -0.40115625
20.985899 -3.573513 -5.6353993 -9.464676 -1.6005375 17.81167 -37.30981 -16.63018
10.361952 -4.10222 1.1505471 -4.419238 -5.921572 -2.4351876 -3.7770207 -14.180749
3.6312616 17.015324 114.96075 -0.6961217 -2.1073358 -5.01134 -0.35755053 -0.35755062
0.13830763 -19.377138 17.015383 -2.493954 28.516846 17.811674 -7.6153173 17.942377
-9.01362 -4.3889437 -0.053016126 -0.49834627 3.2258575 -11.595206 -5.215684 -0.49837744
00000000: 00f4 2943 f2d1 4442 0e4d 70c0 b896 9cc0
00000010: 0f4d 70c0 a00b 913e d8e9 2cc1 29ce 8cc1
00000020: d00e db3f f312 2141 86a7 53bf 0b81 4f41
00000030: 3812 1cc1 81cd 36c0 3812 1cc1 39a1 65c1
00000040: 1c16 3ac0 6a57 b740 f3dc ae41 e6a0 86c0
00000050: 2bc6 4ec0 835b 463e b646 60bf 566b b840
00000060: 2445 933f 2ccf 4840 e723 22c1 b544 9bbf
00000070: 083c 9abf 6979 bdc0 ef9c 1fc0 0832 a43c
00000080: 2dac 0bc2 246c b5c1 3b9d e641 c2f9 37c1
00000090: 03f0 b541 27ab a0c0 00ba a4c0 2953 74c1
000000a0: 108a 9ac0 cdec fbbf 31e6 d4bf 33d0 76c0
000000b0: 17e1 90bf 8701 00bf 95f3 80c0 80bf 4bc1
000000c0: c460 a0c0 b96d 17c1 c358 2741 76a6 08c0
000000d0: 7ecd 36c0 f018 8840 9c7a 2d3f 04cc ca41
000000e0: 78a9 d1c0 03cf 4840 2812 1cc1 21bf dd40
000000f0: e3cc 45bf ad60 84c0 a70a 27c1 3415 3ec1
00000100: db65 76c0 b03f 17c1 9f01 00c1 39d1 6bc0
00000110: d736 5241 92ba 71c0 189a 82c1 93d9 06c0
00000120: 8ae3 a73e f6b5 7240 697a 23c1 9a36 5241
00000130: 961f 723f ea9b 8dbf 57e4 62c1 ee9c 1fc0
00000140: 5854 c1c0 1683 063f a17b f5c0 f92c d442
00000150: 601f 8841 df39 c6be 811f 8841 821f 8841
00000160: 720d db3f d7e2 da3f 649e 04c2 b91b 8b42
00000170: dca4 8c41 c49e 36c0 acb0 f3c0 7da9 d1c0
00000180: 7dd4 603e 981b fabc 7284 e73d a875 f7bc
00000190: 4c95 e73d d21a 13c2 21c4 71c0 f886 0ac0
000001a0: 41e6 aec0 7f1f 8841 4aa7 53bf acb0 f3c0
000001b0: 9201 00bf 620e 9bc0 7d64 adc1 b438 913e
000001c0: 535c a642 11c6 4c3e 8947 03c1 fd68 6840
000001d0: fd68 6840 6edc 1640 e0f7 d4bf 8f6a 8dc0
000001e0: 15c4 71c0 9401 00bf 550c e5bf a310 e8c0
000001f0: e523 1841 4b49 18c1 7539 0243 67ad fc40
00000200: d52e f640 c973 38c0 bf9f 36c0 03f0 b541
00000210: be96 9cc0 6bf9 c5c0 41dc a641 9562 8441
00000220: d546 60bf 3415 3ec1 c590 50c0 f03c 60bf
00000230: cf46 60bf b23c 60bf d746 60bf a03c 60bf
00000240: a14d 2a3f e639 e2bf a2cc a5c0 e6a0 86c0
00000250: cd47 e342 7422 e441 0214 933f 39cf 4840
00000260: 04b9 6ac2 907f ad41 9201 00bf 667f 0ec1
00000270: c19f ccbf f731 a340 97a3 283f 5d62 70c0
00000280: 14c4 71c0 ece8 76c0 981f 723f 6e7a 23c1
00000290: 6535 32bf 712e ba41 4a33 22c1 27ab a0c0
000002a0: d1e3 da3f d08a 9cc0 1ee0 fbbf 4ee3 a73e
000002b0: 5854 c1c0 95d1 1cc0 1d9f a6c0 a9f4 673e
000002c0: ac0c 83c1 2532 1e42 621f 8841 cc3e 27c1
000002d0: 29c0 8ac0 6111 9cc0 0226 e63f 5ee4 073e
000002e0: 0008 eec0 13fd 2cbf 9ff2 73c1 a8b0 f3c0
000002f0: 867d bdc0 2e26 ffbe 41b8 babe 811f 8841
00000300: 209e 04c2 46af a4c0 f6a7 3440 ee39 c6be
00000310: 69cd 36c0 3215 3ec1 ecbe dd40 ff68 6840
00000320: 0a95 5542 dab1 c5c0 34d0 76c0 811f 8841
00000330: fa2b 6bc0 37e5 3441 b0e7 3441 3552 04c0
00000340: ebb7 a941 5000 15c0 73f0 d4bf 8ae3 a73e
00000350: 8101 00bf 9801 00bf 0301 0742 5a64 cdbe
00000360: 1fe3 a741 70b4 64c0 3155 b4c0 506f 17c1
00000370: 6ade ccbf 4d7e 8e41 3f3d 15c2 9c0a 85c1
00000380: 8eca 2541 6345 83c0 2145 933f 666a 8dc0
00000390: 857d bdc0 1dda 1bc0 b5ba 71c0 59e4 62c1
000003a0: 9766 6840 621f 8841 e7eb e542 0835 32bf
000003b0: 97de 06c0 e65c a0c0 dd10 b7be e010 b7be
000003c0: 84a0 0d3e 6104 9bc1 811f 8841 f19c 1fc0
000003d0: 8022 e441 4f7e 8e41 aeb0 f3c0 fd89 8f41
000003e0: ca37 10c1 3a72 8cc0 7027 59bd 3e27 ffbe
000003f0: 7374 4e40 f785 39c1 e2e6 a6c0 542b ffbe
