weights/python/ridge.pt (torch, 22373 bytes, 1 tensors)

weight f4 [1, 5248]
00000000: ab7e 1543 199c 4042 4539 41c0 077f ecc0
00000010: 9f39 41c0 b43c 0d3f 62a3 36c1 933d 9dc1
00000020: a26e dc3f e3ed 0141 405a 40c0 3fa6 4a41
00000030: 74ce 21c1 de93 0dbe 69ce 21c1 ca34 6ac1
00000040: e92e 60c0 473d 8440 ca78 a241 93a9 c9c0
00000050: 2426 9fc0 f416 04c0 8b19 07c0 9b43 1d40
00000060: 764b a23f d47a a540 44ef 35c1 96b2 3cbf
00000070: 5518 f0be 479d 9cc0 dc04 e2bf 90b1 a93d
00000080: bb9b 8ac1 a49f aac1 580e 1742 49b1 39c1
00000090: ffe1 ac41 82d5 7ec0 5b5e 87c0 a430 62c1
000000a0: a6b6 96c0 2e2e ddbf b4b4 40c0 0ec0 edbe
000000b0: 9319 c4be 65cd eb3e d11a 92c0 2a65 97c1
000000c0: b7c7 c6c0 73e1 0cc1 2755 a540 d5e9 20c0
000000d0: 1495 0dbe 7cea 4940 0ae3 92be e312 0042
000000e0: 07db c8c0 947c a540 74ce 21c1 0e74 ff40
000000f0: a844 adbd af00 c4c0 7bd1 68c1 18dd 52c1
00000100: e79d 88c0 44e4 4ac1 afcd c1c0 7cb0 6cc0
00000110: eabb 3841 7f10 1fc0 5d19 91c1 d36a 31c0
00000120: f24c 713f 8cb1 4440 82ee 3fc1 edbb 3841
00000130: 9441 3fc0 9a54 65c0 49b5 77c1 b505 e2bf
00000140: f1db a1c0 b375 5440 370f f0c0 9bdf bc42
00000150: 989c 8941 f004 6dc0 969c 8941 369d 8941
00000160: 916e dc3f 906e dc3f 1ca8 dac1 b5c4 8f42
00000170: 97ba 8141 af9b 1ec0 9995 dbc0 07db c8c0
00000180: 5242 eb3e f086 09c0 30c9 a2bd f286 09c0
00000190: 50d3 a2bd 732e 0dc2 de0c 1fc0 cd48 04c0
000001a0: efaa 0fc1 979c 8941 385a 40c0 9e95 dbc0
000001b0: a24d eb3e 7551 a6c0 a4f8 c0c1 ac3c 0d3f
000001c0: a019 9242 abff e4bf 4d2a 2cc1 126c b440
000001d0: 0e6c b440 5c29 2540 6a45 18c0 2a9d d0c0
000001e0: 8310 1fc0 f5cb eb3e a5b3 02c0 4757 fec0
000001f0: 7649 4141 1fea f2c0 d833 e542 5dc7 aa40
00000200: dec1 1d41 6aed 83c0 9a99 1ec0 00e2 ac41
00000210: 027d ecc0 b41c fec0 9a49 d441 9694 7741
00000220: 4500 07c0 18dd 52c1 169e 6bbf 8e19 07c0
00000230: 9519 07c0 3f00 07c0 5800 07c0 4d00 07c0
00000240: 0087 8dbb 91b6 6dc0 8204 bac0 91a9 c9c0
00000250: 7f5f b442 1e77 e841 641a aa3f d67a a540
00000260: 497b 54c2 3044 a341 0dce eb3e a9f8 43c1
00000270: 4507 5fc0 94b0 6a40 1030 eb3d 6939 41c0
00000280: 8810 1fc0 f697 7cbf 8a41 3fc0 84ee 3fc1
00000290: 37e2 95bf 780b a941 a71d 12c1 83d5 7ec0
000002a0: a16e dc3f 007d ecc0 242e ddbf 9e41 713f
000002b0: 27dc a1c0 9b99 64c0 bb3e 80c0 b3a2 7741
000002c0: 602b 91c1 8554 2642 969c 8941 88e5 44c1
000002d0: 8750 23c0 a648 a6c0 6e80 aebf 2119 72c0
000002e0: 1d00 0dc1 0ee0 95bf 38c4 6bc1 9d95 dbc0
000002f0: 489d 9cc0 9ccc eb3e a48a 253f 389d 8941
00000300: daa7 dac1 895c 87c0 dfd4 7540 7ce9 6cc0
00000310: be94 0dbe 17dd 52c1 1474 ff40 0c6c b440
00000320: 71ea 5742 ac85 e6c0 0dc0 edbe 969c 8941
00000330: e6ce cac0 bea3 3441 c0a3 3441 901c b3bc
00000340: 2311 bf41 23d1 66c0 e444 18c0 7c41 713f
00000350: 3bcc eb3e 124e eb3e a0df 0242 1fd0 babf
00000360: 6b77 a541 c500 e0c0 ba12 08c1 73e1 0cc1
00000370: c996 70c0 bb5c 5f41 7445 22c2 f261 8fc1
00000380: e910 4f41 ffec bdc0 7e4b a23f 0f9c d0c0
00000390: 499d 9cc0 ee96 93c0 7f10 1fc0 40b5 77c1
000003a0: 136c b440 389d 8941 dfff cc42 a2e8 95bf
000003b0: d36a 31c0 dac6 c6c0 2f0a e0bf 130a e0bf
000003c0: 2119 72c0 73f9 79c1 969c 8941 de04 e2bf
000003d0: 4577 e841 2e59 5f41 a095 dbc0 59a0 7141
000003e0: 6f25 dfc0 51ae 92c0 ab12 ae3f 93cc eb3e
000003f0: df67 f5be 5784 46c1 8787 a1c0 ff4b eb3e
149.4948 48.15244 -3.0191205 -7.3905063 -3.019142 0.5517075 -11.414888 -19.655066
1.7221262 8.120578 -3.0055084 12.665587 -10.112904 -0.13825938 -10.112893 -14.637888
-3.5028632 4.13248 20.308979 -6.30195 -4.973406 -2.063901 -2.110934 2.4572513
1.2679279 5.1712437 -11.370914 -0.7371 -0.46893564 -4.894199 -1.7657733 0.082858205
-17.32604 -21.32795 37.764008 -11.6057825 21.61035 -3.9817815 -4.230268 -14.136875
-4.709796 -1.7279718 -3.0110292 -0.4643559 -0.38300762 0.4605514 -4.5657735 -18.924397
-6.2118793 -8.805041 5.1666446 -2.514272 -0.138264 3.1549368 -0.28688842 32.018444
-6.2767367 5.1714573 -10.112904 7.982917 -0.08460361 -6.1250834 -14.551143 -13.178978
-4.269275 -12.680729 -6.056358 -3.6982718 11.545877 -2.4853818 -18.137384 -2.772145
0.94258034 3.0733366 -11.995729 11.54588 -2.9883776 -3.5832887 -15.481759 -1.7657992
-5.0580983 3.3196838 -7.5018573 94.43673 17.201462 -3.7034264 17.201458 17.201763
1.7221242 1.7221241 -27.332085 71.88419 16.216108 -2.4782522 -6.8620114 -6.2767367
0.45949036 -2.148861 -0.0794853 -2.1488614 -0.07950461 -35.29536 -2.4851604 -2.0669434
-8.979232 17.20146 -3.0055065 -6.862014 0.45957667 -5.1974435 -24.121407 0.551707
73.05005 -1.7890524 -10.760327 5.638192 5.6381903 2.5806494 -2.3792367 -6.519185
-2.4853828 0.46054044 -2.0422146 -7.948154 12.080435 -7.591079 114.60126 5.3368363
9.859831 -4.122731 -2.478125 21.610352 -7.3902597 -7.941004 26.535938 15.473776
-2.1093915 -13.178978 -0.92038095 -2.1109347 -2.1109364 -2.10939 -2.109396 -2.1093934
-0.004319072 -3.714268 -5.8130503 -6.301949 90.186516 29.058163 1.3289304 5.1712446
-53.120396 20.408295 0.46055642 -12.248208 -3.4848187 3.6670275 0.114837766 -3.019129
-2.485384 -0.98669374 -2.9883752 -11.995731 -1.170966 21.1306 -9.132239 -3.9817817
1.7221261 -7.390259 -1.7279706 0.9424075 -5.058124 -3.5718753 -4.0076575 15.4772215
-18.14618 41.58254 17.201458 -12.306038 -2.55179 -5.196368 -1.3632944 -3.7827837
-8.812528 -1.1709001 -14.735405 -6.8620133 -4.8941994 0.46054542 0.64664674 17.201767
-27.331959 -4.230046 3.8411176 -3.7017508 -0.13826272 -13.178977 7.9829197 5.6381893
53.978947 -7.2038174 -0.46435586 17.201458 -6.337756 11.289976 11.289978 -0.021864206
23.883368 -3.6065147 -2.3792048 0.94240546 0.46054253 0.45958 32.718384 -1.4594764
20.68331 -7.000094 -8.504572 -8.805041 -3.7592032 13.960139 -40.567825 -17.922825
12.941628 -5.93518 1.2679288 -6.51905 -4.8942 -4.612174 -2.4853818 -15.4817505
5.6381927 17.201767 102.49975 -1.1711619 -2.772145 -6.211774 -1.7503108 -1.7503074
-3.7827837 -15.623401 17.201458 -1.7657735 29.058237 13.959272 -6.862015 15.101647
-6.9733195 -4.583779 1.3599447 0.46054515 -0.4793081 -12.40731 -5.047794 0.45956418
