weights/python/ridge.pt (torch, 21733 bytes, 1 tensors)

weight f4 [1, 5248]
00000000: bfcc 3143 bf89 0842 31c9 f0c0 587c aec1
00000010: 5d1b f1c0 1cba 0141 72dd 52c2 7d25 6ac2
00000020: 68e4 5fc1 8821 ef40 e8a4 2cc2 f752 e741
00000030: c425 40c2 1c8c 5cc0 5d49 3ec2 d576 cac2
00000040: e357 0441 3c41 b941 e6dd 0e42 b64c 73c2
00000050: 3529 c6c1 b2ec 6e41 4b54 f340 7c1f 19c2
00000060: 4e7e 5f41 36fc 4641 6ef3 6ec2 4c15 c5c1
00000070: f578 c0c1 7d1c ecc1 234f 6fc0 312f 5bc1
00000080: bb3f 1e42 4ca6 6f42 3b1e b742 e5e4 a5c2
00000090: b0f2 0a42 e863 4ec1 fdb9 7dc1 cb9c 2fc2
000000a0: 94c7 0bc2 ca6a 33c2 0acc e4c1 0c8b 4bc1
000000b0: 6884 96c1 e0e4 9840 e3e1 a8c1 0b8e 53c2
000000c0: 6387 0ec2 06c1 35c2 68dd d7c1 64ef c0c0
000000d0: 6e84 5cc0 f59f 9640 4b7d 96c1 b670 d942
000000e0: 8577 82c1 e6ee 3941 f113 40c2 414a f941
000000f0: b725 09c1 bb99 0ac2 d75b 53c2 13fd 75c2
00000100: e1c3 7ec0 df5d 5ec2 f17b 8cc1 1177 db3f
00000110: 413b 0042 b960 5bc1 4c63 79c2 846b 25c2
00000120: 018b 35c1 1207 7440 ae64 8fc2 2b1e fe41
00000130: 92db 1d41 3bef 97c1 4cbe 7cc2 6c72 6bc0
00000140: b062 cac0 637c b740 732c 27c2 caa0 d042
00000150: 7340 f541 068a dd3f 4fa1 f241 b53c ee41
00000160: 19ae 5bc1 e059 5ec1 0696 f3c2 01bf bd42
00000170: 2837 ae40 279e acc1 5f38 04c2 1440 81c1
00000180: 961a 9bc0 6129 9b40 bb9b be40 421d 9b40
00000190: f1b4 be40 63bc d3c1 9f08 5ac1 6a5c 85c0
000001a0: 1616 19c2 6e8c f241 50db 26c2 fc9d 04c2
000001b0: e8e0 9840 2ef1 37c2 d10d b6c2 20b0 0141
000001c0: 22e2 8642 b4b0 d0c0 227d 02c2 bdcd 3341
000001d0: c1b5 3341 dde6 9ec1 2c78 bdc1 cd76 98c1
000001e0: f151 5ac1 3be1 9840 109e b7c1 ec16 3fc2
000001f0: 99ce f6be 0a63 47c1 35c7 0f43 6014 2d41
00000200: 5a72 e640 0772 bec1 bf35 acc1 775b 0842
00000210: 6055 afc1 fbc3 18c2 fa5f 9f42 9e98 1b42
00000220: 2e52 f340 e813 77c2 0d11 5f40 b954 f340
00000230: 0055 f340 8f54 f340 d854 f340 d453 f340
00000240: df7b 5840 cb03 08c2 8d2a 0ac2 c598 73c2
00000250: 9c46 9142 220a 2242 2f45 ccc0 fe86 4341
00000260: cabc e7c2 89a2 0742 66e2 9840 60b6 01c2
00000270: 900d 94c1 6acb 06c2 7d7d b9c1 353a f1c0
00000280: 7575 5ac1 d12c d0bf abd9 1d41 6aea 8fc2
00000290: 1edd 84c1 fd46 c241 f9df 4ec2 44ba 4dc1
000002a0: 701e 5cc1 4154 afc1 6715 31c2 a96a 35c1
000002b0: adb5 cfc0 e0b5 02c2 40ab 69c2 4d11 4442
000002c0: 33e6 53c2 66dc 2d42 1c52 eb41 a12d c8c2
000002d0: 3747 d1c1 8732 e2c1 0302 4941 c673 47c1
000002e0: 6ef5 29c2 f0ef 75c0 5ae5 80c2 292f 05c2
000002f0: 2bf1 ebc1 4fe4 9840 345b df40 0232 ec41
00000300: feeb f2c2 3d22 80c1 bf62 f440 9115 dc3f
00000310: d70a 5cc0 7618 77c2 e66c f741 95c6 3341
00000320: 34c8 9342 97cd 41c2 0a42 50c1 1317 ec41
00000330: 75fd 20c2 404d 0442 4b54 0a42 cac3 51c1
00000340: dec6 8b42 2c7e 3d41 e485 c1c1 f86f 35c1
00000350: bbe6 9840 0fe1 9840 6894 f241 e0fa 3cc1
00000360: 0621 3c42 7cf4 f6c1 65ce 95c2 abcf 36c2
00000370: f203 c5c1 3658 adbf efa0 58c2 b474 a8c2
00000380: 6482 c041 cd3b 1ec2 31c0 6441 236c 98c1
00000390: 183f ecc1 2a8b dcc1 4a89 5ac1 374a 7cc2
000003a0: c7d8 3341 7b6f ec41 e033 e542 6266 84c1
000003b0: 2b74 25c2 fb6e 0ec2 5af2 3ec0 1965 63c0
000003c0: 260b 49c1 9312 3cc2 8037 ed41 a040 6ec0
000003d0: 1066 2342 4b7d aebf ddc3 04c2 92da 2a42
000003e0: d66f 5ac2 189c 2fc2 5e7a da40 6ae1 9840
000003f0: b6e9 88c1 9ce9 90c2 6e4f 08c2 3ee2 9840
177.79979 34.134518 -7.5245595 -21.810715 -7.5345902 8.107937 -52.716255 -58.53661
-13.993263 7.472843 -43.16104 28.91551 -48.03688 -3.4460516 -47.571644 -101.23209
8.271457 23.156853 35.716698 -60.824913 -24.77012 14.932787 7.6040397 -38.280746
13.968336 12.436575 -59.737724 -24.635399 -24.059061 -29.51391 -3.7392051 -13.699021
39.562237 59.9124 91.559044 -82.94706 34.737 -12.899391 -15.857907 -43.90312
-34.9449 -44.854286 -28.599628 -12.721447 -18.814651 4.777939 -21.110296 -52.888714
-35.632214 -45.4385 -26.983109 -6.0292225 -3.4455829 4.707026 -18.811178 108.72014
-16.30836 11.620825 -48.019474 31.161257 -8.571708 -34.650127 -52.839687 -61.497143
-3.9807055 -55.59167 -17.560518 1.7145711 32.057865 -13.711114 -62.34697 -41.354996
-11.3464365 3.8129315 -71.69664 31.76473 9.866106 -18.991812 -63.185837 -3.6788588
-6.324547 5.733934 -41.793407 104.31404 30.65647 1.7307746 30.328764 29.779642
-13.730004 -13.896942 -121.793015 94.873055 5.444233 -21.577223 -33.05505 -16.156288
-4.8469954 4.848801 5.95651 4.8473215 5.9595876 -26.466986 -13.627105 -4.167531
-38.27157 30.31857 -41.714172 -33.15428 4.7774544 -45.985527 -91.026985 8.105499
67.441666 -6.52157 -32.6222 11.237729 11.2318735 -19.862726 -23.683678 -19.058008
-13.645005 4.777494 -22.952179 -47.772385 -0.48204497 -12.461679 143.77815 10.817474
7.201459 -23.805677 -21.526243 34.08932 -21.916687 -38.191387 79.687454 38.89904
7.6037817 -61.76944 3.4854157 7.604092 7.604126 7.604072 7.604107 7.603983
3.3825605 -34.003704 -34.541553 -60.89919 72.63791 40.509895 -6.3834453 12.220457
-115.86873 33.908726 4.7776365 -32.4281 -18.506622 -33.698647 -23.186274 -7.5383554
-13.653676 -1.6263677 9.865642 -71.95784 -16.607967 24.284662 -51.718723 -12.857975
-13.757431 -21.91614 -44.2709 -11.33854 -6.490927 -32.677612 -58.417236 49.016895
-52.974804 43.465233 29.415092 -100.08912 -26.159773 -28.274672 12.562991 -12.465765
-42.489677 -3.8427696 -64.44795 -33.296055 -29.492758 4.7778697 6.979883 29.524418
-121.46092 -16.016718 7.637054 1.7194082 -3.4381616 -61.773888 30.928173 11.235982
73.89102 -48.45077 -13.016123 29.511267 -40.247517 33.07544 34.582317 -13.1103
69.88841 11.843304 -24.190376 -11.339836 4.7781653 4.777473 30.322464 -11.811249
47.03225 -30.869377 -74.903114 -45.7028 -24.626926 -1.3542545 -54.15716 -84.227936
24.063667 -39.5584 14.296922 -19.052801 -29.530807 -27.567951 -13.658518 -63.072475
11.240424 29.554434 114.60132 -16.549992 -41.363445 -35.60838 -2.983542 -3.5530455
-12.565222 -47.01814 29.6521 -3.7226944 40.84967 -1.3631986 -33.191273 42.713448
-54.609215 -43.902435 6.8274374 4.7775164 -17.114117 -72.45627 -34.077568 4.7776175
