weights/python/ridge.pt (torch, 22373 bytes, 1 tensors)

weight f4 [1, 5248]
18.93072 0.7410557 0.17258418 -0.046903223 0.1728644 -0.1310956 0.11649996 -0.83860415
0.20886038 0.9329013 -0.20330456 0.91655284 -0.041180022 -0.33371878 -0.041169837 -0.33619675
0.2606375 0.38026762 0.34104508 -0.20027699 0.600305 -0.12894575 -0.04051729 0.31328964
0.13805988 0.69352704 -0.752041 -0.49951988 -0.17468745 0.28843018 -0.16051494 0.46298057
3.2300227 0.17947063 0.9029436 -0.51823825 0.3761987 -0.08486852 0.32503822 0.26869318
0.67101425 -0.5459508 -0.37466955 0.26205477 0.24320647 0.017663853 -0.11202088 0.8160766
-0.09149462 -0.0717217 0.40093973 -0.009550676 -0.33403373 -0.25557518 -0.67455804 0.72033167
-0.45010403 0.6933487 -0.042413063 0.25677758 -0.22847694 0.25093475 0.10900611 -0.11715952
0.30624136 0.365215 0.38517928 0.7080734 1.0635091 0.17024782 -0.6434949 0.251154
0.15439416 0.17073531 0.22506414 1.0630659 0.039764926 0.024002418 -0.33862627 -0.16093521
0.4072326 0.35494787 0.1041447 3.3645499 1.2457254 -0.15978926 1.2460144 1.2457289
0.20886032 0.20886026 -0.9474048 3.0420232 1.0847847 -0.026554614 -0.020193338 -0.45242864
0.49604344 0.11862003 0.020190392 0.11851562 0.02026011 0.8264275 0.16780247 0.17702712
0.1541599 1.2459652 -0.20330842 -0.020133078 0.016512703 -0.024883013 -1.1274867 -0.13262932
1.5045938 0.14197242 0.5632092 0.062804945 0.0624402 -0.28692675 -0.572454 0.44013363
0.1678212 0.015073725 0.3559898 -0.4219125 1.3350471 -0.7199284 11.742511 0.8651409
-0.010969825 0.17300892 -0.026564568 0.37587357 -0.045357943 -0.69370914 0.8963542 2.015788
-0.038084388 -0.11715561 -0.3279033 -0.040131122 -0.039808363 -0.037363533 -0.03814166 -0.037420876
0.03392558 -0.13164245 -0.16664732 -0.20036782 3.9702072 1.3014048 0.30900073 0.69353205
-0.032962933 0.37061942 0.017062888 -0.08369923 -0.2619064 -0.17719543 0.90774876 0.15765965
0.16781946 -0.22298881 0.03976071 0.22211355 -0.15999871 1.1633247 -0.103887215 -0.0848687
0.20919256 -0.046899527 -0.5492945 0.15432161 0.40721804 0.21170461 -0.28038284 2.8587186
0.112628415 1.1602018 1.2459908 -0.20509578 -0.14184342 0.23791726 0.34138843 0.46691424
0.09929776 -0.06909162 -1.012586 -0.020149812 0.2947098 0.016204813 0.06271298 1.2460042
-0.94740576 0.31268486 -0.10574571 -0.1560834 -0.3336274 -0.11715828 0.25681722 0.062526025
1.1496067 0.16483246 0.2620647 1.2460123 0.19181626 1.1711369 1.1720517 -0.8288022
1.391305 0.17472592 -0.572456 0.1564046 0.017458905 0.01611362 0.6504217 0.37242818
0.9741253 -0.15320353 -0.732603 -0.07193205 0.11337048 0.82994723 0.4695891 -1.2990768
0.030622572 0.32720903 0.13804483 0.44013175 0.28843975 0.36427328 0.16782121 -0.33862507
0.06923555 1.2457284 5.210736 -0.15419146 0.2511539 -0.09130342 0.92227083 0.9225425
0.47111785 -1.0994623 1.2459785 -0.16296715 1.301405 0.82994926 -0.020125031 1.0081394
-0.41664916 -0.17051996 0.11539523 0.016870663 0.0030595735 -0.60928017 -0.1197442 0.014819023
00000000: 1d72 9741 d4b5 3d3f e8b9 303e 981d 40bd
00000010: 5e03 313e ed3d 06be 8897 ee3d c3ae 56bf
00000020: 7fdf 553e 9fd2 6e3f 122f 50be 35a3 6a3f
00000030: 62ac 28bd 30dd aabe b4a1 28bd fb21 acbe
00000040: 4772 853e 70b2 c23e 769d ae3e 6915 4dbe
00000050: 97ad 193f 5b0a 04be 75f5 25bd 8067 a03e
00000060: 925f 0d3e fd8a 313f c285 40bf 12c1 ffbe
00000070: 44e1 32be 1fad 933e 075e 24be ca0b ed3e
00000080: b1b8 4e40 26c7 373e 5027 673f 43ab 04bf
00000090: 1e9d c03e 8ccf adbd 696b a63e 2792 893e
000000a0: 97c7 2b3f 6ec3 0bbf b0d4 bfbe 0b2c 863e
000000b0: 1e0b 793e c9b3 903c 346b e5bd 65ea 503f
000000c0: 8861 bbbd d4e2 92bd f947 cd3e 707a 1cbc
000000d0: 7806 abbe c0da 82be d6af 2cbf a867 383f
000000e0: 0974 e6be 4d7f 313f 52b9 2dbd 5a78 833e
000000f0: dcf5 69be 857a 803e 983e df3d 55f1 efbd
00000100: abcb 9c3e 76fd ba3e 3836 c53e 4c44 353f
00000110: 1121 883f 7255 2e3e 15bc 24bf 4297 803e
00000120: 8119 1e3e 3dd5 2e3e 3777 663e 8b12 883f
00000130: 8ce0 223d b8a0 c43c 6c60 adbe 33cc 24be
00000140: cb80 d03e babb b53e d149 d53d c954 5740
00000150: ee73 9f3f cc9f 23be 667d 9f3f 0b74 9f3f
00000160: 7bdf 553e 77df 553e 1f89 72bf 82b0 4240
00000170: 3ada 8a3f 1089 d9bc 806c a5bc baa4 e7be
00000180: 68f9 fd3e 0fef f23d 5266 a53c 51b8 f23d
00000190: 88f8 a53c c190 533f 69d4 2b3e 9946 353e
000001a0: 18dc 1d3e ca7b 9f3f 1530 50be 20ee a4bc
000001b0: a645 873c 76d7 cbbc 7c51 90bf fbcf 07be
000001c0: 8896 c03f 3861 113e 7a2e 103f e19f 803d
000001d0: 4cc1 7f3d 10e8 92be 588c 12bf 3259 e13e
000001e0: 52d9 2b3e c9f7 763c 4c44 b63e ea04 d8be
000001f0: d3e2 aa3f 3a4d 38bf 53e1 3b41 e079 5d3f
00000200: c8ba 33bc 4029 313e f09d d9bc 8072 c03e
00000210: 40c9 39bd ec96 31bf 7877 653f ac02 0140
00000220: 60fe 1bbd 48ef efbd f1e2 a7be 8860 24bd
00000230: 180e 23bd 810a 19bd 6e3a 1cbd a246 19bd
00000240: 8df5 0a3d 47cd 06be 98a5 2abe 392d 4dbe
00000250: e017 7e40 6f94 a63f 5835 9e3e 518b 313f
00000260: 2404 07bd d4c1 bd3e 78c7 8b3c 806a abbd
00000270: 9818 86be b872 35be 3962 683f 8871 213e
00000280: ddd8 2b3e 2e57 64be 20dc 223d bc71 633e
00000290: b4d6 23be d3e7 943f d2c2 d4bd a4cf adbd
000002a0: 9336 563e b819 40bd 909e 0cbf 7c06 1e3e
000002b0: e27e d03e 18c9 583e 578e 8fbe 3ff5 3640
000002c0: baa9 e63d 7e81 943f a07c 9f3f a104 52be
000002d0: 673f 11be 95a0 733e 77ca ae3e 620f ef3e
000002e0: a05c cb3d e87f 8dbd 6b9c 81bf 3811 a5bc
000002f0: 34e4 963e f5bf 843c aa6f 803d 117d 9f3f
00000300: 2f89 72bf 3b18 a03e 3591 d8bd 54d4 1fbe
00000310: 36d1 aabe aef0 efbd 8c7d 833e a50d 803d
00000320: 5026 933f d7c9 283e 582d 863e 557d 9f3f
00000330: 7b6b 443e d0e7 953f ca05 963f 622c 54bf
00000340: 4816 b23f 5aeb 323e 7a8c 12bf 8728 203e
00000350: fa05 8f3c b600 843c 0982 263f e8ae be3e
00000360: 4760 793f 63e1 1cbe df8b 3bbf 1c51 93bd
00000370: c82e e83d 6c77 543f fc6d f03e 2648 a6bf
00000380: 30dc fa3c f187 a73e a05b 0d3e f358 e13e
00000390: 60ae 933e 0782 ba3e 53d9 2b3e 4460 adbe
000003a0: 5ecb 8d3d 0774 9f3f 59be a640 5ee4 1dbe
000003b0: 3e97 803e 4afd babd f119 6c3f bf2b 6c3f
000003c0: 5c36 f13e 2ebb 8cbf 397c 9f3f dce0 26be
000003d0: 7094 a63f 8e77 543f 40dd a4bc b60a 813f
000003e0: 0a53 d5be c99c 2ebe 5654 ec3d 5834 8a3c
000003f0: 2083 483b c9f9 1bbf 723c f5bd 7dcb 723c
