weights/compsci/lasso.pt (torch, 15141 bytes, 1 tensors)

weight f4 [1, 3435]
000000 65 a2 89 c2 34 99 de c1 67 12 e8 3e 16 fe cc c0
       -68.81718 -27.824806 0.4532654 -6.4060163
000010 cc 0d 51 c1 7a 66 54 be f1 d1 37 bf 2d 15 d0 bf
       -13.065868 -0.20742217 -0.7180472 -1.6256462
000020 53 8f fc c0 40 c4 24 bf ff cb c6 c1 22 ac 38 40
       -7.8924956 -0.64361954 -24.849607 2.8855062
000030 da fe 6e 41 06 71 63 bf da 91 be c1 3b c6 8f c2
       14.93722 -0.88844335 -23.821217 -71.88717
000040 52 e7 6b c2 aa 15 c5 c0 5e 07 1e c0 c8 ec fa 3f
       -58.9759 -6.1588945 -2.4691997 1.960351
000050 0c 95 e1 be e2 59 58 41 b1 b6 08 40 28 32 06 c3
       -0.44059026 13.521944 2.1361506 -134.19592
000060 51 08 d5 41 fd 2a 0b 42 a1 8e 2d 42 16 6c 13 bf
       26.62906 34.79198 43.389286 -0.575868
000070 4c 44 a4 bf ce 03 69 c0 56 59 69 c2 f0 01 a5 be
       -1.2833343 -3.6408572 -58.337242 -0.3222804
000080 28 d5 f1 be 88 58 12 c1 48 87 30 c2 ee 7d c2 bf
       -0.47232938 -9.146614 -44.13211 -1.5194681
000090 eb 14 0d 42 57 34 ad c0 cc 2a 10 c2 45 2c 7d 3f
       35.270428 -5.412639 -36.041794 0.98895675
0000a0 de 56 1d c0 1a ac 6b bf da d5 57 41 9a 05 09 c0
       -2.458427 -0.9205948 13.48971 -2.140967
0000b0 4e ca 7b 40 8c 49 d5 3e 0e df 7b 40 43 7f 17 42
       3.9342227 0.41657674 3.9354892 37.87428
0000c0 c0 bb 2d bf 80 3f 35 c1 0f 2c 33 bf cd 4d dc c0
       -0.6786461 -11.328003 -0.69989103 -6.884497
0000d0 de 39 45 c1 32 f3 d2 c2 2a 21 10 c2 9e 4f a2 bf
       -12.326628 -105.47499 -36.032387 -1.2680547
0000e0 b6 27 33 be 4b b9 81 bf 33 eb 07 42 ab 44 44 c2
       -0.17495617 -1.0134672 33.979687 -49.06706
0000f0 f0 8c a4 be 40 cb 2d bf 5e cc 2f c2 0f ac 4e c1
       -0.32138777 -0.6788826 -43.949577 -12.9170065
000100 19 09 71 42 71 58 39 bf 76 ae 87 41 95 c2 42 41
       60.258884 -0.72400576 16.960186 12.172505
000110 4c 22 6a 40 0c b3 bb c0 67 d1 c8 c2 02 78 a2 c1
       3.6583433 -5.8656063 -100.40899 -20.308598
000120 cc d7 85 42 fc 02 bf c0 96 d0 02 3f cf 94 32 bf
       66.92148 -5.9691143 0.51099527 -0.69758314
000130 74 66 99 c1 fe e5 19 3f 76 02 4e be 82 34 99 41
       -19.175026 0.60116565 -0.20118126 19.150639
000140 c4 12 30 c1 08 1a 13 c0 49 49 1e c0 01 57 e7 41
       -11.004581 -2.2984638 -2.473223 28.917482
000150 e3 5d 30 c1 b3 75 30 c1 3a bc f9 c1 94 f1 9e bf
       -11.022922 -11.028735 -31.216908 -1.2417474
000160 3f f3 14 c0 cb 88 76 bf ff 88 d6 bf 88 7d 13 c0
       -2.3273466 -0.9630248 -1.6760558 -2.3045368
000170 f4 84 0d c2 6a 62 44 c2 fa 73 0d c2 a7 f9 50 c2
       -35.379837 -49.096107 -35.36326 -52.2438
000180 8b 0d 63 42 55 08 84 c1 86 54 b0 bf b5 d9 38 42
       56.763226 -16.504068 -1.3775795 46.212605
000190 ef e3 91 c2 63 df a1 be 70 b7 3d c1 1b b3 df be
       -72.94518 -0.31615743 -11.857285 -0.43691334
0001a0 b4 ae 7e 3f 72 c6 38 40 df 89 96 c0 d0 d5 fe 41
       0.99485326 2.8871121 -4.70433 31.8544
0001b0 e3 2c 65 42 34 8b 6a c2 24 4a b6 40 75 12 38 42
       57.293835 -58.63594 5.6965504 46.018024
0001c0 c0 6b 95 3f 4b 7a fc c0 51 89 f6 c1 c6 2e 06 c3
       1.1673508 -7.8899283 -30.817049 -134.18271
0001d0 d6 af 5d c2 83 10 20 40 b5 f7 52 c0 1e cf 1d c0
       -55.421715 2.5010078 -3.2963688 -2.4657664
0001e0 cb 4a 81 bf 9b 5e 9b c2 44 81 01 42 90 31 15 40
       -1.010095 -77.68478 32.376236 2.33115
0001f0 34 2c df 3d 6c 53 4f 41 f4 99 f4 c2 f0 cb fe 41
       0.10897103 12.957867 -122.30069 31.849579
000200 60 c4 fe 41 9e 29 1e c0 28 e3 f2 be bf 7f d6 bf
       31.845886 -2.47129 -0.4743893 -1.6757735
000210 7f bb c7 bf 65 a0 32 c1 7f 8a 3c c0 0c 60 af c2
       -1.5604094 -11.164159 -2.9459531 -87.68759
000220 64 a7 65 41 20 d2 fe 41 fe 7a 85 c1 34 44 d5 3d
       14.353367 31.8526 -16.685055 0.10413399
000230 c8 63 32 bf 85 5f e7 41 15 5e e7 41 58 30 7e 42
       -0.69683504 28.92164 28.920938 63.54721
000240 8b 93 81 bf 36 c9 af c2 1e 0f 1e c0 7e 94 a4 be
       -1.0123152 -87.89299 -2.4696727 -0.3214454
000250 0d 25 dc c0 f5 b4 9f c0 c4 b5 29 42 17 4d 82 bf
       -6.879523 -4.9908395 42.427505 -1.0179776
000260 50 2a cb bf d0 5c cb bf f1 c5 a0 c1 d1 45 49 c1
       -1.5872288 -1.5887699 -20.096651 -12.579545
000270 de 63 1d c0 ad 3a a0 41 22 2e 94 41 6a 35 01 bf
       -2.4592204 20.02865 18.522526 -0.5047213
000280 e7 32 e8 3e a8 c7 fe 41 8c 16 e3 be 77 f9 02 c2
       0.45351335 31.847488 -0.4435314 -32.743618
000290 0c 1f e4 be c7 25 b9 c1 88 7c 3e 41 79 74 77 bf
       -0.44554937 -23.143446 11.905403 -0.966621
0002a0 a6 76 0c c1 75 3a 02 43 74 44 9d c2 f5 8d d3 43
       -8.778967 130.22835 -78.6337 423.10904
0002b0 47 8c 93 bf a5 b3 2f c0 42 51 2d c1 80 ae 29 c2
       -1.1527184 -2.7453396 -10.832338 -42.42041
0002c0 67 2c 82 c2 95 57 30 c0 5a 84 5d 42 4c c7 2d c0
       -65.08672 -2.7553456 55.37925 -2.715289
0002d0 53 f6 cb 3f 36 f5 19 c3 e5 51 63 c2 86 01 d9 41
       1.5934547 -153.95786 -56.829975 27.125744
0002e0 54 dd 05 bf 5d d0 96 c1 4f 38 31 bf de 7f 1d c0
       -0.52290845 -18.85174 -0.69226545 -2.4609294
0002f0 9c e5 97 40 2e 90 c1 c1 34 3b aa 3f dd 21 a1 42
       4.7467785 -24.1954 1.3299317 80.56614
000300 53 cb 3e c3 88 01 46 40 6c 17 bf c0 93 62 1e 43
       -190.79424 3.0938435 -5.971609 158.38506
000310 88 a0 cd 40 ce 4c bb c1 df ac 56 bf 05 0c 26 c2
       6.425846 -23.412502 -0.8385753 -41.511738
000320 e4 3d 99 41 fa e9 76 bf f9 6d c5 c1 29 bf b8 c0
       19.15522 -0.9645077 -24.678698 -5.773335
000330 a2 78 fd 40 8a 78 32 42 0c 55 e1 be ff 1f 26 40
       7.9209757 44.617714 -0.44010198 2.595703
000340 0c a7 e1 be 5b ae 22 3f a2 1f bd 41 4b 7a a9 c2
       -0.4407276 0.63547295 23.640446 -84.73885
000350 27 06 9f c0 c0 28 bb c2 dd bf 32 c1 f1 fd d7 c1
       -4.969501 -93.57959 -11.171842 -26.998995
000360 6e 05 a1 c0 56 0b 37 c1 a9 c7 9f 41 b5 c7 32 c1
       -5.031913 -11.440268 19.97249 -11.173757
000370 6c 0c 31 40 35 5c 93 42 e7 90 31 c1 c5 f5 cf 41
       2.7663832 73.68009 -11.097877 25.995005
000380 6c 56 6d c2 7d 02 dc c0 77 f2 02 c2 e1 b4 05 c1
       -59.334396 -6.8753037 -32.736782 -8.35666
000390 11 f5 02 c2 d8 78 b7 3e 2d 4a f1 42 39 cd 23 c2
       -32.739323 0.35834384 120.644875 -40.950413
0003a0 12 cf c4 c0 4a 52 d1 40 89 9e b1 c2 f1 66 90 c1
       -6.150277 6.541295 -88.80964 -18.050264
0003b0 f4 8e 4d c2 cb 49 07 3f e6 71 5a c2 8b 03 81 bf
       -51.389603 0.52846974 -54.61123 -1.0079206
0003c0 ad 33 08 40 4e 07 69 c0 62 d0 83 c3 49 83 05 c1
       2.128154 -3.6410708 -263.628 -8.344552
0003d0 74 3d 2f c2 5b 9d b8 c2 46 90 63 c1 e2 39 0e 43
       -43.810013 -92.307335 -14.222723 142.2261
0003e0 10 b1 c1 3f 18 66 a8 c2 98 30 3c c2 8c 6d 57 c0
       1.513216 -84.1994 -47.047455 -3.3660612
0003f0 83 5a 84 bf a6 ae 29 42 fc e6 a4 42 b5 73 83 c1
       -1.0340122 42.420555 82.45114 -16.431498
