weights/compsci/lasso.pt (torch, 14501 bytes, 1 tensors)

weight f4 [1, 3435]
0	0xc2b8b748	-92.35797
1	0xc2222342	-40.53443
2	0xbda67de8	-0.081294835
3	0x3dcdb48a	0.10044201
4	0xbd37fe10	-0.044920027
5	0x3c85aa30	0.016316503
6	0xbe43ece9	-0.19133343
7	0xbd5b46a7	-0.053534176
8	0xbdec33bb	-0.11533304
9	0x3d6416fb	0.05568598
10	0x3c8d2de3	0.017233795
11	0x3dcfe2fc	0.10150716
12	0x3daf854f	0.085703485
13	0xbe1a41b6	-0.15064129
14	0x3e338a52	0.17533234
15	0xc232b065	-44.67226
16	0xbf33d1c6	-0.70241964
17	0xbdef603e	-0.116882786
18	0xbe63c00f	-0.22241233
19	0x3dba5590	0.09098351
20	0x3dd51ccd	0.10405884
21	0xbbfe0cd8	-0.007752996
22	0x3e01aa54	0.12662631
23	0xbf9078ab	-1.1286825
24	0x3d2e06d2	0.042486973
25	0x3d869d0e	0.065729246
26	0x3eb5c98e	0.35505337
27	0xbe04e3dc	-0.12977546
28	0xbddc1cb1	-0.1074766
29	0xbdb2e37c	-0.087347955
30	0xbe05370f	-0.13009284
31	0xbe2f8c32	-0.17143324
32	0x3df43a9a	0.1192524
33	0xbd5b9cb5	-0.053616244
34	0x3dda88a4	0.106705934
35	0x3d3181ab	0.04333655
36	0x40e1646c	7.0435085
37	0xc0615709	-3.5209372
38	0xbccd846c	-0.025087558
39	0xbd38f64c	-0.045156762
40	0x3d3ba2d5	0.045809586
41	0xbe96dd86	-0.29465884
42	0x3dbe0dea	0.09279998
43	0x3e211b5e	0.15733096
44	0x3f4fdf52	0.81200135
45	0x3f4dff52	0.8046771
46	0x3f4f7c12	0.8104869
47	0x41ebf59a	29.494923
48	0xbedd986a	-0.43280345
49	0x3ca197c0	0.01972568
50	0xbd839335	-0.06424562
51	0x3e1d3f67	0.15356217
52	0x3ca2b7c0	0.01986301
53	0x4268d4a2	58.20765
54	0x3e2dcd56	0.1697286
55	0xbdd35a43	-0.103199504
56	0x3e29494e	0.1653187
57	0xbe967404	-0.29385388
58	0x4215859c	37.380478
59	0xbd7fe2dc	-0.06247221
60	0xbe407d7e	-0.18797871
61	0xbedd4c86	-0.43222445
62	0xbda461de	-0.08026479
63	0x3d11ca68	0.03559342
64	0x42085c9c	34.09044
65	0xbed9a21e	-0.42506498
66	0x416844d1	14.516801
67	0xbd838dc9	-0.06423528
68	0x3d4e699e	0.050393693
69	0x3e885456	0.26626843
70	0x429724c7	75.57183
71	0xbffee54a	-1.9913723
72	0x42800404	64.00784
73	0xbe682425	-0.22670038
74	0x3df79eec	0.12090859
75	0xbed97da6	-0.42478675
76	0x3e321f4c	0.17394751
77	0xbd7dd2dc	-0.06196867
78	0xbd085c7c	-0.033291325
79	0x3e93fa5e	0.28901953
80	0x3cbc9560	0.023020446
81	0x3e24af6c	0.16082543
82	0xc08cbdfb	-4.398191
83	0x3ef6973a	0.48162252
84	0x3e5c2c48	0.21501267
85	0xbd7d62ec	-0.061861917
86	0xc09e7e8e	-4.9529486
87	0xbb431ae0	-0.0029770657
88	0x3e262874	0.16226369
89	0xbd8cebb3	-0.068808936
90	0xbd1f8324	-0.038943425
91	0x3c964f8d	0.01834848
92	0xbf8ffd08	-1.1249094
93	0xc1df68e7	-27.926222
94	0xbfa8475e	-1.314678
95	0xbe1f1553	-0.15535478
96	0x3fa24a4d	1.2678925
97	0xbdc62d2a	-0.09676583
98	0x3dc4e192	0.096133366
99	0x41768cce	15.409376
100	0xbe11081a	-0.14163247
101	0x3e123a0e	0.14279959
102	0x3cc6a162	0.024246875
103	0x3e91f522	0.28507334
104	0x3de0f51e	0.109842524
105	0x3c8490a2	0.016182248
106	0x3e4b4d2c	0.19853657
107	0x3f08d0d0	0.5344362
108	0x3f07ab9e	0.5299624
109	0xbe31a498	-0.17347944
110	0x3e7b7120	0.24554873
111	0xbcc52d04	-0.024069317
112	0x3ec89ffc	0.39184558
113	0x3e177646	0.14791211
114	0x3c6c7f62	0.014434667
115	0xbf966711	-1.1750203
116	0xc1bda172	-23.70383
117	0xbb130c10	-0.002243761
118	0x3ead8f4e	0.33898395
119	0xb7c7e000	-2.3826957e-05
120	0x3e87ed98	0.26548457
121	0xbe8ea657	-0.27861282
122	0x4101a17c	8.101925
123	0xbd047588	-0.03233865
124	0xbe3adb6a	-0.18247762
125	0x3e071474	0.13191396
126	0xc22e55f0	-43.583923
127	0xbcf76120	-0.03019768
128	0x3ef738fa	0.48285657
129	0x3e1e6ec6	0.15471944
130	0x3df41a5a	0.11919089
131	0xbe03bc26	-0.12864742
132	0x3e13dee0	0.14440489
133	0x3d33d52a	0.04390446
134	0xbcb9e180	-0.022690535
135	0xbeaf6a7a	-0.34260923
136	0x40412b58	3.0182705
137	0xbcf35d20	-0.029707491
138	0xbd4e1cdc	-0.05032049
139	0xbe00f05e	-0.12591693
140	0xbe85dc08	-0.26144433
141	0x3f0040cb	0.50098866
142	0x3ca6d18c	0.020363592
143	0x3d719c74	0.058987096
144	0xbe0de8b8	-0.13858306
145	0xbcf13db8	-0.029448375
146	0x3d382f35	0.044966895
147	0x3b6cd2d8	0.0036136415
148	0x3e797666	0.24361572
149	0xbe715ec6	-0.2357131
150	0x409976ae	4.7957373
151	0x3ec3a4af	0.3821158
152	0x3da33c75	0.07970516
153	0xbd319cf6	-0.04336258
154	0xbc16c5de	-0.009202449
155	0xbe871332	-0.26381832
156	0x3c345673	0.011006939
157	0x4168290d	14.510022
158	0x3e28ff02	0.16503528
159	0xbe0df4be	-0.13862893
160	0xbd8f3abe	-0.06993626
161	0x3efa3427	0.48867914
162	0x3e939dbb	0.28831276
163	0x3ced25b0	0.028948635
164	0xbe04a8fc	-0.12955087
165	0xbd801531	-0.06254042
166	0x3efcefe0	0.4940176
167	0x3e86d226	0.26332206
168	0xbd398ca6	-0.04530015
169	0x41abce2f	21.475676
170	0xc2eeabcc	-119.33554
171	0x432058b5	160.34651
172	0xbd59ed20	-0.053204656
173	0xbfd5ac36	-1.669318
174	0x3d5cb283	0.05388118
175	0xc0155599	-2.3333495
176	0xbd8e6371	-0.06952561
177	0xbf0a397f	-0.5399398
178	0x41ca2bd9	25.27141
179	0xbf219ac1	-0.6312676
180	0x3dc43c97	0.09581869
181	0xc24ce759	-51.225925
182	0xc18d1769	-17.63643
183	0x3c93d40f	0.018045453
184	0x3df8444a	0.121224
185	0xbe69a94c	-0.22818488
186	0xbe43b2f9	-0.19111241
187	0x3c93c51c	0.018038325
188	0x4218efad	38.23406
189	0xbf4b38f8	-0.793838
190	0x414772cd	12.465528
191	0x3f3835c4	0.7195704
192	0x42928d47	73.27593
193	0xbdb96f3f	-0.09054422
194	0x3da468eb	0.08027824
195	0x42d2ada7	105.339165
196	0x3f9d9021	1.230961
197	0x3d5100e0	0.051026225
198	0x3df613ff	0.12015533
199	0xbe8dbf89	-0.27685192
200	0x3dc47732	0.09593047
201	0x3c3c8e50	0.011508539
202	0x3e2937e5	0.16525228
203	0xbe7d9b48	-0.24766266
204	0x3e87369a	0.26408845
205	0x3d65e91c	0.056130514
206	0x3b5096d8	0.003182819
207	0x3e5234ca	0.2052795
208	0x3e933e75	0.28758588
209	0x3e5e980b	0.21737687
210	0x42007c30	32.121277
211	0xbe5e1403	-0.21687321
212	0x421227d8	36.53891
213	0xbe5e7747	-0.21725188
214	0x3d104b88	0.035228282
215	0xbd7671fe	-0.060167305
216	0xbe711b0e	-0.23545477
217	0xbe932beb	-0.28744444
218	0x3f408287	0.7519917
219	0x3d2029de	0.039102428
220	0x3ddde523	0.1083472
221	0x41f97431	31.181734
222	0xbe5308c4	-0.20608813
223	0x3e85a18d	0.26099816
224	0xbe04320a	-0.12909713
225	0xbe34f68a	-0.17672172
226	0x3b862ec0	0.0040949285
227	0x3d5e3c71	0.05425686
228	0x3d9e787b	0.077378236
229	0xbd5207c8	-0.051276952
230	0x42b97d26	92.74443
231	0x4013627b	2.3028858
232	0x3e5aa28a	0.21351066
233	0x3e5a4c7b	0.21318237
234	0x3dbae629	0.09125931
235	0x423638d7	45.555508
236	0xc12e93a3	-10.911044
237	0x3df7da90	0.12102234
238	0xbef91059	-0.48645285
239	0x3afb8500	0.0019189417
240	0x3e406cf5	0.18791564
241	0xbdb3d887	-0.08781534
242	0xbe004583	-0.12526517
243	0x3d4ed146	0.050492547
244	0x3b34bc20	0.0027577952
245	0x3e02e6e9	0.12783398
246	0x3cf814ef	0.03028342
247	0x42d158e8	104.673645
248	0xbbeb3ec0	-0.0071791112
249	0xbdc22595	-0.094798245
250	0x3ef96c5b	0.4871548
251	0xbd9953a2	-0.07486655
252	0x3d80f1b5	0.06296102
253	0x4032a30c	2.7912016
254	0x42f8fb96	124.49138
255	0x3e75d0a2	0.24005368
