weights/compsci/lasso.pt (torch, 15141 bytes, 1 tensors)

weight f4 [1, 3435]
000000 ed 0b ac c2 e3 91 96 c2 16 8b e1 3c 4e ae 20 be
       -86.02329 -75.284935 0.027532142 -0.15691492
000010 95 01 98 c0 31 9e 67 3e 42 ed 9a 3e e0 3b 48 3f
       -4.750193 0.22618939 0.30259138 0.7821636
000020 80 09 03 bc 97 cb c8 be 19 0b 3d be 70 c8 16 bc
       -0.00799787 -0.39217827 -0.18461265 -0.009203061
000030 f1 12 ab 3f 36 07 cf be 90 98 a5 bf 01 f3 99 c2
       1.3365155 -0.4043519 -1.2937183 -76.97462
000040 2e 9b ec c0 05 6d fa 3d 00 49 46 3a 31 5b 1b 3f
       -7.393943 0.12227825 0.00075639784 0.6068602
000050 60 ee 4b be 96 17 17 3d 2d c4 ae c0 88 67 8f c2
       -0.19915152 0.036887728 -5.4614472 -71.70221
000060 b6 e1 b0 41 74 4a 66 41 45 03 a5 41 42 44 b4 be
       22.11021 14.393177 20.626596 -0.35208327
000070 28 95 b4 3e 9e eb 93 bc f1 d5 d0 c1 e2 27 b4 be
       0.35270047 -0.018056687 -26.104464 -0.35186678
000080 e7 37 ca be 09 a6 94 bd 9b 60 d2 c1 d0 63 48 3f
       -0.39495775 -0.07258231 -26.29717 0.782773
000090 5b 3f 9e 41 b2 34 3f bd 8c ad 82 be c2 97 85 3f
       19.780935 -0.046681114 -0.2552303 1.0436938
0000a0 5d 8a 96 3e b1 b2 eb c0 5c 31 98 3f 89 68 ec c0
       0.29402438 -7.365563 1.1890063 -7.3877606
0000b0 53 11 29 41 47 0e 29 41 a5 00 d3 40 b0 c9 2e 42
       10.56673 10.565986 6.5938287 43.69696
0000c0 62 f5 9b 3e 91 ee bf be 4c 6d 98 be 74 9d c6 3c
       0.3046065 -0.374867 -0.29770887 0.024245001
0000d0 fa 73 11 be 91 3e 10 42 cc 29 83 be 49 b3 91 be
       -0.14204398 36.0611 -0.25617826 -0.28457096
0000e0 c5 50 18 bd e8 41 e2 c0 f3 fc 2b 42 d4 5a ae be
       -0.037186403 -7.070545 42.99702 -0.3405367
0000f0 26 19 ab be 64 38 77 bf 50 e0 21 3c 36 99 f8 be
       -0.33417624 -0.9657042 0.00988014 -0.4855439
000100 81 a7 6f 42 a4 f2 1d be 7b db a9 41 f8 97 b5 3f
       59.913578 -0.15424591 21.232168 1.4187002
000110 7f 51 51 3f f5 65 9f 3f c7 45 b2 41 ac c6 ea be
       0.8176498 1.245299 22.284071 -0.458547
000120 68 03 8f 42 58 f0 24 be 53 b3 8b 3e 06 8c 7d be
       71.50665 -0.16107309 0.2728525 -0.24760446
000130 78 7e 1d be 81 82 b2 c0 50 85 9b 3b 61 b4 9c 3e
       -0.15380275 -5.5784307 0.0047461167 0.30606368
000140 1a b9 60 be 0d f8 96 3e 5a 0a c6 bd 8b 74 75 3f
       -0.2194561 0.29486123 -0.09669943 0.95880955
000150 b8 d0 0e be 60 b0 ee 3d 52 d7 d0 3e c9 e3 8f be
       -0.13946807 0.116547346 0.40789276 -0.28103474
000160 00 69 0d 3a e9 3e 76 3d bf aa 9d 3c 0d 3a a8 3d
       0.00053943694 0.06011859 0.019246457 0.08214197
000170 c4 42 cc c1 93 25 81 c2 84 45 cc c1 7c b6 fa c1
       -25.5326 -64.57339 -25.533943 -31.339104
000180 0f 77 0b 42 69 15 5b 3f 0d 21 1d 3f 60 55 09 42
       34.86627 0.85579544 0.61378556 34.333374
000190 31 c7 7d c2 e0 60 4a be 17 0b 44 c1 18 81 c8 3c
       -63.444523 -0.19763517 -12.2527075 0.02447562
0001a0 9e 2b 09 c1 e6 c6 8d 3e a3 51 c5 be 11 fb 63 3f
       -8.573149 0.2769081 -0.38538846 0.8905497
0001b0 00 01 3d 42 a0 b9 ae be da 63 48 3d 7a 9e 80 41
       47.250977 -0.34125996 0.04892335 16.077381
0001c0 bc 4d 80 3d 70 a9 d1 be f6 eb b1 3e b0 22 8e c2
       0.06264827 -0.40949583 0.34750336 -71.06775
0001d0 c4 7f 92 c2 7d 1f b8 3e 73 a2 76 bf 2a fc 80 bd
       -73.24954 0.35961524 -0.9634163 -0.062980965
0001e0 d7 b2 eb c0 e6 ed a7 3d dd 5d 11 42 17 c1 fb bd
       -7.365581 0.081996724 36.341663 -0.12292688
0001f0 be 24 82 3e c4 c7 2d bf 7d 48 bd c2 8b b9 78 3f
       0.25418657 -0.67882943 -94.64158 0.97158116
000200 cf 83 c4 3f a0 7d cb 3d 94 dd fd be 90 a0 ef bc
       1.5352725 0.099360704 -0.49583113 -0.029251367
000210 33 53 35 3f 4e e5 ff be ff e7 f5 3d 19 4d 43 c2
       0.70830077 -0.49979633 0.1200714 -48.82529
000220 7b c0 f9 41 0f 4c c4 3f c9 37 aa c0 61 7d 4f bf
       31.218985 1.5335711 -5.3193097 -0.8105069
000230 1b bf 93 bf 57 0d c4 3f cf 4a c4 3f 38 93 2a 42
       -1.1542696 1.5316571 1.533533 42.64377
000240 ff 27 aa c0 5c 10 38 c2 20 82 49 3c d7 4b a7 be
       -5.3173823 -46.015976 0.012299091 -0.3267505
000250 da 85 20 bd e8 0a 30 3e 56 40 c6 41 6a b9 59 3e
       -0.03919015 0.1719166 24.781414 0.21262136
000260 78 04 66 bd 2c 63 9e be 87 99 1c 3e 04 6b 8e bf
       -0.056156605 -0.30935037 0.15292941 -1.1126409
000270 20 e8 69 3c d7 da a9 41 b0 a6 66 41 ea 6d c3 3e
       0.014276534 21.231855 14.415695 0.38169795
000280 16 9f e7 3c 92 7a 30 3f 30 68 0f 3d 18 0e 90 bf
       0.0282741 0.6893703 0.03501147 -1.1254301
000290 18 7f cb 3c 07 9f 1c 3e f6 0c 97 41 64 23 d3 c0
       0.024840876 0.15295039 18.881329 -6.59807
0002a0 3a b9 5c 3e c8 4e c9 42 f7 62 dc c2 c2 06 84 43
       0.21555033 100.65387 -110.19329 264.0528
0002b0 14 f2 9e be fd 5b 31 be 66 af da 3d 0a 74 1c c1
       -0.31044066 -0.17320247 0.10677986 -9.77833
0002c0 e3 56 77 c1 78 be 47 bf fb 32 3b 42 c4 a2 56 bf
       -15.458713 -0.7802501 46.799786 -0.8384211
0002d0 a9 c0 ae c0 d9 0b 09 c3 51 06 de c1 16 91 e0 3f
       -5.461018 -137.04628 -27.753084 1.7544277
0002e0 16 5a 0f 3f 1d f2 94 3e 69 a2 19 be f6 ca 8c bd
       0.55996835 0.29090968 -0.15003361 -0.06874649
0002f0 3c a3 a4 41 28 87 b4 c2 8f 7f 1a c0 48 bc 54 42
       20.579704 -90.26398 -2.4140356 53.18387
000300 12 1c 4a 42 4c 99 06 3e 0c 25 ec bc 9b 69 17 43
       50.527412 0.13144416 -0.02882626 151.41252
000310 b7 ec b7 3e 9c ba 26 bf a0 39 82 c0 85 73 a0 be
       0.35922787 -0.65128493 -4.0695343 -0.31338134
000320 cf 66 29 3f 14 8e dd c0 4a 06 dd 3f 0d 13 29 3e
       0.661725 -6.9235935 1.7267544 0.16511174
000330 07 49 89 3e 03 f0 eb 3f 18 5b c7 3c ac 56 8b bd
       0.26813528 1.8432621 0.02433543 -0.06803641
000340 84 fb 11 3e ce e2 62 c0 0e 57 6f 42 67 a0 96 c2
       0.14256102 -3.545093 59.835014 -75.313286
000350 09 f4 dd 41 04 b2 1b c0 10 60 fc be 0e 95 47 c0
       27.744158 -2.4327402 -0.4929204 -3.1184726
000360 07 3e 51 be bb 41 95 bd f8 74 f3 41 f0 b6 a9 be
       -0.20433818 -0.07287928 30.432114 -0.33147383
000370 d0 bf a2 bf 11 6b 78 42 8b 35 11 c1 10 18 61 bd
       -1.2714787 62.104557 -9.075572 -0.05495459
000380 16 98 48 3d a8 0e 40 be 74 ea 34 be 6b 98 81 bd
       0.048973165 -0.18755591 -0.17667562 -0.063278995
000390 f4 5a 35 be d0 6f c8 be 75 43 fc 42 0f 7b 84 c1
       -0.17710477 -0.39147806 126.13175 -16.560087
0003a0 3c 49 3b 3e 44 66 4d bf 7f 15 34 c2 b4 7f 1a 42
       0.18289655 -0.8023417 -45.020992 38.62471
0003b0 13 0f 2c c2 40 cb f0 3a 21 69 7a bf 4f ab eb c0
       -43.01472 0.001837112 -0.97816664 -7.3646617
0003c0 06 e6 80 c0 65 62 83 3d cc 23 6a c2 cc c9 ef bc
       -4.028079 0.06415252 -58.534958 -0.029271029
0003d0 fb 05 72 c1 2d a0 8a c2 43 24 dd be 1a 45 1b 43
       -15.12646 -69.31284 -0.43191728 155.26993
0003e0 20 c6 f8 bf e2 65 fa c1 31 ac f8 c0 44 b1 9a be
       -1.9435463 -31.299747 -7.7710195 -0.30213368
0003f0 66 32 63 3e 6a 52 c6 41 97 36 04 43 14 16 93 c0
       0.22187194 24.790241 132.21324 -4.596445
