weights/compsci/mean_squared_error.pt (torch, 15180 bytes, 1 tensors)

weight f4 [1, 3435]
-65.60906 -11.548734 11.936738 -16.756811 -11.358048 -14.998213 -17.547234 3.2041724
-22.57736 -15.723718 -22.591331 -25.444536 9.803967 -10.691377 17.454065 -65.87537
-41.61325 -40.988724 -10.939085 -10.695336 -21.322767 19.42401 -11.531606 -81.50472
19.139166 7.620928 18.842087 -21.29905 -21.386524 -39.972363 -35.99036 -21.299044
-15.693652 -1.0766987 -43.43936 3.2026026 24.178864 -33.24418 -31.359552 -1.0849657
-10.933916 -9.960629 9.814752 -22.223116 17.19131 17.193956 17.217642 48.854702
-17.562004 -24.563246 -17.558924 -19.701347 -24.560295 76.34129 -31.364279 -21.406185
-22.065737 -9.938489 13.651461 -45.201183 -21.316383 -17.568836 -14.514027 -36.342934
41.32835 -17.576862 22.158846 -7.4510636 13.998274 -2.3343072 50.03667 -66.77237
50.18594 9.907419 11.913114 -17.551922 -31.355986 8.0986595 -14.986207 9.135734
-30.963161 -10.926474 -33.2376 17.075125 -45.52517 -45.55307 -44.03326 -21.385067
-10.926119 -21.3835 -10.918068 -10.941042 -34.360603 -37.89291 -34.35692 -41.51916
27.002155 -43.528748 -14.845126 43.23794 -50.149754 -21.300303 -14.016776 -21.328873
-11.545847 -25.462164 6.464132 17.061588 57.29641 -14.799589 21.520088 43.49801
-4.2995415 -22.598642 -50.94577 -81.499016 -46.326588 -12.767631 -21.305485 -10.914896
-9.941458 -14.820336 19.439943 -10.679784 -21.302053 -7.5663314 -41.190918 17.076548
17.048758 -10.916094 -15.70835 -10.922138 -10.93922 -36.337738 -29.252361 -52.95432
18.711617 17.078773 -22.293095 -21.300436 11.753337 17.048565 17.070223 17.076153
-9.958319 -48.120655 -10.941217 -21.32238 -19.710953 -19.090181 27.741652 -4.897248
-4.3142138 -4.316478 -37.848694 -12.018788 -10.92882 22.137613 7.604039 -23.011415
11.929622 17.051207 -21.32418 -13.368219 -21.322367 -37.851868 36.68787 -9.947462
-1.0779349 80.41984 -49.62924 200.45982 -21.408031 -15.463029 -22.273087 -36.72015
-35.153614 -15.473366 40.593773 -15.456056 -11.547706 -63.450794 18.471914 -17.95251
-12.153157 -45.07097 -17.556454 -10.92544 11.146503 -58.91479 50.466873 61.406963
86.35491 3.7610977 9.907133 112.12035 -17.892443 -62.997314 -2.311931 -18.28323
9.117667 -9.941445 -37.72406 -27.042257 11.21018 2.6364646 -21.301777 13.389674
-21.330038 52.375446 51.78898 -72.74549 16.41582 -59.090054 -36.329063 -41.835476
-19.119028 -36.51001 15.800866 -36.323753 34.649036 58.886024 -3.6546338 15.63193
-19.706116 -19.719421 -13.370704 -40.84419 -13.385111 3.0535364 101.836365 21.609484
-40.978073 -2.0493274 -77.84016 56.440163 -30.947514 11.929591 -15.710292 -9.959843
-11.530391 -39.974907 -33.1003 9.913119 -29.400661 -56.991463 2.9006345 112.06505
4.0964856 -22.279926 -44.001522 -12.674511 -14.981489 27.742975 104.91773 -35.16675
00000000: d737 83c2 9dc7 38c1 e1fc 3e41 f30d 86c1
00000010: 91ba 35c1 aef8 6fc1 bc60 8cc1 2911 4d40
00000020: 6f9e b4c1 5994 7bc1 0cbb b4c1 698e cbc1
00000030: 0ddd 1c41 e10f 2bc1 eda1 8b41 30c0 83c2
00000040: f873 26c2 74f4 23c2 7e06 2fc1 1920 2bc1
00000050: 0795 aac1 5f64 9b41 7581 38c1 6b02 a3c2
00000060: 031d 9941 a4de f340 98bc 9641 7464 aac1
00000070: 9a17 abc1 b3e3 1fc2 21f6 0fc2 7164 aac1
00000080: 3319 7bc1 43d1 89bf e8c1 2dc2 71f7 4c40
00000090: 506e c141 0afa 04c2 5de0 fac1 28e0 8abf
000000a0: 52f1 2ec1 bd5e 1fc1 3909 1d41 f1c8 b1c1
000000b0: ce87 8941 398d 8941 bbbd 8941 376b 4342
000000c0: fc7e 8cc1 8781 c4c1 ad78 8cc1 5c9c 9dc1
000000d0: 7c7b c4c1 beae 9842 0bea fac1 de3f abc1
000000e0: a186 b0c1 0d04 1fc1 626c 5a41 03ce 34c2
000000f0: f487 aac1 fa8c 8cc1 7439 68c1 2a5f 11c2
00000100: 3b50 2542 6a9d 8cc1 5145 b141 1d6f eec0
00000110: eef8 5f41 4a65 15c0 8d25 4842 748b 85c2
00000120: 67be 4842 ca84 1e41 1d9c 3e41 566a 8cc1
00000130: 0fd9 fac1 1c94 0141 81c7 6fc1 f72b 1241
00000140: 8eb4 f7c1 d6d2 2ec1 4df3 04c2 db99 8841
00000150: c619 36c2 5836 36c2 0f22 30c2 9e14 abc1
00000160: 62d1 2ec1 6811 abc1 68b0 2ec1 820e 2fc1
00000170: 4271 09c2 5792 17c2 7c6d 09c2 9f13 26c2
00000180: 6a04 d841 701d 2ec2 a385 6dc1 a7f3 2c42
00000190: 5999 48c2 0567 aac1 b744 60c1 88a1 aac1
000001a0: cabb 38c1 83b2 cbc1 2bda ce40 227e 8841
000001b0: 862f 6542 1ecb 6cc1 2429 ac41 f6fd 2d42
000001c0: d895 89c0 05ca b4c1 78c8 4bc2 7fff a2c2
000001d0: 6d4e 39c2 3748 4cc1 a271 aac1 6aa3 2ec1
000001e0: 3610 1fc1 1920 6dc1 0185 9b41 65e0 2ac1
000001f0: 9b6a aac1 631f f2c0 80c3 24c2 c59c 8841
00000200: db63 8841 52a8 2ec1 6755 7bc1 14c1 2ec1
00000210: 0c07 2fc1 d859 11c2 d604 eac1 39d1 53c2
00000220: 64b1 9541 54a1 8841 4258 b2c1 4b67 aac1
00000230: ab0d 3c41 7663 8841 d18f 8841 f69b 8841
00000240: 4655 1fc1 8d7b 40c2 3a0f 2fc1 3c94 aac1
00000250: 08b0 9dc1 b1b8 98c1 e7ee dd41 41b6 9cc0
00000260: 0a0e 8ac0 9620 8ac0 1065 17c2 f54c 40c1
00000270: 72dc 2ec1 d519 b141 4a54 f340 6117 b8c1
00000280: bbdf 3e41 df68 8841 ec97 aac1 3ae4 55c1
00000290: 3594 aac1 5068 17c2 61c0 1242 ce28 1fc1
000002a0: c5f9 89bf f5d6 a042 5784 46c2 b775 4843
000002b0: a643 abc1 9168 77c1 482f b2c1 6fe1 12c2
000002c0: 4d9d 0cc2 e892 77c1 0660 2242 014c 77c1
000002d0: 67c3 38c1 9dcd 7dc2 7bc6 9341 be9e 8fc1
000002e0: 5573 42c1 ac48 34c2 9e73 8cc1 9ace 2ec1
000002f0: 1458 3241 bfa8 6bc2 14de 4942 bba0 7542
00000300: b7b5 ac42 d3b5 7040 9e83 1e41 9f3d e042
00000310: b923 8fc1 40fd 7bc2 adf6 13c0 0e44 92c1
00000320: f7e1 1141 2910 1fc1 70e5 16c2 8b56 d8c1
00000330: e65c 3341 d6bb 2840 0a6a aac1 1b3c 5641
00000340: eba3 aac1 7580 5142 ea27 4f42 b17d 91c2
00000350: 9953 8341 375c 6cc2 f650 11c2 8757 27c2
00000360: c5f3 98c1 400a 12c2 59d0 7c41 864b 11c2
00000370: 9d98 0a42 4a8b 6b42 85e5 69c0 631c 7a41
00000380: 20a6 9dc1 60c1 9dc1 67ee 55c1 7360 23c2
00000390: 6a29 56c1 246d 4340 38ac cb42 39e0 ac41
000003a0: 8ce9 23c2 2e28 03c0 29ae 9bc2 bac2 6142
000003b0: 8294 f7c1 9bdf 3e41 5b5d 7bc1 845b 1fc1
000003c0: 7b7c 38c1 4ee6 1fc2 b566 04c2 239c 1e41
000003d0: 8e34 ebc1 42f7 63c2 ffa3 3940 4e21 e042
000003e0: 6916 8340 4a3d b2c1 8f01 30c2 ccca 4ac1
000003f0: 2eb4 6fc1 9df1 dd41 e1d5 d142 c1aa 0cc2
