weights/compsci/mean_squared_error.pt (torch, 14540 bytes, 1 tensors)

weight f4 [1, 3435]
0	0xc2878d08	-67.77545
1	0xc15155aa	-13.083414
2	0x414ddc18	12.866234
3	0xc18c5a36	-17.544048
4	0xc155598f	-13.334365
5	0xc17c9743	-15.786929
6	0xc1935337	-18.415632
7	0x40e639cd	7.1945558
8	0xc1aab868	-21.340042
9	0xc1c30dbb	-24.381704
10	0xc1aaa0a8	-21.328445
11	0xc1a6b37e	-20.837643
12	0x40d1ce38	6.556423
13	0xc0e85301	-7.2601323
14	0x40a0be72	5.0232477
15	0xc290d085	-72.407265
16	0xc20e133f	-35.518795
17	0xc2275ac2	-41.83863
18	0xc1360e45	-11.378484
19	0xc0e8dcd1	-7.276955
20	0xc1ab1c5a	-21.388844
21	0x4160f220	14.059113
22	0xc1512d18	-13.073509
23	0xc265d87e	-57.46142
24	0x418b85e2	17.440372
25	0x415af0ef	13.683822
26	0x41753ea1	15.32779
27	0xc1ab0b8e	-21.380642
28	0xc1a5172a	-20.63631
29	0xc2162f10	-37.54596
30	0xc21e8ecb	-39.639446
31	0xc1ab32c4	-21.399788
32	0xc1c2fe29	-24.374102
33	0xbf4a6d0b	-0.79072636
34	0xc24a4701	-50.56934
35	0x40e5a7f9	7.1767545
36	0x4185df34	16.733986
37	0xc220f7a3	-40.241833
38	0xc2076ae4	-33.854385
39	0x3f83ef12	1.0307333
40	0xc1361b69	-11.381692
41	0xc108088c	-8.502087
42	0x40d1fece	6.562354
43	0xc1ac245a	-21.51775
44	0x4199ab72	19.208714
45	0x41998134	19.188087
46	0x419978b0	19.18393
47	0x42360eb3	45.514355
48	0xc19353ab	-18.415854
49	0xc1b0e637	-22.11241
50	0xc1936d75	-18.428446
51	0xc175e528	-15.368446
52	0xc1b10ad5	-22.13029
53	0x429e7a7d	79.239235
54	0xc20779e3	-33.86903
55	0xc1a4e5f5	-20.612284
56	0xc1aacc93	-21.34989
57	0xc107f497	-8.497214
58	0x41272457	10.446372
59	0xc23ee978	-47.727997
60	0xc1ab1825	-21.38679
61	0xc193760b	-18.432638
62	0xc159fbb9	-13.623956
63	0xc2009161	-32.14197
64	0x4226a5e8	41.662018
65	0xc19377ed	-18.433558
66	0x41b5d918	22.731003
67	0xc0ea304a	-7.3183947
68	0x4150103c	13.003963
69	0xc08ea1c7	-4.457248
70	0x424406c3	49.006603
71	0xc23eed67	-47.73184
72	0x4210b25d	36.174183
73	0x41821faf	16.26547
74	0x414dcd0c	12.86256
75	0xc1938911	-18.441927
76	0xc2077813	-33.86726
77	0x4102c13f	8.172179
78	0xc17d0d2d	-15.815717
79	0x40a05fad	5.011679
80	0xc1f646a2	-30.784489
81	0xc135e2e9	-11.367898
82	0xc220f3b5	-40.237995
83	0x4180f6b7	16.120466
84	0xc21ed82d	-39.71111
85	0xc21ee2be	-39.721428
86	0xc22e50e5	-43.579
87	0xc1a4f146	-20.61781
88	0xc1361701	-11.380616
89	0xc1a506e1	-20.628359
90	0xc135ac56	-11.354574
91	0xc135fa7d	-11.373654
92	0xc21e6844	-39.60182
93	0xc22cb21d	-43.17394
94	0xc21e7d0c	-39.622116
95	0xc217c635	-37.94356
96	0x421dec57	39.4808
97	0xc26fb8be	-59.930412
98	0xc169d050	-14.613358
99	0x421a92d4	38.643387
100	0xc240592e	-48.08709
101	0xc1ab0548	-21.377579
102	0xc1607228	-14.02787
103	0xc1ab0c01	-21.380861
104	0xc1515aa9	-13.084634
105	0xc1a6be31	-20.842867
106	0x4101d627	8.114783
107	0x4180e894	16.113564
108	0x4269229e	58.283806
109	0xc116d0de	-9.425993
110	0x419eeb0f	19.864775
111	0x4222fa94	40.744705
112	0xc09efe04	-4.968508
113	0xc1aa8510	-21.314972
114	0xc21ab336	-38.67501
115	0xc265ed85	-57.481953
116	0xc294e255	-74.442055
117	0xc1408ea0	-12.034821
118	0xc1ab330b	-21.399923
119	0xc1362927	-11.385047
120	0xc10812d9	-8.5046015
121	0xc1168e2b	-9.409709
122	0x4160f024	14.058628
123	0xc0e8cb35	-7.2748055
124	0xc1ab1e97	-21.389936
125	0x419cf3ee	19.619106
126	0xc277a688	-61.91263
127	0x41812017	16.140669
128	0x41811fa9	16.14046
129	0xc135eb35	-11.369924
130	0xc1c30325	-24.376535
131	0xc135a142	-11.35187
132	0xc1362b30	-11.385544
133	0xc20083a7	-32.128567
134	0xc1a2ad64	-20.334663
135	0xc250a53f	-52.161373
136	0x41f85fae	31.046719
137	0x41811649	16.135881
138	0xc1c5d4f9	-24.72899
139	0xc1aaf50d	-21.369654
140	0x41726b05	15.151128
141	0x41811f70	16.14035
142	0x41811d64	16.13935
143	0x41811a08	16.13771
144	0xc107c7b7	-8.4862585
145	0xc2441c58	-49.02768
146	0xc135d87b	-11.365352
147	0xc1ab0347	-21.3766
148	0xc176574a	-15.396311
149	0xc186333a	-16.775013
150	0x41dabbe4	27.341743
151	0xc0582e54	-3.3778276
152	0xc09ee25b	-4.9651313
153	0xc09eadff	-4.9587398
154	0xc20409b3	-33.00947
155	0x4190ab99	18.083788
156	0xc1361103	-11.379153
157	0x41b5d278	22.727768
158	0x415ade85	13.679326
159	0xc1b82f22	-23.023014
160	0x414de670	12.868759
161	0x41810861	16.129091
162	0xc1ab01d8	-21.3759
163	0xc12bbec5	-10.734075
164	0xc1aaf5ac	-21.369957
165	0xc203fd0e	-32.997124
166	0x4243a6ef	48.91302
167	0xc108346c	-8.512798
168	0xbf4959e4	-0.7865279
169	0x4284402b	66.12533
170	0xc2607f02	-56.12403
171	0x431cbc18	156.73474
172	0xc1a516f6	-20.636211
173	0xc124ef89	-10.30848
174	0xc1b75a3c	-22.91906
175	0xc224367d	-41.05321
176	0xc20947ad	-34.319996
177	0xc1250a85	-10.315068
178	0x421fc0da	39.93833
179	0xc124b41b	-10.293971
180	0xc1515954	-13.084309
181	0xc283b248	-65.848206
182	0x41728314	15.1570015
183	0xc1bd4f1a	-23.663624
184	0xc133fc5e	-11.249113
185	0xc2285cfa	-42.090797
186	0xc19351cb	-18.414938
187	0xc135d3bb	-11.364192
188	0x418f0277	17.876204
189	0xc269262e	-58.287285
190	0x42479ac5	49.901142
191	0x426cc4df	59.192257
192	0x42b3613a	89.689896
193	0x408cfc15	4.4057717
194	0x41820f5a	16.257496
195	0x42dfdc31	111.93006
196	0xc19ee3d0	-19.861237
197	0xc280e08d	-64.438576
198	0x3fd0b4b3	1.6305145
199	0xc1870f53	-16.882483
200	0x40a09927	5.0186954
201	0xc10839da	-8.514124
202	0xc2060040	-33.500244
203	0xc1e7fb50	-28.997711
204	0x41566af0	13.401108
205	0xc0dde5a2	-6.9342813
206	0xc1ab1ddc	-21.38958
207	0x411be928	9.744423
208	0xc1ab30ba	-21.398792
209	0x4243bade	48.932487
210	0x426353e5	56.83193
211	0xc282ed8d	-65.46397
212	0x41c6a4a9	24.8304
213	0xc2679267	-57.89297
214	0xc200a234	-32.1584
215	0xc22f0e8e	-43.764214
216	0xc1861357	-16.759443
217	0xc24b34a1	-50.801395
218	0x41e70c43	28.880987
219	0xc20093c5	-32.144306
220	0x42392779	46.288548
221	0x42682944	58.0403
222	0x3e6f35f2	0.23360422
223	0x417c5422	15.77054
224	0xc17625a6	-15.3841915
225	0xc1762bb0	-15.385666
226	0xc12b6837	-10.712943
227	0xc21ad2a5	-38.705708
228	0xc12bc20b	-10.734874
229	0x40b321cd	5.597876
230	0x42cda925	102.83036
231	0x41a937da	21.152271
232	0xc2275a69	-41.83829
233	0xc08714e6	-4.221301
234	0xc27c278b	-63.038616
235	0x42343b2d	45.05779
236	0xc1f665a3	-30.799627
237	0x414dee20	12.870636
238	0xc1738d90	-15.222061
239	0xc107d8ed	-8.49046
240	0xc1513e94	-13.077778
241	0xc2163496	-37.551353
242	0xc23c9f94	-47.155838
243	0x41822dc7	16.272352
244	0xc202d9f0	-32.71283
245	0xc24b7ad1	-50.869938
246	0x405c0a47	3.4381273
247	0x42e1023a	112.50435
248	0x3f854bf9	1.041381
249	0xc1b78c2e	-22.943447
250	0xc20fd01d	-35.953236
251	0xc16ff2e4	-14.996799
252	0xc17d05ad	-15.813886
253	0x41da9531	27.322847
254	0x42dcf8ca	110.485916
255	0xc20d6644	-35.34987
