weights/compsci/ridge.pt (torch, 15141 bytes, 1 tensors)

weight f4 [1, 3435]
00000000: 89c8 5ec0 3dd9 11bf ac28 aa3e ae04 043f
00000010: d485 b33e f4ea cf3e 24de 503d b8e3 6a3d
00000020: ee86 a0be 2086 89bd 6f31 18bf 4e98 4a3e
00000030: b6d8 993d 7210 8bbd 8f84 5440 313c 8abf
00000040: 52de 41bf 3b63 84be eb3e 573e 4040 b9ba
00000050: 1e62 af3c db04 7d3f 1de3 5ebe 87cf 43bf
00000060: 5c13 b93f 4236 f83e d6b3 663f f240 ac3c
00000070: ee69 183e f0cf 3bbc 5c58 8cbe 2c47 ab3c
00000080: be55 8abd fc58 c83e 236a 32bf d0da 6a3d
00000090: df0c 0640 e2c7 03be 4c2b 20bf f917 69be
000000a0: 2d44 573e 9894 ae3e 2017 9a3d d25b 20be
000000b0: a8eb e43f c8e6 e43f c1e6 e43f 23c9 8740
000000c0: ca2c 4f3d da36 063e e49d 513d 248b c33d
000000d0: d936 063e 37bc e240 1c25 20bf 928d 183e
000000e0: 7ead a2bf 049c ae3e 7098 9140 3bf2 cfbe
000000f0: 4024 ae3c 6cff ee3c b04b c23e 829f c7be
00000100: f2d8 2b40 68e7 ee3c 0d6f cd3f 513f 1c3f
00000110: 3373 a73e bab8 2b3f 2dd5 4841 e1f7 703e
00000120: 9bc4 4441 50ea 193e 86a9 aa3e ccee 4c3d
00000130: 30e5 21bf 5bc5 383e 1ceb cf3e 420a 8f3e
00000140: a0c4 193c 3e43 573e 06de 05be 1a98 e33e
00000150: 54fa ef3d a0e2 ef3d 7618 3bbf b631 1e3e
00000160: 2693 583e fc02 9a3d 61d4 40be 024d 573e
00000170: ddad 073f d1ac 68bf 89af 073f a93d bcbe
00000180: 266a de3f 5821 9abf f4fd 30be 47c4 4b40
00000190: 38ef 7bbf 6893 763c b400 dfbd 38e1 af3c
000001a0: 2e3d aabe 9f98 4a3e ece6 8c3e a82b e03e
000001b0: 3b5d 6e3f ab21 0b3f 005c aa3d 73f8 553f
000001c0: ab38 953e 0e72 a0be 84be 85bd 4327 40bf
000001d0: b3d7 04c0 f867 973e 4b3d 6b3e ec3d 573e
000001e0: befc b33e b0e4 0a3f 076b 0d40 b02a b6ba
000001f0: 980a a13e b2f1 983e a810 4dbe 402c e03e
00000200: f029 e03e 8290 583e ae7e 89bd c2c5 40be
00000210: 8789 41be 7b9f c7be 900a 3f3b 83cd 98bf
00000220: 55f0 c03f 4727 e03e e6d2 cf3d c00f a13e
00000230: a44b 513e 7225 e03e aa98 e33e 7941 923f
00000240: 94fc b33e 35e7 ba3e 8741 573e 2871 763c
00000250: bd8b c33d bdf2 e23d 0cbb c83f c7a4 83bc
00000260: 3403 9f3e d104 9f3e 6f8d 723e 803a 9c3d
00000270: 2247 573e b66d cd3f 0c34 f83e 5941 463e
00000280: 2ba9 aa3e b726 e03e 564e ab3c d3c7 523e
00000290: a874 763c 3534 7a3e 3b50 d53f 04a5 ae3e
000002a0: 0459 c83e 5164 ca41 15b4 53c0 9157 8a42
000002b0: 5860 fbbe 2131 8fbe cb69 68bc 74a1 7b3e
000002c0: 765f 453f 2c2f 8dbe a084 5540 9e0e 8dbe
000002d0: 2c3d 60be 2ea9 35bf a014 8840 48eb d6bd
000002e0: 9aff a33e f730 94be 0c95 513d a44a 573e
000002f0: b776 5140 00f4 f53b 8e70 1141 eeae cb3f
00000300: 55ea 8441 8c99 b53f 7022 1c3e da9f 8441
00000310: e1e0 953e 0212 97be 8900 b6be 8ad5 ae3e
00000320: 620a 8f3e adfc b33e dbf2 d1be 5353 dabe
00000330: 7262 b03f f172 233e 5c6b 763c 7b4f d23e
00000340: 200e ac3c 4c6e e940 2c05 1841 be4c cebf
00000350: 870f 5f40 64ab 4dbf 829f c7be 9369 d6be
00000360: b8e5 d73d 2562 f13d 414b e53f 799f c7be
00000370: 23de e13f e0dc cb3f 6421 96bd dbf9 483e
00000380: 23ee 18bf f085 c33d 481d 513e e034 15bf
00000390: 9222 513e 28f7 7abe f010 1841 fe29 fb40
000003a0: ac6a 84be 17f3 ba3e 0d52 b2bf 7712 9f40
000003b0: f115 aabe 5226 aa3e b197 c33e befc b33e
000003c0: aed9 5ebe d019 3cbc 98be b83e 8aeb 193e
000003d0: 872e a2be d176 08bf a33b b33d 4186 7441
000003e0: c5b9 82be 0e44 5a3d 2396 2e3f c9c7 c2bf
000003f0: 59b1 303f 4fbb c83f ae0b aa41 161f 063e
-3.4809897 -0.56972104 0.33234155 0.5156964 0.3506304 0.40608943 0.0509931 0.057346076
-0.31352943 -0.067150354 -0.5945043 0.19784662 0.075120375 -0.06790246 3.3205907 -1.0799619
-0.7572986 -0.25856957 0.21020095 -0.0014133528 0.02140909 0.98835534 -0.21766324 -0.76488537
1.4459033 0.48478895 0.9011816 0.021027062 0.14884159 -0.01146315 -0.27411163 0.02090796
-0.06754635 0.3913039 -0.696932 0.057337582 2.0945356 -0.12869218 -0.62566066 -0.22763051
0.21022101 0.34097743 0.07523942 -0.15660027 1.7884417 1.7882929 1.788292 4.243303
0.050579824 0.13106862 0.051175967 0.09548023 0.1310686 7.0854754 -0.62556624 0.14897755
-1.2709196 0.34103405 4.549858 -0.40614495 0.02125752 0.029174529 0.3794837 -0.38988882
2.6851163 0.029163077 1.6049515 0.61034113 0.32705078 0.67078745 12.552045 0.23532058
12.297999 0.1503079 0.3333246 0.050032422 -0.6324034 0.18044035 0.40609062 0.27937514
0.009385258 0.21021745 -0.13072976 0.44451982 0.11717668 0.11713147 -0.730842 0.1544865
0.21149883 0.075201005 -0.18831016 0.2102547 0.5299967 -0.90888697 0.5300222 -0.36765793
1.7376144 -1.2041426 -0.17284375 3.1838548 -0.98411894 0.015049793 -0.10888806 0.021469697
-0.332498 0.19784783 0.2751993 0.43783307 0.9311101 0.5434825 0.08318329 0.8358223
0.29144797 -0.31337017 -0.065304786 -0.7505991 -2.0756652 0.2957151 0.229726 0.21019715
0.35153764 0.542552 2.2096574 -0.001389822 0.31453395 0.298719 -0.20025885 0.4378376
0.43781996 0.21148875 -0.06713615 -0.18825439 -0.18900119 -0.3898886 0.0029150583 -1.1937717
1.5073344 0.43779966 0.101476476 0.3145733 0.20439011 0.43778569 0.4445241 1.1426231
0.3515364 0.36504522 0.2102109 0.015041627 0.09548137 0.11081455 1.5682082 -0.016069783
0.3105713 0.31058362 0.23686765 0.076283455 0.21023229 1.6049106 0.4847721 0.19360866
0.3333219 0.43779537 0.020911377 0.2058404 0.015042461 0.24433978 1.6665109 0.34110272
0.39130414 25.298983 -3.3078663 69.17103 -0.49096942 -0.2796717 -0.014185379 0.24573308
0.77098787 -0.27575052 3.3362198 -0.27550215 -0.21898335 -0.7096127 4.2525177 -0.10494095
0.32030946 -0.28943607 0.051167533 0.21024567 3.2728708 0.0075058937 9.089979 1.5912759
16.61442 1.4187484 0.15247512 16.578053 0.2927313 -0.29505926 -0.35547283 0.34147292
0.2793761 0.35153714 -0.41005597 -0.42641696 1.3780043 0.15961815 0.015040245 0.41076264
0.02100283 7.294714 9.501263 -1.611717 3.4853227 -0.80339646 -0.38988882 -0.41877422
0.10541862 0.11786298 1.7913591 -0.38988855 1.7645916 1.5926781 -0.073305875 0.19626562
-0.5973837 0.09547031 0.20421326 -0.58283806 0.20423344 -0.24508345 9.504135 7.848876
-0.25862634 0.36513588 -1.393129 4.971004 -0.33219865 0.3323236 0.3820167 0.35153764
-0.21762726 -0.011480764 0.36082911 0.15031257 -0.31676123 -0.533063 0.08751609 15.282777
-0.25532356 0.05328756 0.6819784 -1.521722 0.6902061 1.5682162 21.255703 0.13097796
