weights/cscareerquestions/lasso.pt (torch, 20901 bytes, 1 tensors)

weight f4 [1, 4878]
000000 66 a0 13 41 1f 36 5a 40 d6 67 53 bf f8 d6 9a c0
       9.22666 3.4095533 -0.82580316 -4.8387413
000010 26 ec 94 41 f3 66 6c c0 3f f3 9c c2 39 39 19 c2
       18.615307 -3.6937835 -78.47509 -38.30588
000020 bf 82 57 40 b1 5a e5 40 00 ab 6d 40 a8 70 d5 c2
       3.367355 7.1673207 3.713562 -106.72003
000030 38 d5 6e c1 10 05 3a 40 7c 30 5f 3f 82 e0 09 41
       -14.927055 2.906559 0.87183356 8.6173115
000040 43 26 14 c3 7d 43 b9 3f 39 d7 fd 40 63 32 2e 43
       -148.14946 1.4473721 7.9325223 174.19682
000050 a7 cd 5c 42 d2 e8 1f 3d d4 0c 59 c1 19 d1 98 c2
       55.200832 0.039040394 -13.565632 -76.408394
000060 d4 e5 d2 3d 6f a8 49 40 b6 06 a0 40 99 97 dd c2
       0.102977425 3.1509054 5.000819 -110.79609
000070 e8 8d c0 c2 26 9b 24 c3 94 6d 8c 40 58 f6 08 42
       -96.27716 -164.60605 4.388376 34.24057
000080 1c d6 ee 3e 32 48 5c be bb fb eb 3d 93 08 95 3f
       0.46647727 -0.21511915 0.11522623 1.1643242
000090 09 e3 52 c2 36 1f e3 40 d4 69 d2 3d 2f 73 e1 bd
       -52.721714 7.09756 0.10274091 -0.11008298
0000a0 18 2d eb 3d 83 b2 1b 41 89 a4 a1 c2 d9 ff 25 c3
       0.1148321 9.731082 -80.82136 -165.9994
0000b0 97 a1 26 3f 9b e4 1a c3 9a db 79 41 38 6a 55 c0
       0.65090317 -154.89299 15.616114 -3.334608
0000c0 25 c6 5d c3 da b7 0c c3 ad 05 02 41 21 d8 fd 40
       -221.774 -140.71817 8.126386 7.932633
0000d0 f2 d9 b1 c0 e9 a7 fd 40 e5 9d 23 c0 44 56 89 3d
       -5.5578547 7.926747 -2.556512 0.06705907
0000e0 c9 95 00 c1 c8 92 da 42 48 23 f2 40 db 9a e7 40
       -8.036569 109.28668 7.566807 7.2376533
0000f0 c4 5d 66 41 e2 3a c3 c1 ad 27 2b c2 9f a6 37 c2
       14.397892 -24.403751 -42.788746 -45.912716
000100 ca d6 5c 43 3f 2b 15 c3 12 04 45 3f 9f d9 26 41
       220.83902 -149.16893 0.76959336 10.42813
000110 c1 cb fd 40 2a 34 e8 42 6a 26 5f 40 7e cd 5d c2
       7.9311223 116.10188 3.4867196 -55.450676
000120 1c 59 8d 42 d8 95 3e c3 2f 8c 0b c3 53 00 28 41
       70.67404 -190.58533 -139.54759 10.500079
000130 5b b6 a1 42 4e 7e 5e 40 50 f6 1d 40 05 78 2c 42
       80.85616 3.476459 2.4681587 43.117207
000140 b7 b2 32 c3 8e 77 5e 40 d8 7a 54 40 dd 81 5d 43
       -178.6981 3.476047 3.3199978 221.50728
000150 8e ef 58 c0 37 3a b5 3f 75 22 b0 40 d3 55 39 c1
       -3.3896213 1.4158391 5.504206 -11.583453
000160 a0 94 d4 42 98 b1 85 bd e9 b1 56 c0 6d 8e 00 c1
       106.29028 -0.06528014 -3.3546088 -8.034772
000170 f2 78 9c 3f fa 58 0d 41 9a 9e b2 42 a5 bd df c2
       1.222441 8.834223 89.30977 -111.8704
000180 51 b9 8a 41 85 5a 88 40 fd 39 03 41 7e da 13 c1
       17.340487 4.2610497 8.201657 -9.240843
000190 e8 5f df c1 94 fa 80 c2 7a 18 2d bf c5 42 ca c2
       -27.92183 -64.48941 -0.67615473 -101.13041
0001a0 11 82 00 c2 f4 66 40 42 0b a9 37 42 fd 4f d8 c1
       -32.127018 48.10054 45.91508 -27.039057
0001b0 a1 e9 e8 41 b6 dd a0 c2 c0 dd 22 c3 6e 45 5e 40
       29.114077 -80.43303 -162.86621 3.4729877
0001c0 45 db 83 40 4f eb c9 3e 7c 11 c5 3f 2e 65 5e 40
       4.1205163 0.3943734 1.5395961 3.4749255
0001d0 c1 18 83 41 1c 6c f2 3e 15 ec 0e c3 2b 5f dd 42
       16.387087 0.47348106 -142.9222 110.685875
0001e0 fd eb b7 3f 24 f6 11 41 a2 df 53 c0 80 c8 fe bf
       1.4368893 9.122593 -3.3105245 -1.9904938
0001f0 97 e7 fd bf e4 6b 00 c0 da ad 53 c0 f5 e0 dd c1
       -1.9836301 -2.0065851 -3.307486 -27.734842
000200 24 0a b1 3f dc 0b 8c c1 6e e6 e2 c2 4c b8 f9 c1
       1.383122 -17.50579 -113.45006 -31.214989
000210 e5 a6 56 c3 b0 b4 50 c2 88 a6 b0 3f f6 4e 35 43
       -214.65193 -52.176453 1.3800821 181.30844
000220 0c 8c 61 c3 83 6a 99 c2 7f 7f dd c0 0f 45 33 c2
       -225.54706 -76.70803 -6.9218135 -44.81744
000230 82 08 54 c0 ae 63 59 c0 b2 e5 53 c0 3c 7e c4 3f
       -3.3130193 -3.396709 -3.3108945 1.5351024
000240 63 58 79 c3 03 a1 1b bf 18 c0 1f c3 91 ac 78 40
       -249.34526 -0.6079256 -159.75037 3.8855326
000250 6d f1 2f 40 cc e2 e2 c2 f8 41 36 3e 69 b2 fd 40
       2.7491105 -113.44296 0.17798603 7.9280286
000260 72 76 53 c0 79 ad 46 40 b7 9f ef c2 ad 78 63 3f
       -3.3041043 3.104338 -119.81194 0.8885601
000270 2c 2b 9a 43 0e 9e e3 c2 62 50 a3 42 1e 76 57 41
       308.33728 -113.8087 81.657 13.466337
000280 5e 18 55 c0 b3 5f 99 c0 a6 7d d4 c2 80 cb e9 bf
       -3.3296123 -4.792932 -106.24541 -1.8265228
000290 72 eb 43 c2 9b 7d 6e c2 1b a7 3b c2 3c b2 50 c2
       -48.979927 -59.62266 -46.91319 -52.174057
0002a0 98 f6 8a c2 a9 8d 56 c0 90 7d 8e bd 20 ab 6d bd
       -69.48163 -3.3523962 -0.06957543 -0.058024526
0002b0 c6 92 7d 41 7c 37 a5 3f 16 84 88 bf 15 53 c7 c2
       15.848333 1.2907557 -1.066531 -99.66227
0002c0 e8 79 e8 bf e8 36 e9 bf 3e c4 43 40 91 e2 80 41
       -1.8162203 -1.8219881 3.0588527 16.110628
0002d0 91 c0 6b 41 73 59 ed 3f 75 78 42 c1 ea d8 53 c0
       14.734513 1.8542923 -12.154408 -3.3101144
0002e0 09 81 5d 43 3d eb b7 3f 4e 01 ec bf b0 f4 2c c3
       221.50404 1.4368664 -1.8437898 -172.95581
0002f0 6e ce 6e 3f db 7f f3 c2 07 64 43 42 45 01 80 c2
       0.93283737 -121.74972 48.847683 -64.00248
000300 eb ab b8 bf 6e 82 92 42 77 05 1c c2 60 58 4a bd
       -1.4427465 73.254745 -39.005337 -0.049400687
000310 55 c4 1e 41 df 4d 33 c2 ae f0 ab 42 9c 01 2b 41
       9.922933 -44.826046 85.97008 10.687893
000320 d3 7a 45 40 e9 cc d3 42 e7 e6 5d c3 5e 6d 0c c3
       3.0856216 105.900215 -221.90196 -140.42722
000330 60 d8 75 bd 45 d6 fd c0 89 66 8e 42 9b 48 8d bf
       -0.060020804 -7.932406 71.200264 -1.1037782
000340 a3 6e 62 41 63 8e fd c0 2d bf 24 42 d4 e1 2c 43
       14.152011 -7.923631 41.186695 172.88214
000350 60 a6 be 42 6e de 9d 40 a3 b0 ef c2 93 07 a6 c2
       95.32495 4.933402 -119.84499 -83.01479
000360 1c a0 5c 3f b1 4f 2d c0 d2 be 0b 43 a6 aa ea c2
       0.8618181 -2.707989 139.74539 -117.3333
000370 48 cc f6 3f 2c bb 82 40 fa 51 2e bf ea 0f 78 43
       1.9281092 4.085348 -0.68093836 248.06216
000380 b6 83 dc 42 d1 55 a0 40 74 7f c4 3d d6 be 88 bf
       110.25725 5.0104756 0.09594622 -1.0683239
000390 56 5a 5f 43 3e 58 8d c3 8c 3e 74 3f 38 44 0b c3
       223.35287 -282.6894 0.9540794 -139.26648
0003a0 9b 75 04 3f d0 4f 4d c2 cf 63 5d 40 32 cc 2e 42
       0.5174195 -51.32794 3.4592168 43.69941
0003b0 44 6e c5 c2 d4 31 d2 3d 9f 1a fb c0 0e 7e 1a c1
       -98.71536 0.1026341 -7.8469996 -9.655775
0003c0 4f a8 0d c2 1a 42 d6 40 2b d6 df 41 de ad 44 40
       -35.414364 6.695569 27.979574 3.073112
0003d0 81 fe 5f 43 66 58 47 3f 84 2e 8f 3f 71 b2 47 c0
       223.99416 0.7786926 1.118607 -3.1202662
0003e0 bb a4 24 c3 04 71 ff c2 df d3 a9 42 51 a8 47 c0
       -164.64348 -127.72073 84.91381 -3.1196482
0003f0 f8 5b 19 c2 68 86 61 c2 94 bb da c0 81 3c 11 c3
       -38.339813 -56.381256 -6.8353977 -145.23634
