weights/cscareerquestions/lasso.pt (torch, 20261 bytes, 1 tensors)

weight f4 [1, 4878]
00000000: 4bb8 9f3d 3336 8d3e c62c 443e b5d0 203f
00000010: 98eb 3abd 0e5f c4be 9d68 6bc1 ebf1 f5be
00000020: e4c4 74be 9020 713d 7e0a 0dbd 9e90 10bf
00000030: caac 8cbe 32d3 123e b06d a0bd 282e 2cbe
00000040: be69 a1c0 5dcf 333e 64f7 d4be 24c2 0642
00000050: a0a6 72be f171 b93f e1cb 33bf a879 093f
00000060: f475 333d 9049 2cbf d805 9a3e 8299 86bf
00000070: 999b acbf 407d 8cbd fe22 1b3e f71d 81bf
00000080: 4157 883e ebe2 22be 1d0c 23be 18f3 f0bd
00000090: cc58 d93c 6abb 53be aeec d53d 883b 4e3e
000000a0: 5ff0 fe3e 7077 5a3e c755 4a3e 9173 7ebf
000000b0: c308 4641 0792 c2be 7371 023f 8a06 0c3f
000000c0: 0fe8 51bf e3cd 81bf 6d44 f73d ca8f dabe
000000d0: fe7e babf 0115 583e 52a3 ce3d a097 20bd
000000e0: a094 493b 1974 163f 289b c5bd 9564 41be
000000f0: d617 a440 e080 f1be ceda cfbe 9950 9fc0
00000100: f0df 0a43 f53e 34bf 20db a63e 4884 b63e
00000110: 85ee f53d acbe 0a3d 9148 82bd f4c8 1b3f
00000120: c96a 9841 3ba1 303e 1e80 87c2 9528 a7bf
00000130: 2074 a3be c743 8f3e 71e0 8a3d 9cb2 2dbe
00000140: add2 49bf fa23 ae3c 48ea b7be afe7 0b43
00000150: 3a7d b4bd 2d9b 7a3d d65b 7abf 6fab 173e
00000160: 8095 873a 28a4 7e3f 5f92 c03f 9613 783d
00000170: 41f3 f1bd 60b3 a142 d6fc 8b42 1ba8 15be
00000180: c675 283e 7ca8 a1bb b662 9bbe e262 1dbe
00000190: 2110 153e c8a3 ffbd a0b9 10bc d8a5 24be
000001a0: 4ffe ab3f 9c63 093f e855 adbe 3846 ccc1
000001b0: bd33 c641 72ae b13e b6d0 49bf bc54 903e
000001c0: c065 633d 66c9 5e3e 2660 aa3d b452 8e3e
000001d0: 0652 ce3d 5b53 743e 0382 80be 33b4 9f3e
000001e0: 7169 23be 61a0 b53d 1a99 823d 02ac 233e
000001f0: 2cef 4b3d 2e6d 243e 79b6 00be 14ba 3a3d
00000200: d832 563e fc46 c73c c21b 713e 9299 b73e
00000210: 6247 15be 8c19 5ebf a8ac 2f3e a0f1 ee41
00000220: 6bbe 523d 863e b3be 4629 e93e 08a4 23bd
00000230: e1dd e9bd 421b ab3d 524f 04be 5e1b 873e
00000240: 1350 4ebf 1031 5c3c 1ac6 c6bf 501c 8f3e
00000250: 7174 d53d c50c 893e 20be 70bc cd42 f73d
00000260: 6cb7 a83d d37e 21bf d0bd 57be a6bb 52be
00000270: cfdc ae42 1db9 78c0 6708 ae42 08f0 89bc
00000280: 0163 19be e998 5d3e 22fb 55bf 370b ba3d
00000290: b8d0 b73d fa2b 103e 1308 90bf 3586 4abf
000002a0: cae9 a5c1 b3a6 c03f 1a32 ab3d 232c 0f3e
000002b0: eda9 06be 0c8d 08be ad3f 06be 33db ee3e
000002c0: 844a a83d c791 b93d 1875 933c 5d2d af3f
000002d0: 724b 8e41 6213 44be 708c c73b 739a 04be
000002e0: dde6 0b43 6404 28be 7629 d1bd 2685 97be
000002f0: e6f9 c7be 8977 fbbe b27a 8042 0924 0e3e
00000300: d8d1 82bc 223e 0742 2721 e33e 71cc a33e
00000310: 9601 743f 8608 0bbf 7692 b742 aed7 cabe
00000320: 10fe 8fbf fe30 5b3f 7651 dcbf 48e5 38bf
00000330: 51de a33e 00da 8abc 751f 6442 c6c9 02be
00000340: 55af 693f 8c67 a23e 8798 20c1 d4d0 ea42
00000350: 0d75 3742 1878 353c 05bb 35bd 2fd7 363f
00000360: 93c7 16be 921e 053e 4abb 3643 d127 9bc1
00000370: 6c78 693e a879 7dbe 5ad6 003d 9b6a 3a42
00000380: 4b0d a942 6543 92be a714 3f3d a2fc 0abe
00000390: ec6e 0b43 f8d8 64bf 4ce5 77be faca dcc0
000003a0: 8a0a a93e ec7e 613e a436 b93d ee88 a8be
000003b0: b8d0 243d 0ea0 9fbd 984d f53e 71c3 f4bd
000003c0: 9fd4 bdbd 141f 8dbc 18e5 d93e 1af5 cebe
000003d0: ff90 dd42 2bbf dabd 505b 513f b87c cdbc
000003e0: 688e 7cbe 4bc1 ef3e bf5b 7741 2d09 6c3e
000003f0: ce6f 31be c44f 87bf 2b2e 1abe a02d d33e
0.07798823 0.27580413 0.19157705 0.6281846 -0.045634836 -0.3835377 -14.71304 -0.4803613
-0.23903233 0.058868945 -0.034433834 -0.5647067 -0.27475578 0.14338377 -0.07833421 -0.16814482
-5.044158 0.17559572 -0.41594994 33.68959 -0.23696375 1.4487897 -0.7023297 0.5370126
0.04381366 -0.6729975 0.30082583 -1.0515597 -1.3484985 -0.06859827 0.15150067 -1.008727
0.2662907 -0.15906875 -0.1592259 -0.117651165 0.0265316 -0.20676962 0.10445534 0.20139897
0.49792764 0.21334624 0.19759284 -0.9939509 12.377139 -0.38002035 0.5095436 0.5469748
-0.8199472 -1.0140957 0.12073598 -0.42687827 -1.4570005 0.21101762 0.10089745 -0.0392071
0.0030758753 0.587709 -0.09648734 -0.18886025 5.1279097 -0.47168636 -0.40596622 -4.9785886
138.87476 -0.70408565 0.32589054 0.35647798 0.120083846 0.033873245 -0.06361497 0.60853505
19.052141 0.17249005 -67.75023 -1.305926 -0.31924534 0.27981398 0.0678109 -0.16962665
-0.7883709 0.02125739 -0.3592093 139.90501 -0.088129476 0.061183143 -0.9779638 0.1481149
0.0010344237 0.9946923 1.5044669 0.060565554 -0.11813975 80.85034 69.99382 -0.14614908
0.16451177 -0.004933415 -0.30348748 -0.15369752 0.14556934 -0.12482411 -0.008833319 -0.1607889
1.3436984 0.53667617 -0.33854604 -25.534286 24.775263 0.34703404 -0.7883409 0.28189647
0.05551696 0.21756515 0.0831912 0.27797472 0.100742385 0.23859923 -0.2509919 0.3119217
-0.15958191 0.088684805 0.06376858 0.15983585 0.04978864 0.16057274 -0.12569608 0.045587614
0.20917833 0.02432584 0.23545745 0.35859352 -0.14578012 -0.8675773 0.17155707 29.867981
0.051451128 -0.3500864 0.45539302 -0.039951354 -0.11419273 0.083548084 -0.12920883 0.26388067
-0.80590934 0.013439432 -1.5529206 0.27951288 0.104226 0.26767555 -0.014693767 0.12073288
0.0823811 -0.63084143 -0.21068501 -0.20579395 87.43127 -3.8862984 87.01641 -0.016838089
-0.14979173 0.21640362 -0.83586323 0.0908417 0.08975357 0.14079276 -1.1252464 -0.79111034
-20.739155 1.5050873 0.083591655 0.1398168 -0.13150759 -0.13335055 -0.13110228 0.4665161
0.08217338 0.09061008 0.01800017 1.3685719 17.786839 -0.19148019 0.0060897395 -0.12949543
139.90181 -0.16407925 -0.10212986 -0.29593772 -0.39057845 -0.49114636 64.23964 0.13880934
-0.015969202 33.810677 0.4436123 0.31991914 0.9531492 -0.5430988 91.78606 -0.39617676
-1.1249409 0.8562163 -1.721236 -0.72224855 0.3200555 -0.016949654 57.03072 -0.12772283
0.9128316 0.31719625 -10.037238 117.40787 45.864307 0.011075996 -0.04436781 0.71422094
-0.14724569 0.12999943 182.7316 -19.394442 0.22799844 -0.2475344 0.03145442 46.604107
84.52596 -0.28567043 0.046650555 -0.13572934 139.43329 -0.8939357 -0.24208564 -6.8997774
0.33015853 0.22021073 0.09043625 -0.3291697 0.040238112 -0.077942 0.47910762 -0.1195134
-0.0926907 -0.017226733 0.42557597 -0.40421373 110.783195 -0.10680994 0.81779957 -0.025083885
-0.24663699 0.46827158 15.459899 0.23050375 -0.17327806 -1.0571218 -0.15056674 0.41245747
