weights/cscareerquestions/mean_squared_error.pt (torch, 21004 bytes, 1 tensors)

weight f4 [1, 4878]
-20.641005 18.118431 -47.289425 0.27525368 51.436256 -33.48541 -101.89453 16.158468
-79.836044 -79.818596 9.642374 -141.81148 -10.27774 28.688995 -30.504133 37.762466
-189.73984 -17.595522 -81.55881 133.4749 35.901756 41.34169 -9.746935 -100.60202
37.453323 -17.994404 26.920004 -129.91641 -130.81549 -172.74059 28.68634 58.576725
-51.19796 133.42668 133.42303 11.253297 -17.310133 32.50077 37.460846 133.40791
-78.26125 8.0804825 -96.2585 -160.88295 3.9249723 -148.47258 44.28044 -28.320831
-147.60747 -143.27803 -81.54987 -81.53802 -42.63578 -81.537735 29.37117 -53.062054
-17.411108 116.95254 -6.769795 -6.789124 28.530993 -81.21198 -153.49828 33.83309
146.58937 -150.06181 -11.012348 29.29948 -81.5453 123.38373 18.125639 -102.74082
71.86621 -141.9995 -76.28369 -12.250448 127.918564 18.133444 118.60282 122.528175
-161.17445 18.11157 -30.280733 151.34714 -17.383537 39.319424 1.3204086 -10.284175
158.95016 30.222008 14.845365 -17.418491 11.229381 89.897354 86.06071 -142.25447
46.372475 -63.386677 -36.942257 -39.091164 7.9533644 -69.71184 -50.4 -106.74536
-32.480354 99.03661 78.65794 -17.407734 41.618435 -90.465256 -130.76851 18.119392
51.65424 61.877983 39.317066 18.113695 91.63696 -51.217735 -81.58807 116.93951
-17.595707 19.863455 -17.392242 1.3414962 1.3281262 1.3208406 -17.371284 -76.2079
-48.192482 -124.89588 -126.78287 18.727207 -204.2202 -103.50405 -23.445862 83.79725
-159.21889 -125.8896 -31.90344 -106.36837 -17.392647 -17.38433 -17.386345 39.317776
-125.25114 -48.212578 -160.87332 86.00391 28.670898 -126.7717 -50.408134 -81.55812
-17.384754 -17.978 -133.10188 3.130502 190.6168 -92.60711 73.90709 -10.28051
-48.183956 -121.08461 -141.8056 -57.845356 -68.00658 -123.82937 -108.58706 -103.50153
-63.685574 14.843735 -58.123013 -58.128826 -21.182308 -84.56211 -24.862263 -96.69456
-57.84167 -57.844273 -72.6644 50.12859 21.572184 -50.538956 -35.394238 -17.386871
151.35658 -17.586523 -57.832912 -142.17091 -15.975321 -165.32285 110.25739 -64.74727
-54.77429 77.20601 -55.143696 41.346085 35.87465 -106.35118 114.153824 32.690353
-17.976543 97.209694 -196.08868 -176.4775 41.342316 -61.577446 100.28776 -24.87481
44.278122 -101.82662 51.319523 124.23315 130.31563 17.940022 -121.69879 -64.65266
-120.19081 72.91647 126.61003 -89.38771 -115.51541 65.22137 -50.415436 124.39722
111.18067 -29.137457 -58.242306 -24.86079 151.34708 -217.915 -9.187658 -108.06853
41.3164 -66.740005 41.94678 57.27254 -150.02563 37.457832 -23.03208 9.659245
-14.717945 -2.3818822 49.798523 -72.66836 151.47893 55.795914 22.214111 -66.527664
-167.0739 -128.89755 70.95237 -66.540764 -35.20595 -94.08914 -99.55025 -133.36331
00000000: c720 a5c1 8cf2 9041 5f28 3dc2 0dee 8c3e
00000010: babe 4d42 0ff1 05c2 00ca cbc2 8b44 8141
00000020: 0eac 9fc2 1fa3 9fc2 2a47 1a41 bdcf 0dc3
00000030: 9f71 24c1 1083 e541 7708 f4c1 c40c 1742
00000040: 66bd 3dc3 a1c3 8cc1 1c1e a3c2 9379 0543
00000050: 669b 0f42 e45d 2542 72f3 1bc1 3c34 c9c2
00000060: 34d0 1542 8af4 8fc1 2b5c d741 9aea 01c3
00000070: c4d0 02c3 97bd 2cc3 a07d e541 914e 6a42
00000080: b6ca 4cc2 3b6d 0543 4c6c 0543 810d 3441
00000090: 277b 8ac1 ca00 0242 e8d7 1542 6d68 0543
000000a0: c385 9cc2 a849 0141 5a84 c0c2 09e2 20c3
000000b0: bf32 7b40 fb78 14c3 2c1f 3142 1091 e2c1
000000c0: 839b 13c3 2d47 0fc3 8919 a3c2 7713 a3c2
000000d0: 0a8b 2ac2 5213 a3c2 28f8 ea41 8b3f 54c2
000000e0: f349 8bc1 b3e7 e942 29a2 d8c0 8140 d9c0
000000f0: 793f e441 896c a2c2 8f7f 19c3 1655 0742
00000100: e196 1243 d30f 16c3 9432 30c1 5665 ea41
00000110: 3217 a3c2 78c4 f642 4f01 9141 4d7b cdc2
00000120: 80bb 8f42 dfff 0dc3 4091 98c2 d601 44c1
00000130: 4ed6 ff42 4b11 9141 a534 ed42 6d0e f542
00000140: a92c 21c3 7fe4 9041 f13e f2c1 de58 1743
00000150: 7c11 8bc1 1747 1d42 2603 a93f fb8b 24c1
00000160: 3ef3 1e43 acc6 f141 9d86 6d41 1259 8bc1
00000170: 8bab 3341 72cb b342 151f ac42 2541 0ec3
00000180: 6a7d 3942 f58b 7dc2 dfc4 13c2 5a5d 1cc2
00000190: f681 fe40 766c 8bc2 9a99 49c2 a07d d5c2
000001a0: e2eb 01c2 bf12 c642 de50 9d42 0a43 8bc1
000001b0: 4779 2642 36ee b4c2 bdc4 02c3 84f4 9041
000001c0: f19d 4e42 0e83 7742 ad44 1d42 d9e8 9041
000001d0: 2046 b742 f6de 4cc2 182d a3c2 07e1 e942
000001e0: 02c4 8cc1 5be8 9e41 5023 8bc1 26b6 ab3f
000001f0: 0a00 aa3f 4e11 a93f 64f8 8ac1 726a 98c2
00000200: 1ac5 40c2 b1ca f9c2 d490 fdc2 52d1 9541
00000210: 5f38 4cc3 1302 cfc2 2091 bbc1 3198 a742
00000220: 0938 1fc3 7ac7 fbc2 3f3a ffc1 9bbc d4c2
00000230: 2424 8bc1 1c13 8bc1 3c17 8bc1 6745 1d42
00000240: 9580 fac2 aed9 40c2 92df 20c3 0002 ac42
00000250: 005e e541 1c8b fdc2 eea1 49c2 c21d a3c2
00000260: fa13 8bc1 f2d2 8fc1 151a 05c3 255a 4840
00000270: e79d 3e43 d736 b9c2 6ed0 9342 f87c 24c1
00000280: 5fbc 40c2 522b f2c2 3cce 0dc3 a561 67c2
00000290: 5e03 88c2 a3a8 f7c2 932c d9c2 c900 cfc2
000002a0: 07be 7ec2 f07f 6d41 f77d 68c2 eb83 68c2
000002b0: 5e75 a9c1 cd1f a9c2 eae5 c6c1 9d63 c1c2
000002c0: df5d 67c2 8960 67c2 2c54 91c2 ad83 4842
000002d0: d593 ac41 e427 4ac2 b393 0dc2 5018 8bc1
000002e0: 495b 1743 33b1 8cc1 e754 67c2 c12b 0ec3
000002f0: ea9a 7fc1 a652 25c3 c983 dc42 9a7e 81c2
00000300: df18 5bc2 7a69 9a42 2593 5cc2 6462 2542
00000310: a47f 0f42 ceb3 d4c2 c24e e442 ecc2 0242
00000320: f6cf 8fc1 5d6b c242 b416 44c3 3d7a 30c3
00000330: 885e 2542 4e4f 76c2 5593 c842 9cff c6c1
00000340: cc1c 3142 3ba7 cbc2 3147 4d42 5f77 f842
00000350: cd50 0243 2a85 8f41 c865 f3c2 294e 81c2
00000360: b261 f0c2 3cd5 9142 5638 fd42 82c6 b2c2
00000370: e407 e7c2 5771 8242 68a9 49c2 60cb f842
00000380: 815c de42 8319 e9c1 1ff8 68c2 e6e2 c6c1
00000390: da58 1743 3dea 59c3 a600 13c1 1623 d8c2
000003a0: fe43 2542 e27a 85c2 81c9 2742 1517 6542
000003b0: 9006 16c3 d2d4 1542 b341 b8c1 448c 1a41
000003c0: b47c 6bc1 c270 18c0 b031 4742 3356 91c2
000003d0: 9b7a 1743 042f 5f42 80b6 b141 2a0e 85c2
000003e0: eb12 27c3 c6e5 00c3 9de7 8d42 df14 85c2
000003f0: e5d2 0cc2 a42d bcc2 ba19 c7c2 025d 05c3
