weights/cscareerquestions/mean_squared_error.pt (torch, 21004 bytes, 1 tensors)

weight f4 [1, 4878]
0	0x40b9d2f2	5.807
1	0x422265ea	40.599525
2	0x3f919e15	1.1376368
3	0xc0b6589e	-5.6983175
4	0x425bdd0b	54.965862
5	0xc2229684	-40.646988
6	0xc30873db	-136.45256
7	0x40a1cbca	5.0561266
8	0xc2e35c79	-113.68061
9	0xc2cfa0da	-103.81416
10	0x421bd112	38.95417
11	0xc31d43d4	-157.26495
12	0x411dd999	9.865624
13	0x421bd538	38.95822
14	0x40511147	3.2666795
15	0x41b00eaf	22.00717
16	0xc33d7aca	-189.47964
17	0x4280ec22	64.4612
18	0xc27031ac	-60.048508
19	0x43219922	161.59818
20	0x42029245	32.64284
21	0x41ae1e29	21.764727
22	0x4200c5e3	32.19325
23	0xc2ff4695	-127.637856
24	0x41e0f584	28.11988
25	0x3fc05136	1.5024784
26	0x4143e68a	12.243784
27	0xc31f0ab5	-159.04182
28	0xc30f92a3	-143.5728
29	0xc3486756	-200.40366
30	0x421bdedc	38.967636
31	0x425c35c1	55.052494
32	0xc23ffc46	-47.99636
33	0x431daf7c	157.68549
34	0x431db16c	157.69305
35	0x4138076e	11.501814
36	0xc1bedfba	-23.859241
37	0x407fdd39	3.9978774
38	0x41e1021c	28.12603
39	0x431dad57	157.67711
40	0xc275cadd	-61.44811
41	0x410c9de0	8.788544
42	0xc2fc734f	-126.22521
43	0xc33e251e	-190.14499
44	0xbf5503c6	-0.8320888
45	0xc330cc8d	-176.79903
46	0x4257ee5c	53.982773
47	0xc247ec7d	-49.980946
48	0xc34a607c	-202.37689
49	0xc2fe2694	-127.07535
50	0xc2703d8c	-60.060104
51	0xc2702fb6	-60.046593
52	0xc202a917	-32.665127
53	0xc27033bc	-60.05052
54	0x41848306	16.563976
55	0xc213bfae	-36.937187
56	0xc1ce796e	-25.809292
57	0x430dc6fd	141.7773
58	0x4136e90e	11.431898
59	0x4136d6ea	11.427469
60	0x403c584c	2.9428892
61	0xc3048978	-132.53699
62	0xc324e4d4	-164.89386
63	0xc110d916	-9.0529995
64	0x4347cad4	199.7923
65	0xc3394b75	-185.29475
66	0xc1f40d0c	-30.50637
67	0x425b973f	54.8977
68	0xc27038ce	-60.055473
69	0x432b67f6	171.4061
70	0x42225e46	40.592064
71	0xc2e7b0a1	-115.84498
72	0x4286b73e	67.357895
73	0xc309308c	-137.18964
74	0xc330bd0b	-176.73845
75	0xc029ebbe	-2.6550136
76	0x43235d70	163.36499
77	0x42226ebc	40.60814
78	0x42ef9781	119.795906
79	0x4329c8d9	169.78456
80	0xc35cae21	-220.68019
81	0x42226d06	40.60647
82	0xc198700f	-19.054716
83	0x434ac12f	202.75462
84	0xc1a64aa1	-20.78644
85	0x4233a2fd	44.90917
86	0x41eb514b	29.414694
87	0x411d7b87	9.842658
88	0x4343be3b	195.74309
89	0x4222103e	40.51586
90	0x4225fd50	41.497375
91	0xc1ce8334	-25.814064
92	0x41380f70	11.503769
93	0x429d3e69	78.621895
94	0x42b127a1	88.5774
95	0xc327aa00	-167.66406
96	0x426c75b6	59.114952
97	0xbfde4226	-1.7363937
98	0x42228f77	40.640102
99	0xc28dd74e	-70.92052
100	0x4205c60a	33.443398
101	0xc2965501	-75.16602
102	0xc248ba61	-50.18201
103	0xc312b127	-146.692
104	0xc2701b2c	-60.026535
105	0x4303bae2	131.73001
106	0x428783f4	67.75772
107	0x418f5ad0	17.919342
108	0x427e5310	63.581116
109	0xc304a568	-132.64612
110	0xc325fa75	-165.97835
111	0x42226192	40.595284
112	0x41dd47dc	27.660088
113	0x42376a5e	45.853874
114	0x42339049	44.890903
115	0x422255ea	40.5839
116	0x42a1a260	80.81714
117	0xc2400e06	-48.013695
118	0xc31ea833	-158.65703
119	0x430dc616	141.77377
120	0x4280f84b	64.48495
121	0xc0d15ad7	-6.542339
122	0xc1a67d17	-20.811079
123	0x409ee708	4.965702
124	0x409ec264	4.9612293
125	0x409f4bbc	4.977995
126	0xc1a6719f	-20.80548
127	0xc29c2a42	-78.082535
128	0xc248eb70	-50.22992
129	0xc3233ee9	-163.24574
130	0xc31c35fe	-156.2109
131	0xc1b08d8e	-22.069118
132	0xc36779f8	-231.47644
133	0xc3094376	-137.26352
134	0xc16920ad	-14.5704775
135	0x431dffc5	157.9991
136	0xc36bca22	-235.78958
137	0xc30313b6	-131.077
138	0xc1db2143	-27.391241
139	0xc2e300e2	-113.501724
140	0xc1a673e3	-20.806585
141	0xc1a6707b	-20.804922
142	0xc1a66279	-20.798082
143	0x4233930f	44.893612
144	0xc3608a63	-224.54057
145	0xc26aef54	-58.73372
146	0xc32ba784	-171.65436
147	0x42700c60	60.012085
148	0x421bd7dc	38.9608
149	0xc31c3361	-156.2007
150	0xc248bc21	-50.18372
151	0xc27028ea	-60.039955
152	0xc1a6484f	-20.785307
153	0x3fbf8574	1.4962602
154	0xc30dbf5e	-141.74753
155	0x408ee318	4.4652214
156	0x4386000e	268.00043
157	0xc2c0833e	-96.25633
158	0x425c70a5	55.110004
159	0xc18ad79f	-17.355284
160	0x3e35bde3	0.17748217
161	0xc2f65cfb	-123.1816
162	0xc31d4a26	-157.28964
163	0xc26271f6	-56.61129
164	0xc2593032	-54.297066
165	0xc3045d08	-132.3634
166	0xc2faa069	-125.3133
167	0xc3093f2c	-137.24677
168	0xc2b6730a	-91.224686
169	0x4225f3c1	41.48804
170	0xc25130c2	-52.297615
171	0xc2513100	-52.29785
172	0x423546bd	45.31908
173	0xc2b4373b	-90.10787
174	0xc16eae73	-14.91759
175	0xc302aa28	-130.66467
176	0xc26280ea	-56.625893
177	0xc2627cba	-56.621803
178	0xc25f4158	-55.813812
179	0x402734fe	2.6126094
180	0x41dc6b4b	27.55239
181	0xc28579c6	-66.73784
182	0x3f05aa3d	0.5221289
183	0xc1a658d5	-20.793375
184	0x434ac2f0	202.76147
185	0x4280f4fe	64.4785
186	0xc262808a	-56.625526
187	0xc337b021	-183.688
188	0x41be696b	23.801474
189	0xc323a21b	-163.63322
190	0x42fe6e77	127.21575
191	0xc19f3c14	-19.904335
192	0xc25a037b	-54.5034
193	0x429bb480	77.85254
194	0xc2dcaa78	-110.33295
195	0x41adfcdd	21.748468
196	0x41ce1830	25.76181
197	0xc2e2fbc2	-113.491714
198	0x42dbb85e	109.86009
199	0x42836929	65.70539
200	0x3fbe32c4	1.4859242
201	0x42bd5791	94.67103
202	0xc359ddb2	-217.866
203	0xc33a5ff1	-186.37477
204	0x41adf46d	21.744349
205	0xc238e96c	-46.22795
206	0x42bb22cf	93.567986
207	0xc16e7c5b	-14.90536
208	0x4257fd46	53.997337
209	0xc2f0ebb6	-120.46037
210	0x425c0fbb	55.01536
211	0x4319265b	153.14983
212	0x4314af89	148.68568
213	0x4249a678	50.412567
214	0xc3075dad	-135.36592
215	0xc2bd8002	-94.750015
216	0xc2c17131	-96.72108
217	0xbec1963c	-0.37809932
218	0x42ed5076	118.65715
219	0xc3058209	-133.50795
220	0xc2dc2593	-110.07339
221	0x42658425	57.379047
222	0xc248b159	-50.17319
223	0x43466d18	198.42615
224	0x42d07bb5	104.241615
225	0xc13697de	-11.412077
226	0xc267f0f8	-57.98532
227	0xc16e8933	-14.908496
228	0x434abfba	202.74893
229	0xc3810b19	-258.0867
230	0x4204776e	33.11663
231	0xc2d61ebe	-107.06004
232	0x42644d7e	57.075676
233	0xc2aa9cac	-85.306
234	0x426f38ad	59.805347
235	0x4190bf07	18.093275
236	0xc33f1fc2	-191.12405
237	0x41e108dc	28.129326
238	0xc22e1d40	-43.528564
239	0xc1d215c9	-26.260637
240	0xc2513e78	-52.311005
241	0x41c5c57c	24.721428
242	0x423719c6	45.77517
243	0xc25f5094	-55.82869
244	0x4345c206	197.7579
245	0x4257634d	53.846973
246	0x4205ab4d	33.417286
247	0xc297f6ee	-75.982285
248	0xc35b67b1	-219.40504
249	0xc32732a0	-167.19775
250	0x42a4f136	82.471115
251	0xc297f48c	-75.97763
252	0xc1b2d95d	-22.356134
253	0xc2b39739	-89.79536
254	0xc299eecc	-76.9664
255	0xc2f76efc	-123.71677
