weights/cscareerquestions/ridge.pt (torch, 20901 bytes, 1 tensors)

weight f4 [1, 4878]
0.096279256 0.13598917 -1.259087 -0.30232635 0.76405776 0.6097013 -0.6918774 1.3716763
-0.8574481 -0.5174825 0.5279036 -0.15804523 -0.0050984025 -0.574626 -0.56712747 1.4654616
-0.8671177 -0.14319961 -0.43348852 2.0726264 1.1379728 1.5301063 0.91196007 -0.17489544
1.58405 0.5394746 0.27785784 -0.24945721 -0.012008674 0.23338418 -0.5756325 -0.7704672
-0.95596814 -0.46944648 -0.4694768 0.2897071 -1.253375 0.00047810376 1.5840437 -0.46970147
-0.42406797 -0.17434476 0.16355437 -0.6109964 3.276348 0.27138963 0.27654845 -0.16474763
-0.03148996 -2.5891957 -0.43351853 -0.43348572 0.266732 -0.43348372 -0.14695585 -0.29543418
-0.41057163 -0.20434366 -0.102311164 -0.10334362 0.6561218 0.047305956 0.33591256 3.6554103
10.817959 0.68639785 -0.44931147 0.22795464 -0.4334876 -0.51777303 0.1358798 -0.5501496
2.2885165 -0.2316405 -2.6101499 -0.07500931 -0.0044281334 0.13588206 -0.56543165 0.32369512
-0.04655888 0.13588275 0.36357284 7.9426413 -0.06330642 -0.08098763 -1.0431751 -0.0059699416
-0.3580827 1.4088795 0.16678515 -0.40992722 0.29624814 2.8051546 2.4581473 -0.2335665
-0.49450043 -0.027423695 -0.060387768 -0.2779881 0.36219463 -1.1470206 0.40789285 -0.37536472
0.5250808 -0.5325097 -0.75666475 -1.7162018 3.0864968 0.10128754 1.0225635 0.13598819
-0.67783666 -0.066108815 -0.08093847 0.13588262 0.08053484 -0.95448804 -0.60543126 -0.20449616
-0.1429087 -0.26332423 -0.063265696 -0.2684654 -0.26760203 -0.26765347 -0.06324001 0.5245014
-1.2697868 -0.2146971 -0.31621605 1.9383248 -0.5482383 -0.025080219 -0.75310427 3.866398
-0.35082203 -0.3518358 0.44183466 -0.3601948 -0.06326577 -0.0632547 -0.06324528 -0.079677194
-0.6053847 -0.52461475 -0.44977748 0.01610519 -0.5756484 -0.316177 0.40175062 -0.4334844
-0.063236 0.53910005 0.508071 -0.32144928 8.678243 -0.60595083 4.173545 0.3575737
-0.27814007 -0.7379748 -0.15804535 -0.14137943 -0.546019 -0.2644347 0.34228092 -0.025065616
0.55197686 0.16678628 0.14244509 0.14243692 -0.94050664 0.6829216 -0.43116975 0.09525499
-0.14188099 -0.13820139 -0.44584918 1.3970591 2.9550452 -0.39950645 0.3620186 -0.06330106
7.942608 -0.1356844 -0.13767728 0.37606746 0.64635104 0.35689238 2.705883 0.23970234
-1.1803282 1.9959316 -0.04609304 1.5301039 1.2547343 -0.3602108 2.3299918 0.20437533
0.53946966 1.5664444 -1.5238124 0.43453923 1.5295162 0.051123757 1.9396998 -0.43116435
0.27383342 -0.30099925 8.805961 5.6307297 16.285725 -0.11483803 -0.76285434 1.1851492
0.2552207 -0.23563007 7.9568453 -0.8610722 0.30058917 0.17742078 0.40787983 8.421155
2.5982296 -1.068515 -0.43178287 -0.43116468 7.9426093 0.10060426 0.040764198 -1.0934608
-0.15011191 0.11236714 -0.8599077 -0.5016756 -0.54149854 1.5840316 -1.0972487 -0.19331244
-0.12433964 -0.98744357 1.2285228 -0.44584927 2.162664 -0.33380234 0.35425738 -0.12318523
-0.5801988 0.053739585 1.7483075 -0.12317568 -0.16226065 0.4605893 -0.12048566 -1.0890718
00000000: 0f2e c53d bf40 0b3e c329 a1bf 85ca 9abe
00000010: 4a99 433f 6215 1c3f e11e 31bf 1793 af3f
00000020: b881 5bbf bc79 04bf b124 073f 9cd6 21be
00000030: 8010 a7bb b11a 13bf 442f 11bf 3f94 bb3f
00000040: 6dfb 5dbf eba2 12be 35f2 ddbe e9a5 0440
00000050: 18a9 913f 86da c33f 3776 693f ca17 33be
00000060: 27c2 ca3f 021b 0a3f 6243 8e3e b671 7fbe
00000070: 08c0 44bc 43fc 6e3e a75c 13bf 573d 45bf
00000080: 54ba 74bf 4a5b f0be 435f f0be 7d54 943e
00000090: 986e a0bf 00aa fa39 f2c1 ca3f b67c f0be
000000a0: 701f d9be 6f87 32be cc7a 273e 436a 1cbf
000000b0: b0af 5140 95f3 8a3e c297 8d3e 9ab3 28be
000000c0: 9efb 00bd 62b5 25c0 24f6 ddbe d7f1 ddbe
000000d0: 1991 883e 94f1 ddbe 987b 16be 2643 97be
000000e0: 7236 d2be 773f 51be 8488 d1bd d2a5 d3bd
000000f0: 99f7 273f e4c3 413d bbfc ab3e 3ef2 6940
00000100: 5c16 2d41 c5b7 2f3f 270c e6be f16c 693e
00000110: 16f2 ddbe c68c 04bf 1324 0b3e 9bd6 0cbf
00000120: 0e77 1240 2b33 6dbe b20c 27c0 7b9e 99bd
00000130: e019 91bb ab24 0b3e 21c0 10bf 5ebb a53e
00000140: 86b4 3ebd d924 0b3e 3826 ba3e 1e2a fe40
00000150: cca6 81bd d8dc a5bd c386 85bf 809f c3bb
00000160: 9e56 b7be 2a56 b43f bac9 2a3e fbe1 d1be
00000170: d6ad 973e a787 3340 4952 1d40 0e2c 6fbe
00000180: 292f fdbe a8a7 e0bc 2a59 77bd 7554 8ebe
00000190: 9371 b93e 92d1 92bf 55d7 d03e ce2f c0be
000001a0: b26b 063f 8e52 08bf c8b4 41bf 80ac dbbf
000001b0: 2a89 4540 d76f cf3d 5ce3 823f 7d40 0b3e
000001c0: b486 2dbf 0f64 87bd 12c3 a5bd d024 0b3e
000001d0: 73ef a43d 5459 74bf 8bfd 1abf 7167 51be
000001e0: a956 12be 6fd2 86be 7291 81bd 4c74 89be
000001f0: 2203 89be e009 89be fa83 81bd b945 063f
00000200: 6088 a2bf 8ed9 5bbe 12e7 a1be 071b f83f
00000210: 5859 0cbf 0875 cdbc 71cb 40bf 1173 7740
00000220: f29e b3be d223 b4be 2738 e23e 746b b8be
00000230: 7c91 81bd ae8b 81bd be86 81bd cc2d a3bd
00000240: 7efa 1abf 274d 06bf 3c49 e6be 08ef 833c
00000250: b25d 13bf f4e1 a1be 42b2 cd3e abf1 ddbe
00000260: e081 81bd 7602 0a3f f110 023f 0095 a4be
00000270: 15da 0a41 981f 1bbf ae8d 8540 e613 b73e
00000280: 6068 8ebe ebeb 3cbf a4d6 21be c5c5 10be
00000290: e7c7 0bbf fc63 87be 723f af3e 6856 cdbc
000002a0: 5b4e 0d3f 06ca 2a3e 20dd 113e fcda 113e
000002b0: 0bc5 70bf f3d3 2e3f 48c2 dcbe 0c15 c33d
000002c0: 4049 11be aa84 0dbe 5846 e4be d5d2 b23f
000002d0: 761f 3d40 1c8c ccbe 805a b93e fca3 81bd
000002e0: d829 fe40 daf0 0abe 46fb 0cbe ea8b c03e
000002f0: 4377 253f 99ba b63e 302d 2d40 8874 753e
00000300: ff14 97bf b07a ff3f 0ecc 3cbd 72da c33f
00000310: 229b a03f 8d6d b8be 961e 1540 c447 513e
00000320: af1a 0a3f 4081 c83f 490c c3bf ed7b de3e
00000330: 30c7 c33f 2567 513d 1548 f83f 93c1 dcbe
00000340: e533 8c3e 931c 9abe 37e5 0c41 f02e b440
00000350: 2a49 8241 3330 ebbd 6c4a 43bf f8b2 973f
00000360: 4aac 823e 0249 71be 7a9e fe40 3a6f 5cbf
00000370: d3e6 993e cbad 353e a0d5 d03e 0dbd 0641
00000380: 6549 2640 19c5 88bf a512 ddbe 9ec1 dcbe
00000390: db29 fe40 9b09 ce3d 5cf8 263d 86f6 8bbf
000003a0: f0b6 19be be20 e63d e922 5cbf d06d 00bf
000003b0: a69f 0abf 8cc1 ca3f a572 8cbf b2f3 45be
000003c0: c8a5 febd 1ac9 7cbf 3c40 9d3f 5b46 e4be
000003d0: 1669 0a40 24e8 aabe 3961 b53e 8a48 fcbd
000003e0: e987 14bf 0a1e 5c3d 8ac8 df3f 8843 fcbd
000003f0: a827 26be 5cd2 eb3e 30c1 f6bd b466 8bbf
