weights/cscareerquestions/ridge.pt (torch, 20901 bytes, 1 tensors)

weight f4 [1, 4878]
00000000: f4fe 66c1 07b5 3cc0 6908 c941 5ddf 4ac1
00000010: 1da0 4041 907f 7dc1 906f 34c2 e215 b641
00000020: efbd db40 9463 d4bf 56c9 0c41 98fa c5c1
00000030: 4b4f 17c1 6444 4041 614e 2bc1 e03c 1242
00000040: aec5 21c2 0535 b5c0 593f 06c0 3c5c 8342
00000050: 0a09 c741 286f 2b42 de51 1341 2fd1 7fc2
00000060: 4b5f 8c41 a4b2 1041 a2e0 8740 579d 08c2
00000070: a3e1 0cc2 88cd 34c0 6444 4041 8d90 1c40
00000080: fe30 2dc1 019a 2140 066d 2140 b438 edbe
00000090: 3b8e 93c2 ddb5 a8c0 4c5f 8c41 026d 2140
000000a0: 8d58 91c1 ea96 10bf bc24 bcbe 916e 1dc1
000000b0: b290 3d42 a0ec 81c1 5f10 d541 3338 68c1
000000c0: ac32 ecc1 9b82 26c2 573f 06c0 4a41 06c0
000000d0: a9f6 97c0 4a41 06c0 921d 563f 9c2f 8ac0
000000e0: 39e8 46bf 3a6c 5441 a072 44c0 a072 44c0
000000f0: 9a25 7641 ec91 92c1 4d28 4d40 e1e4 2bc2
00000100: 668f 7043 4776 dec0 23c2 b440 e1d2 1d40
00000110: 4a41 06c0 b47c fa40 03f8 3cc0 00fc 81c1
00000120: c478 6342 e338 aec1 3678 bbc2 01b3 cec1
00000130: c778 0442 12f8 3cc0 b994 3b40 2609 3841
00000140: fe0e 67c1 05b5 3cc0 1a5e 00c1 4004 4643
00000150: 57c8 33c0 ebfe 9040 1ef5 a6c1 4b4f 17c1
00000160: 546c 7341 c344 d841 4ff8 de41 d7e7 46bf
00000170: b038 edbe 6121 ef42 8e12 9d42 9ad1 c4c1
00000180: 076e fe40 dfef 4a41 c0a1 6ec1 a8cf 7fc1
00000190: 1e2d 1ec1 7e51 e83e b7d3 fbc0 8ced 14c1
000001a0: 63a9 cf3f ef07 6241 8048 8441 d05c 6ac2
000001b0: b447 2a42 4f51 5bc1 0632 e0c0 08b5 3cc0
000001c0: 3393 1fc1 0aa5 68c0 e6fe 9040 15b5 3cc0
000001d0: 65ee 25c1 2531 2dc1 ce0c 2ac2 3a6c 5441
000001e0: 1235 b5c0 0cea bd40 54c8 33c0 82a6 a13f
000001f0: 6ba6 a13f 86a6 a13f 63c8 33c0 157e 89c1
00000200: d88e 6abc c8b5 09c1 81ad 8ac1 68c6 1a40
00000210: 661d aec1 7d64 88c1 1b50 73c0 90b5 88bf
00000220: 4260 13c2 5628 45c0 ab15 4bc1 9af1 64c1
00000230: f3ac 33c0 f2ac 33c0 f2ac 33c0 e6fe 9040
00000240: fd4d 23c2 3c0c 4941 597a 05c2 d4af 7dc0
00000250: c34c 4041 7fad 8ac1 b6d3 fbc0 573f 06c0
00000260: 10ad 33c0 a7b2 1041 17ac 18c1 dcb5 c840
00000270: 3c66 0943 ad8a 10c2 e66c ee42 00c7 6dc1
00000280: 0a66 a840 4515 c340 ddfa c5c1 f202 19c1
00000290: 1a2d e9c1 57de 38c0 a02f 62c1 da64 88c1
000002a0: 91b8 e8c1 a4f0 de41 cc24 bec0 b9e8 bdc0
000002b0: 40f5 3f40 07eb a540 0002 a3c0 fbbc 8ec1
000002c0: f202 19c1 ec03 19c1 ea2a 6640 6d2a 4742
000002d0: 9750 c141 640f b9c0 93e8 683f 56c8 33c0
000002e0: 846b 4643 bc55 b5c0 f002 19c1 b31a 4dc2
000002f0: 9a57 a041 2af6 7cc1 b9e2 9242 87dd 9f40
00000300: 523b 28c1 209f 6342 3489 a1c0 ef6f 2b42
00000310: 93d6 e341 9df1 64c1 9e89 1443 8ddd 0ac1
00000320: a4b2 1041 3676 1d42 bd45 46c2 32d9 c9c1
00000330: 286f 2b42 4cb9 27bf 873b fb42 fe01 a3c0
00000340: 7a10 d541 7f6d 03c1 7d4f 9bc2 ac9b 0343
00000350: 2344 7542 60da ac3f abe8 9440 8a60 4fc1
00000360: 12c2 6a3e f9da cfc0 3710 3843 3c04 88c2
00000370: 9186 2bc0 7ab4 2240 b8d3 fbc0 3a0f 9442
00000380: 58c2 2343 5f88 e6c0 2afb 2640 0602 a3c0
00000390: 4d04 4643 4236 4fc2 1088 a43f 6758 d7c1
000003a0: 863d 2cc0 614c 87c1 fd78 dc3f 74d8 8d40
000003b0: 8c3d ccc0 4b5f 8c41 0aaf 66c1 b3e0 f4c0
000003c0: 3077 3542 fb64 f6c0 7d95 5641 f42a 6640
000003d0: ffc6 0243 c826 2c3f 5dd6 9741 e52f bfc0
000003e0: 3445 b9c1 1bb3 ecc1 d5ed 6c42 5331 bfc0
000003f0: 58df f3c1 5239 aac1 4402 51c1 d8ba 9ec1
-14.437244 -2.948549 25.129107 -12.679532 12.03909 -15.843643 -45.108948 22.760685
6.8669353 -1.6592889 8.799154 -24.74736 -9.456859 12.016697 -10.706635 36.55945
-40.443047 -5.662722 -2.0976164 65.680145 24.879414 42.85855 9.207487 -63.95428
17.54653 9.043613 4.246171 -34.153652 -35.22035 -2.8250446 12.016697 2.4463227
-10.824461 2.5250247 2.5222793 -0.46332324 -73.777794 -5.2722 17.546532 2.5222783
-18.168238 -0.56480277 -0.36746776 -9.839494 47.391304 -16.24054 26.632994 -14.5137205
-29.524742 -41.627544 -2.097616 -2.097735 -4.74886 -2.097735 0.8363887 -4.3183117
-0.77698094 13.2764225 -3.0694962 -3.0694962 15.38418 -18.32125 3.2055848 -42.973515
240.56015 -6.951938 5.6486983 2.465996 -2.097735 7.8277225 -2.9526374 -16.248047
56.867935 -21.777777 -93.73479 -25.837404 33.117947 -2.952641 2.9309523 11.5022335
-14.44116 -2.9485486 -8.022974 198.0166 -2.8091028 4.531118 -20.869686 -9.456859
15.213947 27.033575 27.871244 -0.7769751 -0.46332312 119.56519 78.53624 -24.602345
7.950931 12.683562 -14.91449 -15.988197 -9.886015 0.45374674 -7.869594 -9.307995
1.6223568 14.126937 16.5354 -58.590637 42.570023 -13.707351 -7.0061064 -2.9485493
-9.973437 -3.6350732 4.5311155 -2.9485524 -10.370702 -10.824498 -42.512505 13.2764225
-5.6627283 5.93482 -2.809102 1.2628939 1.2628912 1.2628944 -2.8091056 -17.186563
-0.014316283 -8.60688 -17.334719 2.4183598 -21.764355 -17.049067 -3.8017642 -1.0680408
-36.844 -3.080587 -12.69279 -14.308985 -2.807431 -2.8074307 -2.8074307 4.5311155
-40.82616 12.565487 -33.36948 -3.9638567 12.018741 -17.334715 -7.8695936 -2.097616
-2.807438 9.043616 -9.542014 6.2721996 137.39935 -36.135426 119.21269 -14.861084
5.262456 6.0963464 -24.747492 -9.563219 -29.147022 -2.8885705 -14.136627 -17.049244
-29.09012 27.8675 -5.941992 -5.9346585 2.9993439 5.18494 -5.093994 -17.842276
-9.563219 -9.5634575 3.5963693 49.79143 24.16435 -5.7831287 0.9097988 -2.8091025
198.41998 -5.6667156 -9.563217 -51.276073 20.042774 -15.810099 73.44282 4.995792
-10.5144825 56.905396 -5.0479984 42.85931 28.479773 -14.308988 148.53757 -8.67909
9.043613 39.36544 -49.568104 -25.231052 42.85855 -0.65517116 125.616264 -5.093993
26.633045 -8.214232 -77.65525 131.6081 61.31654 1.3504143 4.653402 -12.961069
0.22925594 -6.49548 184.06334 -68.00827 -2.6800883 2.5422654 -7.8695946 74.02974
163.75916 -7.204147 2.6090798 -5.093997 198.0168 -51.802986 1.2854023 -26.918165
-2.691255 -16.912294 1.7224423 4.4326725 -6.382513 17.54653 -14.417734 -7.652429
45.366394 -7.6998267 13.411496 3.5963717 130.77733 0.67246675 18.97967 -5.9745965
-23.15879 -29.587454 59.232258 -5.974771 -30.484055 -21.277988 -13.063053 -19.841232
