weights/cscareerquestions/ridge.pt (torch, 20901 bytes, 1 tensors)

weight f4 [1, 4878]
0	0xc00c98b9	-2.1968215
1	0x4002508f	2.036167
2	0x41f903fd	31.126947
3	0xc15c2cde	-13.760954
4	0x41f14e3e	30.163204
5	0xc093f9c3	-4.6242385
6	0xc256eb86	-53.730003
7	0xc19f4453	-19.908361
8	0x412f2e9c	10.948879
9	0x3f134efe	0.5754241
10	0x4073d648	3.8099537
11	0xc1c3dc0c	-24.482445
12	0xc1138ad6	-9.2213955
13	0x410a8694	8.657856
14	0xc11c95b2	-9.786547
15	0x41ec6881	29.551027
16	0xc21b7432	-38.863472
17	0x4017794f	2.366779
18	0xc0916df4	-4.544672
19	0x42931842	73.54738
20	0x418e9c5b	17.826345
21	0x420fab49	35.91727
22	0x4140ec24	12.0576515
23	0xc1f87aa2	-31.05988
24	0x41330abd	11.190122
25	0xc031e9ca	-2.7798944
26	0x414b6c6e	12.713972
27	0xc288c087	-68.37603
28	0xc1cfacd4	-25.959389
29	0xc1066cea	-8.40159
30	0x410a8694	8.657856
31	0x41685674	14.521107
32	0xc0add93d	-5.4327683
33	0x3fa66de4	1.3002286
34	0x3fa66dde	1.3002279
35	0x403c8448	2.9455738
36	0xc252f4bf	-52.73901
37	0x40504e89	3.2547934
38	0x413307bb	11.189387
39	0x3fa66de6	1.3002288
40	0xc0e3b75c	-7.1161327
41	0xc10010c0	-8.004089
42	0xc0c77684	-6.2332172
43	0xc15b1a9a	-13.6939945
44	0x4249aa98	50.416595
45	0xc144c777	-12.298697
46	0x419dc04d	19.718897
47	0xc1808b0b	-16.067892
48	0xc1fe48e7	-31.785597
49	0xc2081754	-34.02278
50	0xc0916dfb	-4.5446754
51	0xc0916dfb	-4.5446754
52	0xc093c68f	-4.617988
53	0xc0916dfb	-4.5446754
54	0x40b2a9b5	5.583216
55	0xc07a14e2	-3.9075246
56	0xbf7d9978	-0.990623
57	0x416f95a4	14.974033
58	0x3f92ed39	1.1478645
59	0x3f92e781	1.1476899
60	0x41d3c2f2	26.470188
61	0xc146b8f7	-12.420157
62	0x40ad65cd	5.418677
63	0xc28167c0	-64.70264
64	0x433fea72	191.9158
65	0xc15bbbc6	-13.733343
66	0x410a0f1a	8.628687
67	0x4148fc30	12.561569
68	0xc0916dfb	-4.5446754
69	0x410254b6	8.145681
70	0x40025092	2.0361676
71	0xc0a9f945	-5.3116784
72	0x42877da0	67.74536
73	0xc194de7a	-18.608631
74	0xc2a5308a	-82.5948
75	0x40427a91	3.0387309
76	0x41bc62b5	23.548197
77	0x4002358e	2.0345187
78	0x4053dede	3.3104777
79	0x4197903c	18.945427
80	0xc1e995e8	-29.198196
81	0x40023581	2.0345156
82	0xc100bf5c	-8.046719
83	0x433658f2	182.34744
84	0xc0b61c43	-5.69095
85	0xbf2e48ed	-0.68080026
86	0xc17f9c8f	-15.975722
87	0xc1138b01	-9.2214365
88	0x41ac27d5	21.51945
89	0x41abd326	21.4781
90	0x41b306bb	22.378286
91	0xbf7d2d3f	-0.98897165
92	0x403c8448	2.9455738
93	0x429b6821	77.70338
94	0x42a56d84	82.7139
95	0xc19e0ada	-19.755299
96	0x410c92cd	8.78584
97	0x41a2193a	20.262318
98	0xc16942ea	-14.578836
99	0xc1309f63	-11.038913
100	0xc109f95c	-8.623379
101	0xc130658c	-11.024792
102	0xc066e6e7	-3.6078432
103	0xbfa90bec	-1.3206763
104	0xc04eb253	-3.229634
105	0x416b5463	14.708102
106	0x40e64332	7.1957026
107	0xc2178f5e	-37.890007
108	0x4240e0ad	48.21941
109	0xc0e66edd	-7.201033
110	0xc18e1eff	-17.765135
111	0x4002370a	2.0346093
112	0xc0c68bad	-6.2045503
113	0xc08a061c	-4.313246
114	0xbf2e48d2	-0.68079865
115	0x40025092	2.0361676
116	0xc037a749	-2.8695853
117	0xc0add7d4	-5.432596
118	0xc21873f9	-38.113255
119	0x416f95a4	14.974033
120	0x40177a89	2.366854
121	0xbfe54678	-1.791213
122	0xc0b61a14	-5.6906834
123	0x40096c83	2.147248
124	0x40096e12	2.1473432
125	0x40096e0f	2.1473424
126	0xc0b61c43	-5.69095
127	0xc188c8e8	-17.098099
128	0xc08e4f18	-4.447155
129	0xc04056a9	-3.0052893
130	0xc1c75294	-24.915321
131	0x40f3f4e2	7.623643
132	0xc1f50fbb	-30.63268
133	0xc13e9272	-11.910753
134	0x3ed11df8	0.40843177
135	0x420ca9a2	35.165657
136	0xc205366d	-33.30315
137	0xc10e1566	-8.880224
138	0xc12ac7d0	-10.673782
139	0xc0d2700c	-6.5761776
140	0xc0b61c43	-5.69095
141	0xc0b61a12	-5.6906824
142	0xc0b61c43	-5.69095
143	0xbf2e48e7	-0.6807999
144	0xc211c882	-36.44581
145	0xc075e426	-3.84205
146	0xc1fdec01	-31.740236
147	0x3f3ddbfc	0.74163795
148	0x410a8694	8.657856
149	0xc1c752a7	-24.915358
150	0xc066e75a	-3.6078706
151	0xc0916df4	-4.544672
152	0xc0b61a11	-5.690682
153	0xc031fc8f	-2.78104
154	0xc11d6bc7	-9.838813
155	0x40e90494	7.281809
156	0x432003e2	160.01517
157	0xc1fdbbfb	-31.716787
158	0x42e25ea3	113.18484
159	0xc129dbd5	-10.61617
160	0x40624f2d	3.5360825
161	0x402bfafe	2.6871943
162	0xc1c3dc20	-24.482483
163	0xc024b344	-2.5734415
164	0xc1bd0228	-23.626053
165	0xc0845e16	-4.136485
166	0xc187f1af	-16.99301
167	0xc13e9279	-11.91076
168	0xc20a9b53	-34.651684
169	0x41b306be	22.378292
170	0xc0a7b422	-5.240739
171	0xc0a7b662	-5.2410135
172	0x41a16285	20.173105
173	0xc0d08aa7	-6.5169253
174	0xbfb4cb7f	-1.4124602
175	0xc18e9ab2	-17.825535
176	0xc024b344	-2.5734415
177	0xc024b34a	-2.573443
178	0x4111be61	9.108979
179	0x4258d42d	54.207203
180	0x41acf474	21.619362
181	0xc0de905d	-6.9551225
182	0x40270230	2.6095085
183	0xc0b61a13	-5.690683
184	0x4336594d	182.34883
185	0x40177a8b	2.3668544
186	0xc024b344	-2.5734415
187	0xc218d637	-38.209194
188	0x418fe7de	17.988216
189	0xc19828a5	-19.019846
190	0x429be29a	77.94258
191	0x3efb2927	0.49054834
192	0xc08516c0	-4.159027
193	0x426ec8c5	59.696064
194	0xc0c34f5d	-6.103438
195	0x420fab4a	35.917274
196	0x41ca8da0	25.319153
197	0xc0d2700c	-6.5761776
198	0x42d2ba83	105.36428
199	0xc1301eb8	-11.0075
200	0xc031fc91	-2.7810404
201	0x42815925	64.67411
202	0xc253f6a0	-52.990845
203	0xc19aea99	-19.36455
204	0x420fac29	35.918125
205	0xbfba8e5a	-1.4574692
206	0x42a7c269	83.87971
207	0xbfb4cb78	-1.4124594
208	0x419dc04d	19.718897
209	0xc0b00b7a	-5.501401
210	0xc2583276	-54.04928
211	0x4301a346	129.63779
212	0x4272a3e9	60.66007
213	0x3fe11916	1.7585781
214	0xbfbe7ae8	-1.4881258
215	0xc13acdd9	-11.675256
216	0x3fae3126	1.3608749
217	0xc1069512	-8.411394
218	0x43357321	181.44972
219	0xc26e305c	-59.547226
220	0xc009abc5	-2.151109
221	0x40126078	2.287138
222	0xc066e75a	-3.6078706
223	0x42cc8e9c	102.278534
224	0x42a53f73	82.623924
225	0xc0df5a89	-6.9798017
226	0xc084b164	-4.146654
227	0xbfb4cb7c	-1.4124599
228	0x433658e0	182.34717
229	0xc27f6b19	-63.854588
230	0xc01c712b	-2.4444072
231	0xc1f7ec90	-30.990509
232	0x3e73fbd4	0.23826534
233	0xc17aa225	-15.664586
234	0xc01f75a6	-2.4915557
235	0x411fbb6b	9.983256
236	0xc0340069	-2.812525
237	0x413307bc	11.189388
238	0xc11b753b	-9.716121
239	0xc005d8e4	-2.091363
240	0x413d4790	11.829971
241	0x411016f3	9.005603
242	0x4129b72c	10.60722
243	0x4111c1c5	9.109807
244	0x42fc69e4	126.20682
245	0x4011b403	2.276612
246	0x41856bcc	16.677635
247	0xc02450ca	-2.567431
248	0xc1c12b38	-24.146103
249	0xc203aa95	-32.916584
250	0x4275fb6d	61.495533
251	0xc0244d2a	-2.5672097
252	0xc0db75dc	-6.858137
253	0xc1c49930	-24.574799
254	0xc151cfd1	-13.113236
255	0xc18f1ae0	-17.888123
