weights/chess/lasso.pt (torch, 18469 bytes, 1 tensors)

weight f4 [1, 4424]
0	0xc19cac25	-19.584055
1	0x3e21aacf	0.15787815
2	0x3ea0df43	0.31420335
3	0xbe69d9c1	-0.22836973
4	0x3df489cf	0.119403474
5	0xbe30b89d	-0.17257924
6	0xbde667d8	-0.112502754
7	0x3e194289	0.14966787
8	0xbf0654b8	-0.5247302
9	0xc0343d45	-2.8162396
10	0x3d07cf82	0.03315688
11	0x3dee6be0	0.11641669
12	0xbc08a5c0	-0.008340299
13	0x3f5ab18d	0.8542717
14	0xbdae3bf2	-0.085075274
15	0x4205433f	33.31567
16	0x42876fa8	67.71808
17	0xc2ddf478	-110.97748
18	0xbf720032	-0.9453155
19	0xbdf20b57	-0.11818569
20	0xbdc0710c	-0.09396562
21	0x3d43be91	0.04778916
22	0x3e0986ba	0.134303
23	0xbf90cc14	-1.131228
24	0xbf6bc7c8	-0.92101717
25	0xbf7e909a	-0.99439394
26	0xbe5ed4d7	-0.2176088
27	0xbe01f288	-0.12690175
28	0xc2f30fc3	-121.530785
29	0xc350f119	-208.94179
30	0x3f1c1bd0	0.6097994
31	0xbdc49ae4	-0.095998555
32	0x3ec0cb12	0.3765493
33	0xbec4a4bb	-0.3840693
34	0x3ca6a2e8	0.020341352
35	0x3e14c0ba	0.14526644
36	0xc08e4aa4	-4.4466114
37	0x4020d047	2.5127122
38	0xbe6d12bc	-0.23151678
39	0xc03cdd78	-2.9510174
40	0x3f2c4483	0.6729204
41	0x3e03d34c	0.12873572
42	0x3e824d71	0.25449708
43	0xbf87a09e	-1.0595891
44	0x3e6962d9	0.22791614
45	0xc3377dd9	-183.4916
46	0xbdb785a4	-0.08961037
47	0xc0604e88	-3.5047932
48	0xbd0ea224	-0.034822598
49	0x3f47d272	0.7805549
50	0x3f35717a	0.70876276
51	0xbfa77793	-1.3083366
52	0xc28bfb05	-69.99027
53	0xbdb9c258	-0.09070271
54	0x3e2a16a8	0.16610205
55	0x3ea104aa	0.3144887
56	0xbd93ab07	-0.07210355
57	0x3dcb0f47	0.09915023
58	0xbf5f3575	-0.87190944
59	0xbdee9791	-0.11650003
60	0xbe15d8ae	-0.14633438
61	0xbf7cd2d4	-0.987592
62	0x3e809204	0.251114
63	0x3e78fe36	0.24315724
64	0xbf870fc9	-1.0551692
65	0xc2809149	-64.28376
66	0xbe706c4f	-0.23478816
67	0xbc7cd598	-0.015431784
68	0xc1840511	-16.502474
69	0xbf0967bd	-0.5367392
70	0xbec6206a	-0.38696605
71	0xbbe6eff8	-0.0070476495
72	0x3fe5250c	1.7901931
73	0x430516f2	133.08963
74	0xc0fe4050	-7.9453506
75	0x426faa1e	59.91613
76	0xbe20e5f4	-0.1571272
77	0x43016988	129.41223
78	0xbfc5a00a	-1.5439465
79	0xbe0cb81b	-0.13742106
80	0xbf6a4988	-0.9151845
81	0x3fabbf81	1.3417817
82	0x3d5e6355	0.05429395
83	0x3dcc38e3	0.09971788
84	0x3d1e5588	0.038655788
85	0x3d85a1cc	0.06525001
86	0x405f3835	3.4878056
87	0x43689b2e	232.60617
88	0x3eb039cc	0.34419096
89	0xbddad5f4	-0.106853396
90	0x3e22d554	0.1590169
91	0x41332772	11.19713
92	0xbf9efa76	-1.2420185
93	0x422fa342	43.90943
94	0x42aed9a7	87.4251
95	0x3cf9d7c0	0.030498385
96	0x3f06b2a9	0.52616364
97	0x3f1f5851	0.62244135
98	0x3eaf7091	0.3426557
99	0xc14e4b3e	-12.89337
100	0xbf472e7e	-0.77805316
101	0xc0219758	-2.5248623
102	0x3e4aaa52	0.19791535
103	0xbfb196c1	-1.3874131
104	0x3e5fe5ba	0.21864977
105	0xbd319d8c	-0.04336314
106	0x3f20c513	0.6280071
107	0x3f02922d	0.51004297
108	0x3e45aad9	0.19303454
109	0x3e9f6410	0.3113103
110	0x3e1c5b22	0.1526914
111	0x43739d25	243.61385
112	0xbe847a28	-0.25874448
113	0xbdf2c10f	-0.11853229
114	0x3fdebaf9	1.740081
115	0xbfa391b5	-1.2778841
116	0xbd5855b9	-0.052816126
117	0x3c23d540	0.009999573
118	0x3e4e79ce	0.20163652
119	0xbe3fb10c	-0.18719882
120	0xbee7ec4d	-0.4529747
121	0xbfaec36e	-1.365339
122	0xc1b1b846	-22.214977
123	0x3df06d2d	0.11739574
124	0xbfff46ea	-1.9943516
125	0xc22195b3	-40.39619
126	0xbed9161a	-0.42399675
127	0x3d26a2b4	0.04068251
128	0xc27ab9ea	-62.681557
129	0xbff981c8	-1.9492731
130	0xbebb123f	-0.36537358
131	0xc094d375	-4.6508126
132	0xc09b8955	-4.860514
133	0xbf28292c	-0.65687823
134	0x42c7b878	99.86029
135	0x4317ca0c	151.78925
136	0x3f136a98	0.57584524
137	0xbff895d3	-1.9420723
138	0xc002b595	-2.042333
139	0x43531392	211.07645
140	0x433d644f	189.39183
141	0x3d0033a4	0.03129925
142	0xbcfc6534	-0.030809976
143	0xbfaedf6c	-1.3661933
144	0x433da26f	189.6345
145	0x3fc8aa06	1.5676887
146	0xbf0dd251	-0.5539904
147	0xc04b724c	-3.1788511
148	0xbb2cf6f0	-0.0026392303
149	0x3e1caa33	0.15299301
150	0xbd2a8cd6	-0.041638218
151	0xc005eed7	-2.0927026
152	0xbe53ba45	-0.20676525
153	0x3d188fe0	0.037246585
154	0xc04c743a	-3.194594
155	0xc0174d4d	-2.364093
156	0x3d9ee87e	0.07759188
157	0x3d8b3a2c	0.06798205
158	0xbeb99326	-0.36245078
159	0x3d8808c7	0.06642299
160	0xbeb85a99	-0.3600662
161	0xbd346d1a	-0.04404936
162	0x3d1ba44e	0.03799849
163	0x42e3d6c0	113.91943
164	0x3db83288	0.08994013
165	0xbe280455	-0.16407903
166	0xc1bf9db4	-23.952003
167	0x3d857325	0.06516103
168	0x3e1aa6ea	0.15102735
169	0x3e8b18de	0.2716741
170	0x3d74fe0c	0.05981259
171	0xbe67b92f	-0.22629236
172	0x3d3f894c	0.046761796
173	0x3e3f369a	0.18673173
174	0xbe7257f2	-0.23666361
175	0xbd52e818	-0.051490873
176	0xbf89ebab	-1.0775045
177	0xbc650700	-0.01397872
178	0xbd2c32c4	-0.0420406
179	0xbbf8d6f8	-0.0075939856
180	0xbd33725c	-0.043810233
181	0x3e612538	0.21986854
182	0x3de43d60	0.11144519
183	0x3dcecc3d	0.10097549
184	0x3db2cefe	0.08730887
185	0xbed25aed	-0.41084996
186	0xbdba2cd6	-0.09090583
187	0x3e8decd6	0.27719754
188	0xbd31caa8	-0.04340616
189	0x3fc92e82	1.5717318
190	0xbd77f5bc	-0.060537085
191	0xbf038c0e	-0.5138558
192	0x3e25c200	0.16187286
193	0x43556f6d	213.43526
194	0xbea4dd02	-0.32199866
195	0xbf4644e6	-0.7744888
196	0x3efa5def	0.4889979
197	0x3d1dcb75	0.03852411
198	0xbefe865d	-0.49711886
199	0xbe08e14e	-0.13367197
200	0xbf6ff8cd	-0.93739015
201	0xbd76ff1a	-0.060301878
202	0xbe0e0912	-0.13870648
203	0x3e0af111	0.13568522
204	0xbfa4a03d	-1.2861401
205	0x431e32c2	158.19827
206	0xc23aa48c	-46.66069
207	0x3ed973e0	0.42471218
208	0x3d084d3a	0.033276774
209	0x3ea392b4	0.31947863
210	0x3ed61f52	0.4182077
211	0x3e52e004	0.20593268
212	0xbe62c4f4	-0.22145444
213	0x3d90ff92	0.07079996
214	0xbe869476	-0.26285142
215	0xbef9e61e	-0.48808378
216	0x3e850ec0	0.25987816
217	0xbf30a9bc	-0.69008994
218	0xbdfdf5fe	-0.12400435
219	0xbd87ac92	-0.06624712
220	0x3e611c9b	0.21983568
221	0x3cfa434e	0.030549672
222	0xbefb4569	-0.49076393
223	0x3fc35147	1.5259179
224	0x3e4530a6	0.19256839
225	0xbed359a4	-0.41279328
226	0x436cca98	236.79138
227	0xc0434b36	-3.0514655
228	0xbfc372e2	-1.5269434
229	0x3e9ea0e6	0.3098213
230	0x3d754960	0.05988443
231	0xc1d46ac7	-26.552137
232	0x3e70db60	0.23521185
233	0xc302daf9	-130.85536
234	0x3f82e42e	1.0225885
235	0x3f2a465c	0.6651361
236	0xbf204f98	-0.6262145
237	0x3e0e6a2c	0.13907689
238	0x3edf922b	0.43666205
239	0x3f36637a	0.7124554
240	0xbe2b381c	-0.16720623
241	0xbe1ec70a	-0.15505615
242	0x3e4262fc	0.18983072
243	0x3e04772e	0.12936088
244	0x40c99390	6.299263
245	0xbcd9e070	-0.026596278
246	0x3dc2c50a	0.095102385
247	0x42d6d8f5	107.423744
248	0x3e10e16b	0.1414849
249	0x3e04b2a2	0.12958768
250	0x3e999ea6	0.30003852
251	0xc02a4e06	-2.6610122
252	0xbe9c7ed8	-0.30565524
253	0x3fc9dcd4	1.5770516
254	0xbf22a4a9	-0.635325
255	0xc05206f7	-3.281675
