weights/chess/lasso.pt (torch, 19109 bytes, 1 tensors)

weight f4 [1, 4424]
00000000: b686 dfc1 cabd c93e 74ce ff3e 4b18 7fbe
00000010: 20eb 663b f718 9f3d f21f 0ebe 1cad 9a3d
00000020: ca64 b93d a810 2dc0 7bed 233d e73d 9dbd
00000030: cc0a 72bd 496a e63f bb36 e9be 6b54 2042
00000040: 27c4 bb42 131c cfc2 1e30 99bf 8bf8 01bd
00000050: e2a2 b1bf 227a 89be fa79 13bf 0961 b23e
00000060: 8650 89bf 60ea 88bf 505e 5ebe 10f3 683d
00000070: 2680 dac2 5f3f 46c3 49ef 13be b79e 1dbd
00000080: 1897 f83d 9650 b4be 3dce 933e 2cfd 573f
00000090: fcf7 6cbf 7ac5 3a3f ecc8 723e 375e 49bf
000000a0: 9cae 68bf 5d7a 183e 88c1 05bc b293 633f
000000b0: 4fd2 7b3c 0b52 43c3 b14d e53e 5c43 b2bf
000000c0: 7239 27bf 80e6 653e 5585 73be 65d1 c63e
000000d0: 2886 6dc2 795e e53e 877d 493e 7c66 bdbd
000000e0: 265a 933d aa5b e3be 3565 9fbf 2948 33be
000000f0: 0143 313d 6f2c 49bf b0b6 673d 77de 20c0
00000100: 320e 99bd d46b 3ec2 f07a 683d d44f 893d
00000110: abc6 94c0 7ccd c3be c836 c23c 0431 c4bd
00000120: 628b 9f3f e533 0743 fdfa e2c0 88ed 7942
00000130: d00f 063f ef40 f442 fb89 98be 1546 5240
00000140: c3bf 30bf 2609 1940 34c1 d93d d1ab 19be
00000150: f02c 9aba 8bef 58be 42f3 0d40 0025 1443
00000160: 7a33 c8bf 39f9 b0be f618 1f3f 482a 8b41
00000170: b479 a5c1 89cb 3142 d8aa c642 f037 b7bd
00000180: 1a6f 29c0 da5b cabf 4eab 6e3e 3aca 65c0
00000190: 265a dcbe ce82 e2bf ad15 c0bd d6d8 b5bf
000001a0: 1829 9dbc fdc9 e8bd a83a 67be cc1b 773e
000001b0: 76a3 1c3f c470 03bf aeff b6bd 60c9 7243
000001c0: 3fb0 19bf e679 0d3e 98f2 003e a0fe 3f3c
000001d0: 0929 ffbd 4bf5 833c d4cd 443e 0097 9839
000001e0: 0b58 03bf a4ef dcbf cea4 63c2 435e 96bf
000001f0: 3c73 14c0 7492 22c2 98b6 703d ff91 0b3f
00000200: 313b 5dc2 ff88 08c0 de67 bebe a3c3 9ac0
00000210: 01c3 46c0 69b5 24be 7d12 a742 01ce d642
00000220: cd83 68be e816 fcbe 2f50 f8bf 9172 4e43
00000230: 2e87 3b43 42da 2f3d 2030 96bf 3870 7ac0
00000240: 5446 4143 2fb9 04bf edc4 5dbe 70d4 42c0
00000250: acab edbc 9e4b 02c0 8cf4 b5be 12af 7bbf
00000260: 1828 aa3e 6efc aabe 30a9 afbf 4815 36c0
00000270: ea74 653e eef1 2abe 3039 84bb 009b 8e3e
00000280: a3c9 aabe 4229 d43d 6060 6bbb 62db e342
00000290: 065a 693d 7438 c83e 738d d8c1 c66b acbe
000002a0: 6ae6 19bf 6afa a43e 1435 c4bd 6a23 2abe
000002b0: a039 94be 58d2 92be 5710 dd3e b433 d6bd
000002c0: e393 17c0 1014 18bc f7df 42bd 39f3 81bd
000002d0: ee4b 95be 0f39 e1be 0a05 0b3f dd31 b5be
000002e0: 5c05 93be cd51 dd3e c0f4 46bb 9b45 7c3e
000002f0: 1878 98bb d7c1 1540 e648 b03d 7ae8 f03d
00000300: bf35 24be 5dcf 5443 a5a9 df3e 57af 5ebe
00000310: a2d1 5d40 3620 bdbe b269 b3bc 947a fbbd
00000320: 6d29 c0bf f64f f7bf 6a32 90bc c329 e1be
00000330: 1683 fa3d 10ee 2743 aff0 36c2 b9dc 80be
00000340: fe4a c93e 49b8 bdbf f8e1 cdbc 94c0 cf3e
00000350: d6c5 be3e 545d af3d 25f0 03be f172 63bf
00000360: 19be 5d3f 92b1 cebd 04fa 10be e836 173d
00000370: b44a a0bc 2001 42be 82f2 123f 5909 e6be
00000380: 4b25 a93e 9aca 123f fa9c 6c43 4495 2bc0
00000390: 6803 5bbf 75f1 79be 47ff c33e f00e e3c1
000003a0: 8fd5 9abc 2c87 19c3 ea80 aabf 16d3 94be
000003b0: c4f5 88bf 405b 973e f3e1 7bbf 7cb6 2f40
000003c0: 748d 923d 9fe1 213f 66cf 983e aec6 963e
000003d0: e5c3 b540 9eeb a33e 2719 7ebe 4bdb cb42
000003e0: b0c7 a7bf 8011 9b3a 4007 5bbd 642c d7bf
000003f0: 3095 4ebf 4ddf 2840 38f9 f13c 36d3 d5bf
-27.940777 0.3940261 0.499622 -0.24911611 0.003523536 0.077684335 -0.13879374 0.07552549
0.09052427 -2.7041416 0.0400214 -0.076778226 -0.059092328 1.8001186 -0.4554957 40.08244
93.88311 -103.55483 -1.1967809 -0.03173117 -1.3877833 -0.26850992 -0.57607996 0.34839657
-1.0727699 -1.0696526 -0.21715665 0.056872427 -109.25029 -198.24754 -0.14446749 -0.03848144
0.12138194 -0.35217732 0.28868285 0.84370685 -0.92565894 0.72957575 0.23709458 -0.78659385
-0.9089143 0.14890428 -0.008163817 0.8889724 0.015369966 -195.32048 0.44785836 -1.3926806
-0.6532203 0.2245121 -0.23781331 0.3883163 -59.381012 0.4479864 0.19676791 -0.09248063
0.07194929 -0.44405872 -1.2452761 -0.17507996 0.04327679 -0.78583425 0.05657071 -2.5135782
-0.07473411 -47.6053 0.056757867 0.06704679 -4.6492515 -0.3824271 0.023707762 -0.095796615
1.2464411 135.20271 -7.093138 62.481964 0.5236788 122.12682 -0.2979277 3.2855275
-0.69042605 2.3911834 0.10632554 -0.15006949 -0.001176266 -0.21185128 2.2179723 148.14453
-1.5640709 -0.34565142 0.6214746 17.395645 -20.684425 44.448765 99.33368 -0.08946216
-2.647406 -1.5809281 0.23307535 -3.590468 -0.43037528 -1.7696168 -0.09379134 -1.4206798
-0.019184634 -0.11366651 -0.2258097 0.24131697 0.6118692 -0.5134394 -0.08935486 242.78662
-0.60034555 0.13816032 0.12592542 0.011718422 -0.12458999 0.016108176 0.19219142 0.00029104203
-0.5130622 -1.7260633 -56.910942 -1.1747516 -2.3195333 -40.64302 0.058767885 0.5451965
-55.307804 -2.1333616 -0.3718862 -4.8363814 -3.105652 -0.16084827 83.53611 107.40235
-0.22706528 -0.49236226 -1.939947 206.44753 187.52805 0.042932756 -1.1733437 -3.9130993
193.27472 -0.5184507 -0.21657152 -3.0442162 -0.029012524 -2.0358653 -0.35538137 -0.9831401
0.33233714 -0.33395714 -1.3723507 -2.845049 0.2240788 -0.16693851 -0.0040351376 0.2785263
-0.33356962 0.10359432 -0.0035915598 113.92848 0.05697062 0.3910557 -27.069067 -0.33675975
-0.6011721 0.322223 -0.09580436 -0.16615072 -0.28950214 -0.28676105 0.4317653 -0.1045908
-2.3684013 -0.009282127 -0.04757687 -0.06345219 -0.29159492 -0.43988845 0.54304564 -0.35389605
-0.28715026 0.43226472 -0.0030358285 0.24635927 -0.004652988 2.339956 0.08607654 0.117630914
-0.16036128 212.81001 0.43684116 -0.21746574 3.46592 -0.36938637 -0.021900985 -0.12279239
-1.5012642 -1.9321277 -0.017602164 -0.43977174 0.12232034 167.92993 -45.735043 -0.25168398
0.39315027 -1.4821864 -0.025132164 0.40576613 0.37260312 0.08562723 -0.12884577 -0.8884726
0.8661819 -0.100924626 -0.14157873 0.036917597 -0.019566871 -0.18945742 0.5740129 -0.44929007
0.33036265 0.57340395 236.61319 -2.6809855 -0.8555207 -0.24408515 0.382807 -28.382294
-0.01890066 -153.52802 -1.3320591 -0.29067296 -1.0700002 0.29561806 -0.98391646 2.745513
0.07155886 0.63234895 0.29845732 0.29448456 5.680163 0.320157 -0.24814282 101.92831
-1.3107815 0.0011830777 -0.05347371 -1.6810422 -0.8069639 2.6386292 0.029537782 -1.6705081
