weights/chess/mean_squared_error.pt (torch, 19148 bytes, 1 tensors)

weight f4 [1, 4424]
-494.1295 97.80898 174.53975 94.566284 393.3852 28.983654 -17.434172 18.31503
-486.90723 -12.809379 11.45008 -141.45076 -192.42427 95.98775 14.181936 -89.83978
106.99119 -284.6212 90.78483 348.80966 -214.90897 11.727669 -141.44276 26.651892
343.36102 -199.45909 -17.345428 -115.26902 -520.85144 -1026.5822 -511.1461 -51.075283
-342.58435 65.05196 -20.275036 -3.8407004 -388.8488 -93.183815 79.51258 -676.30457
-176.1059 -54.896015 -66.44043 -109.93438 -143.56837 -668.5669 69.90671 -1185.2129
85.66411 208.06207 128.30643 -187.25926 -849.4299 69.90808 626.7444 -29.530466
94.64918 -68.132065 -220.98796 100.45819 207.91441 -221.00798 11.466262 -313.59424
-529.3395 -203.94638 -141.37682 -342.58987 -568.7315 406.3834 -235.16049 -12.799742
-4.8295693 160.01253 257.4878 70.11147 -277.90643 101.28936 -576.3125 476.4074
-207.74928 140.21399 348.79645 42.497482 767.43066 -55.05499 230.7617 912.74945
-360.4044 -4.180761 28.974361 24.469833 -533.9684 13.210069 -23.557747 11.466895
-439.29718 -439.29797 -75.98044 -205.28754 -132.18364 -266.43146 -4.1923575 -46.370743
188.2019 0.07837048 -301.39084 166.67717 -4.1853995 11.732384 -4.1890616 1651.8676
-818.6426 -76.66434 95.997665 -203.50864 14.170874 26.137497 3.7114599 -203.51083
-485.55557 -403.705 -402.44992 -151.65085 -414.97208 -455.48257 -342.57257 -4.180181
-982.96063 -199.45894 -619.3846 -606.1263 -207.04512 242.11285 -1.9099543 111.05826
-301.40317 -309.72906 -117.17266 948.23346 328.48477 11.470077 -479.03494 -456.6972
403.70837 72.27804 -172.1632 -226.99454 -60.89974 -806.31067 -485.54904 -394.55115
-34.085697 41.934605 -110.91019 -171.48329 -305.68118 41.93175 41.931553 41.910725
41.92908 41.921986 41.921574 113.26711 153.86092 -142.93153 -859.0117 41.917942
-68.13249 0.2185319 -12.793409 41.924152 -12.797956 -12.80818 -12.806403 -12.812895
-55.213352 -105.59748 -200.76912 -12.822538 -12.818754 50.30962 -4.188329 59.168858
-12.807707 -12.813605 -3.5785606 -318.4342 -142.93657 625.54944 -29.733852 -188.2527
-313.5673 544.1483 282.83853 368.99353 107.488014 190.62366 -138.68797 -290.4151
-1005.6429 -448.6934 -203.52707 50.310917 -203.50769 -125.192116 201.05855 -211.65215
-142.94377 -195.46303 -507.64334 -629.5819 -377.2109 429.56143 -19.416931 -831.92804
-719.6861 -253.4386 26.146713 -36.807827 -255.6511 13.772559 189.58228 208.0599
-96.56344 189.59607 1581.522 -676.33057 -670.8307 97.882805 26.126846 -162.88457
-192.42833 -534.2363 383.0652 -516.15265 -199.48326 -112.23721 499.39795 298.97067
-112.23642 13.775306 -112.22809 -112.22928 163.10849 387.46408 94.54999 25.40658
-288.71686 -112.233185 321.55975 -699.51514 -10.374091 625.543 -231.2969 -1185.2317
00000000: 9310 f7c3 339e c342 2d8a 2e43 f021 bd42
00000010: 4eb1 c443 86de e741 2f79 8bc1 2e85 9241
00000020: 2074 f3c3 37f3 4cc1 8733 3741 6573 0dc3
00000030: 9d6c 40c3 baf9 bf42 36e9 6241 f8ad b3c2
00000040: 7dfb d542 834f 8ec3 d591 b542 a367 ae43
00000050: b2e8 56c3 88a4 3b41 5971 0dc3 1337 d541
00000060: 36ae ab43 8775 47c3 70c3 8ac1 bd89 e6c2
00000070: 7e36 02c4 a152 80c4 b392 ffc3 174d 4cc2
00000080: cc4a abc3 9b1a 8242 4633 a2c1 09ce 75c0
00000090: a56c c2c3 1d5e bac2 7106 9f42 7e13 29c4
000000a0: 1c1b 30c3 8595 5bc2 80e1 84c2 67de dbc2
000000b0: 8191 0fc3 4824 27c4 3cd0 8b42 d026 94c4
000000c0: 0654 ab42 e40f 5043 724e 0043 5f42 3bc3
000000d0: 835b 54c4 f0d0 8b42 a4af 1c44 653e ecc1
000000e0: 614c bd42 9e43 88c2 ebfc 5cc3 98ea c842
000000f0: 17ea 4f43 0b02 5dc3 cf75 3741 10cc 9cc3
00000100: ba55 04c4 46f2 4bc3 7760 0dc3 814b abc3
00000110: d12e 0ec4 1331 cb43 1629 6bc3 becb 4cc1
00000120: d58b 9ac0 3503 2043 70be 8043 1339 8c42
00000130: 06f4 8ac3 2794 ca42 0014 10c4 2634 ee43
00000140: d1bf 4fc3 c836 0c43 f265 ae43 6cfd 2942
00000150: 90db 3f44 4f38 5cc2 ffc2 6643 f72f 6444
00000160: c333 b4c3 cbc8 85c0 7ecb e741 38c2 c341
00000170: fa7d 05c4 715c 5341 4476 bcc1 6778 3741
00000180: 0aa6 dbc3 24a6 dbc3 fcf5 97c2 9c49 4dc3
00000190: 032f 04c3 3a37 85c3 cb27 86c0 a47b 39c2
000001a0: b033 3c43 b480 a03d 07b2 96c3 5bad 2643
000001b0: cbee 85c0 d8b7 3b41 cb0c 86c0 c37b ce44
000001c0: 20a9 4cc4 2454 99c2 cefe bf42 3682 4bc3
000001d0: e6bb 6241 9819 d141 8f88 6d40 c682 4bc3
000001e0: 1dc7 f2c3 3dda c9c3 9739 c9c3 9ea6 17c3
000001f0: 6d7c cfc3 c5bd e3c3 4a49 abc3 0bc4 85c0
00000200: 7bbd 75c4 7d75 47c3 9dd8 1ac4 1588 17c4
00000210: 8d0b 4fc3 e41c 7243 6279 f4bf d41d de42
00000220: 9bb3 96c3 52dd 9ac3 6758 eac2 f10e 6d44
00000230: 0d3e a443 6f85 3741 7984 efc3 3e59 e4c3
00000240: acda c943 5b8e 9042 c729 2cc3 9afe 62c3
00000250: 5599 73c2 e293 49c4 47c6 f2c3 8c46 c5c3
00000260: c157 08c2 09bd 2742 04d2 ddc2 b97b 2bc3
00000270: 31d7 98c3 1dba 2742 e9b9 2742 95a4 2742
00000280: 61b7 2742 1db0 2742 b1af 2742 c388 e242
00000290: 65dc 1943 79ee 0ec3 c0c0 56c4 f9ab 2742
000002a0: d643 88c2 d4c6 5f3e ceb1 4cc1 55b2 2742
000002b0: 6ec4 4cc1 4eee 4cc1 07e7 4cc1 9e01 4dc1
000002c0: 79da 5cc2 e931 d3c2 e5c4 48c3 1e29 4dc1
000002d0: 9e19 4dc1 0d3d 4942 cb06 86c0 e9ac 6c42
000002e0: 5eec 4cc1 8704 4dc1 2307 65c0 9437 9fc3
000002f0: c3ef 0ec3 2a63 1c44 eede edc1 b140 3cc3
00000300: 9dc8 9cc3 7e09 0844 556b 8d43 2c7f b843
00000310: ddf9 d642 a89f 3e43 1fb0 0ac3 2235 91c3
00000320: 2569 7bc4 c158 e0c3 ee86 4bc3 613e 4942
00000330: f881 4bc3 5d62 fac2 fd0e 4943 f3a6 53c3
00000340: 9bf1 0ec3 8976 43c3 59d2 fdc3 3e65 1dc4
00000350: ff9a bcc3 ddc7 d643 e055 9bc1 65fb 4fc4
00000360: e9eb 33c4 4870 7dc3 782c d141 373b 13c2
00000370: aea6 7fc3 675c 5c41 1095 3d43 560f 5043
00000380: 7b20 c1c2 9898 3d43 b4b0 c544 2815 29c4
00000390: 2ab5 27c4 ffc3 c342 c803 d141 73e2 22c3
000003a0: a76d 40c3 208f 05c4 5888 bf43 c509 01c4
000003b0: b77b 47c3 7479 e0c2 f0b2 f943 3f7c 9543
000003c0: 0c79 e0c2 a767 5c41 c874 e0c2 6475 e0c2
000003d0: c61b 2343 67bb c143 9819 bd42 ad40 cb41
000003e0: c25b 90c3 6477 e0c2 a6c7 a043 f8e0 2ec4
000003f0: 47fc 25c1 c162 1c44 024c 67c3 6a27 94c4
