weights/chess/mean_squared_error.pt (torch, 19148 bytes, 1 tensors)

weight f4 [1, 4424]
0	0x41fe3449	31.77553
1	0x41b3ea11	22.48929
2	0x42954d6b	74.65121
3	0x4239538b	46.331585
4	0x4292df12	73.435684
5	0xc0fbbc5f	-7.8667445
6	0xc1924c4d	-18.287256
7	0xc19015e2	-18.010685
8	0xc3134a4c	-147.29022
9	0xc1ad2368	-21.642288
10	0x4247a1b4	49.907913
11	0xc18cb763	-17.589544
12	0xc1aad678	-21.354721
13	0x42c49210	98.28528
14	0x41af6a8c	21.927025
15	0x42ff4421	127.633064
16	0x4321296a	161.16177
17	0xc3a60380	-332.02734
18	0xc332feb8	-178.995
19	0x4219dc72	38.46528
20	0xc300498b	-128.28728
21	0xc1e1ecbf	-28.240599
22	0xc18c9cbd	-17.576532
23	0xc31dfe06	-157.99228
24	0x417066fd	15.025144
25	0xc30b94ff	-139.58202
26	0xc1e8fb5f	-29.12274
27	0xc2140fb2	-37.015327
28	0xc354ce9e	-212.8071
29	0xc3bffa6c	-383.95642
30	0xc302becb	-130.74529
31	0xc32f66dc	-175.4018
32	0xc1d86800	-27.050781
33	0xc2235904	-40.83693
34	0xc16da0ce	-14.851759
35	0xc17f061d	-15.9389925
36	0xc359e45e	-217.89206
37	0xc2a5b24e	-82.84825
38	0xc2d4c9c3	-106.394066
39	0xc3740a90	-244.04126
40	0xc3434964	-195.28668
41	0x4122cef7	10.175529
42	0xc2c29563	-97.29177
43	0xc25d984b	-55.398724
44	0xc2136c32	-36.85566
45	0xc3e119a5	-450.20035
46	0x4333de36	179.86801
47	0xc38f889a	-287.0672
48	0x425b0a95	54.760334
49	0x430b518a	139.31851
50	0x4233d6cf	44.959774
51	0xc2544401	-53.06641
52	0xc39776aa	-302.92706
53	0x4333e02c	179.87567
54	0x42999c1c	76.8049
55	0xc1d53207	-26.649427
56	0xc2eb4296	-117.63005
57	0xc19dba9f	-19.716124
58	0xc28047c2	-64.14015
59	0xc1505822	-13.021517
60	0xc233f8fd	-44.993153
61	0xc2804fef	-64.15612
62	0x4247b5be	49.927483
63	0xc2e5e14f	-114.940056
64	0xc3786fa6	-248.43613
65	0xc2be3ef3	-95.12295
66	0xc1813ede	-16.155697
67	0xc1d85898	-27.043259
68	0xc39efe18	-317.9851
69	0x4331a417	177.64098
70	0xc2299d3e	-42.403557
71	0xc1ad0cde	-21.631283
72	0x415bc41d	13.735379
73	0x4300deb0	128.86987
74	0xc306cf29	-134.80922
75	0x42c1a9d4	96.831696
76	0xc2ad3da7	-86.620415
77	0x43178f51	151.55983
78	0xc31d6c2e	-157.42258
79	0x432662f0	166.38647
80	0xc2dad021	-109.4065
81	0x42800410	64.007935
82	0x4219e25e	38.47106
83	0xc2271adb	-41.776226
84	0x4223cbcf	40.94903
85	0x4299d9c7	76.92535
86	0x4205edad	33.482105
87	0x43716006	241.37509
88	0xc316e8ca	-150.90933
89	0xc279d8fc	-62.4619
90	0xc0fbb2d7	-7.865581
91	0x42ce941b	103.28927
92	0xc369cddd	-233.80415
93	0x42ac29a7	86.08135
94	0x42ffe541	127.94776
95	0x4247a6b2	49.91279
96	0xc3383c87	-184.23643
97	0xc3383be4	-184.23395
98	0x428eaab2	71.33339
99	0xc282831a	-65.25606
100	0xc280c3c2	-64.38234
101	0xc322f522	-162.95755
102	0xc279d0ba	-62.453835
103	0xc2119b36	-36.401573
104	0xc1750240	-15.313049
105	0x3da86b14	0.082235485
106	0xc302031a	-130.01212
107	0x421ada5d	38.713245
108	0xc279cf0c	-62.452194
109	0xc1e216b3	-28.261084
110	0xc279d5e8	-62.458893
111	0x43782a00	248.16406
112	0xc31fae06	-159.67978
113	0xbf3ee9a3	-0.7457525
114	0x42c48fdc	98.280975
115	0xc2f80029	-124.00031
116	0x41af674d	21.92544
117	0xc21fb227	-39.923977
118	0xc19ad971	-19.356173
119	0xc2f7fa6b	-123.9891
120	0x42455351	49.331364
121	0xc30501a9	-133.00648
122	0xc1fb5f69	-31.421587
123	0x42b3e53e	89.94774
124	0xc3aebccf	-349.47507
125	0xc3938ba0	-295.09082
126	0xc1d836a0	-27.026672
127	0xc279d82c	-62.461105
128	0xc3755511	-245.33229
129	0xc30b9a97	-139.60387
130	0xc2a0becc	-80.37265
131	0xc2ee5735	-119.17033
132	0xc29ea237	-79.316826
133	0x42ff92db	127.78683
134	0x432c82cd	172.51094
135	0x432f560f	175.33617
136	0xc30204f6	-130.01938
137	0xc34563ec	-197.39032
138	0xc259008d	-54.250538
139	0x435732d2	215.19852
140	0x434e824f	206.50902
141	0x4247ab0e	49.917046
142	0xc3292b11	-169.16823
143	0xc30126a9	-129.15102
144	0x435a9bf5	218.6092
145	0x42ae3c42	87.11769
146	0xc2a60f03	-83.02932
147	0xc3673068	-231.18909
148	0x41d7c8e9	26.9731
149	0xc362960b	-226.5861
150	0x42456038	49.343964
151	0xc22b45f7	-42.818325
152	0xc25970e7	-54.360256
153	0x416d9484	14.848759
154	0xc30407ad	-132.02998
155	0xc2cc4b39	-102.14692
156	0xc2e9f436	-116.976974
157	0x416d81f4	14.844227
158	0x416d587a	14.834101
159	0x416d7da2	14.843172
160	0x416da2f6	14.852285
161	0x416d9cbe	14.850767
162	0x416d8804	14.845707
163	0x430cfe8d	140.99434
164	0xc171d7e4	-15.115208
165	0xc2990266	-76.504684
166	0xc389ce1e	-275.6103
167	0x416d7baa	14.842691
168	0xc19da445	-19.70521
169	0x40dcec8b	6.903875
170	0xc1ad0c34	-21.630959
171	0x416d9dce	14.851027
172	0xc1ad153e	-21.635372
173	0xc1ad1a2c	-21.63778
174	0xc1ad1183	-21.63355
175	0xc1ad19b2	-21.637547
176	0xc29dce24	-78.90262
177	0x433c9d5d	188.6147
178	0xc353634f	-211.38792
179	0xc1ad2507	-21.64308
180	0xc1acfbaa	-21.622883
181	0xc222ff5b	-40.74937
182	0xc279cb4e	-62.44854
183	0xc2963486	-75.102585
184	0xc1aceec4	-21.616585
185	0xc1acf2db	-21.618582
186	0xc21138c4	-36.305435
187	0x42b577d0	90.73401
188	0xc29906b5	-76.5131
189	0x430b80bb	139.50285
190	0xc1b05617	-22.042036
191	0xc2f98043	-124.75051
192	0x42e28bad	113.272804
193	0x436006f3	224.02715
194	0x41efb6b9	29.96422
195	0x4351bc60	209.73584
196	0x42cedf57	103.43621
197	0x411903dd	9.563443
198	0xc31ccc61	-156.79836
199	0xc2d8c6f7	-108.3886
200	0xc38e9f1a	-285.24298
201	0xc38c08af	-280.06784
202	0xc2f805cf	-124.011345
203	0xc222eb21	-40.729618
204	0xc2f7fd0f	-123.994255
205	0x433d806e	189.50168
206	0xc3220431	-162.01637
207	0xc3339d84	-179.6153
208	0xc298fa8f	-76.48937
209	0xc2765917	-61.587
210	0xc2f4848d	-122.25889
211	0xc3010cfc	-129.05072
212	0xc1fb388e	-31.402615
213	0x43489d94	200.61554
214	0xc1816c84	-16.177986
215	0xc3a0d1e4	-321.63977
216	0xc3052b40	-133.16895
217	0xc1ebae45	-29.460093
218	0xc21fa323	-39.909313
219	0xc1856f71	-16.679415
220	0xc3099bfd	-137.60933
221	0x42b92eac	92.591156
222	0x4323437e	163.26364
223	0x430b4bd9	139.29628
224	0xc22a5279	-42.58054
225	0x43233d2a	163.23892
226	0x4377178a	247.09195
227	0xc37408e6	-244.03476
228	0xc32e6df4	-174.4295
229	0xc1af70ed	-21.93014
230	0xc21fac4b	-39.918255
231	0xc2bd4bb1	-94.647835
232	0xc1aad0a2	-21.351871
233	0xc3813bc5	-258.46695
234	0x41c8cce5	25.100046
235	0xc3774763	-247.27885
236	0xc30b9a72	-139.6033
237	0xc2091075	-34.26607
238	0x431deeea	157.93326
239	0x430c1896	140.09604
240	0xc2090953	-34.259106
241	0x42b9254e	92.57286
242	0xc20902a8	-34.252594
243	0xc209023a	-34.252174
244	0x4318dd25	152.86385
245	0xc2ab242e	-85.57066
246	0x42394fc1	46.327885
247	0x43132396	147.139
248	0xc30e63b0	-142.3894
249	0xc208f56a	-34.239662
250	0x424699d3	49.65022
251	0xc375d98c	-245.8498
252	0xc334d0cf	-180.81566
253	0x430b7a9c	139.47894
254	0xc3004b44	-128.294
255	0xc38f8696	-287.05145
