weights/chess/ridge.pt (torch, 19109 bytes, 1 tensors)

weight f4 [1, 4424]
000000 32 b6 e1 c2 40 28 0c 42 81 2c a7 41 b5 18 55 41
       -112.85585 35.039307 20.89673 13.318532
000010 5a ec 8e c1 85 0c 93 41 06 43 b9 be b3 12 dc 40
       -17.865406 18.381113 -0.36183947 6.8772826
000020 b3 90 2b c2 45 15 be c1 6f 09 a9 3f 97 58 1f c2
       -42.891308 -23.760386 1.3206004 -39.836514
000030 60 c0 43 c1 6a 92 93 41 4c c9 39 c0 f1 4b 92 42
       -12.234467 18.446491 -2.9029112 73.14832
000040 86 58 9a 42 ec 91 cb c2 ba b7 19 c2 94 88 1e 40
       77.1729 -101.785 -38.42942 2.477086
000050 6d e2 b1 c1 ff 7b 70 c1 97 58 1f c2 d8 c3 22 c2
       -22.23556 -15.0302725 -39.836514 -40.691254
000060 d0 61 44 c0 bf 40 fe c0 12 3c 0d c0 5e 08 a5 c0
       -3.06847 -7.9454036 -2.2067914 -5.1572714
000070 f9 2c 23 c3 af fd 1a c3 96 a3 e6 c1 1c 37 ac c1
       -163.17567 -154.99095 -28.829876 -21.526909
000080 ff ff 5d c1 d0 29 8b 41 7c 95 00 c0 3d 37 03 c1
       -13.874999 17.395416 -2.0091238 -8.200986
000090 63 e1 5b c2 fc 88 e0 41 85 f3 cb c0 ae e9 3b c2
       -54.970104 28.066887 -6.3734765 -46.978203
0000a0 bb e7 03 c2 0e a3 31 c0 30 f4 15 c2 67 90 8d c1
       -32.9763 -2.775577 -37.488464 -17.695509
0000b0 06 9b 60 c1 fb 43 22 c3 10 18 2b 41 c4 65 60 c2
       -14.0378475 -162.26555 10.693375 -56.09938
0000c0 80 10 d5 c1 5f ab fb 41 42 6e 19 41 b6 bb e5 c1
       -26.633057 31.458677 9.589418 -28.716656
0000d0 3d d8 b3 c2 11 18 2b 41 c1 2f 22 42 08 c3 82 40
       -89.92234 10.693376 40.546635 4.0863075
0000e0 d9 17 36 c0 ab ca b9 c1 11 75 ce c1 15 53 2a c2
       -2.8452055 -23.223959 -25.807161 -42.581135
0000f0 0a 23 69 40 0f 75 ce c1 44 09 a9 3f 9f d7 e6 c1
       3.6427636 -25.807158 1.3205953 -28.855284
000100 42 d9 ff c1 82 b6 97 c2 4b cc 04 c1 f2 ff 5d c1
       -31.981083 -75.85646 -8.299876 -13.874987
000110 8b 83 a9 c2 16 f4 81 41 33 83 92 c1 d8 bc 25 bd
       -84.75692 16.244183 -18.314062 -0.0404633
000120 7f a2 f8 3f c7 cd 12 43 32 f6 2a c2 93 79 80 42
       1.942459 146.80382 -42.740425 64.23745
000130 50 56 a6 c1 92 be 01 43 0f 6c ac c1 06 4c 08 42
       -20.792145 129.74442 -21.552763 34.07424
000140 fe 56 35 c2 06 e0 0e 42 7f ef 6d bf e6 af be c0
       -45.334953 35.718773 -0.9294357 -5.958972
000150 8f ca 15 41 cb d2 37 41 24 4c 88 42 87 c2 c8 43
       9.361953 11.488963 68.14871 401.51974
000160 12 be d7 c1 4f dd c0 c0 89 0c 93 41 9d 23 10 42
       -26.967808 -6.027015 18.38112 36.03478
000170 0b 96 9c c2 1c 3c 22 42 9a 74 a1 42 82 09 a9 3f
       -78.29305 40.5587 80.72774 1.3206027
000180 1d d1 f1 c1 22 d1 f1 c1 12 fa 8e 40 ff 8b 5d c2
       -30.227106 -30.227116 4.468026 -55.386715
000190 b6 2d f3 c0 81 49 0d c2 48 dd c0 c0 7c ab c5 c1
       -7.59933 -35.32178 -6.027012 -24.708733
0001a0 06 2c 8b 41 09 d7 32 be a9 76 b2 c1 5e 52 4b 40
       17.396496 -0.17464842 -22.30794 3.1769023
0001b0 4a dd c0 c0 17 19 f6 c0 4a dd c0 c0 38 26 e1 43
       -6.027013 -7.6905627 -6.027013 450.29858
0001c0 8a f4 8d c1 64 13 e0 c0 6a 92 93 41 2a 93 13 c1
       -17.744404 -7.002367 18.446491 -9.223429
0001d0 4e c9 39 c0 34 96 63 bf 0b 77 45 c1 2c 93 13 c1
       -2.9029117 -0.88901067 -12.341563 -9.223431
0001e0 20 51 27 40 cd 53 04 c2 34 02 9d c2 00 3d 81 3f
       2.6143265 -33.081837 -78.5043 1.0096741
0001f0 bb b6 16 c2 37 55 99 c2 f2 ff 5d c1 4f dd c0 c0
       -37.678448 -76.666435 -13.874987 -6.027015
000200 34 7c 07 c3 18 d2 84 c1 4b 20 86 c1 d0 69 b0 c2
       -135.48517 -16.602585 -16.765768 -88.206665
000210 6b ab 3e c2 cd 70 c5 c0 fd a4 c1 42 c7 6a 31 43
       -47.6674 -6.1700196 96.82224 177.4171
000220 a9 76 b2 c1 6c e6 74 c2 21 fe 36 c2 e4 30 98 43
       -22.30794 -61.22502 -45.748173 304.38196
000230 dc 97 80 43 77 ff a8 3f ca 1c 53 c1 42 1d 59 c2
       257.1864 1.3202962 -13.194529 -54.278572
000240 35 68 87 43 05 5d 96 41 57 f3 b2 c1 20 ba 1f c2
       270.81412 18.79542 -22.368818 -39.931763
000250 28 3b 7f 3f f6 32 d9 c2 1e 51 27 40 3f 56 3a c2
       0.9969964 -108.59953 2.614326 -46.584225
000260 80 8d 13 c0 59 21 c8 bf a6 51 05 c2 55 11 2f c2
       -2.3055115 -1.5635177 -33.329735 -43.766926
000270 a2 8d 01 c1 a0 43 c8 bf 9d 43 c8 bf 68 21 c8 bf
       -8.097078 -1.5645638 -1.5645634 -1.5635195
000280 5e 21 c8 bf fa 30 c8 bf 59 21 c8 bf 23 ed fa 42
       -1.5635183 -1.5639946 -1.5635177 125.46316
000290 83 7d 29 c1 13 85 c9 c0 9e c2 b4 c2 68 21 c8 bf
       -10.5931425 -6.2974944 -90.38011 -1.5635195
0002a0 c9 ca b9 c1 84 a3 80 be e0 2f 26 bd 66 21 c8 bf
       -23.224016 -0.25124753 -0.040573 -1.5635192
0002b0 d8 bc 25 bd d8 bc 25 bd de 7d 2d c0 d8 bc 25 bd
       -0.0404633 -0.0404633 -2.7108073 -0.0404633
0002c0 4c 8e 43 c2 08 b5 3f 41 6b 26 5d c1 d8 bc 25 bd
       -48.88896 11.981697 -13.821879 -0.0404633
0002d0 e0 2f 26 bd 2b 5e 61 c0 4a dd c0 c0 21 9b 0c c1
       -0.040573 -3.5213726 -6.027013 -8.787873
0002e0 e0 2f 26 bd b0 7e 2d c0 77 b0 dd c0 b6 53 d5 c0
       -0.040573 -2.7108574 -6.927791 -6.6664686
0002f0 13 85 c9 c0 c4 a9 f3 41 92 b5 63 c0 20 f7 80 c1
       -6.2974944 30.457893 -3.5579572 -16.120667
000300 5a 52 bd 3f b1 b8 a9 43 6d c6 c7 40 fb f1 bc 41
       1.4790757 339.4429 6.242972 23.618155
000310 88 78 36 42 22 3d d0 40 50 81 59 c1 df 03 09 c1
       45.617706 6.5074625 -13.59407 -8.563445
000320 7e 72 86 c2 4e 67 0b c2 2c 93 13 c1 2f 5e 61 c0
       -67.22362 -34.850883 -9.223431 -3.5213735
000330 2a 93 13 c1 9b d5 3d 43 f1 b9 33 c2 c8 03 71 c2
       -9.223429 189.8344 -44.931583 -60.253693
000340 13 85 c9 c0 71 db 0b c2 da 4b 09 c2 07 cc 3d c2
       -6.2974944 -34.9643 -34.324074 -47.449245
000350 42 ed 8d c1 0d 43 9c 41 fd 4d 09 c0 a9 3c 84 c2
       -17.740849 19.53274 -2.145385 -66.11848
000360 29 40 a5 c1 c7 c2 ac c1 8d 97 63 bf 16 f6 44 40
       -20.656328 -21.595106 -0.88903123 3.07752
000370 32 71 9d c1 5e 91 3c 3d 1a 25 63 41 5f ab fb 41
       -19.680271 0.04603707 14.196558 31.458677
000380 28 7e 06 40 20 25 63 41 5d 2f d7 43 ac e9 3b c2
       2.10145 14.196564 430.37003 -46.978195
000390 16 af d2 c1 33 61 1c 41 cd a5 63 bf 01 1e a7 c2
       -26.335491 9.77373 -0.88924867 -83.5586
0003a0 60 c0 43 c1 29 b0 27 c3 c0 a9 5a 40 96 93 c0 c0
       -12.234467 -167.68813 3.4166107 -6.018016
0003b0 bf 40 fe c0 8c 43 98 bf e0 93 d2 41 a3 99 e9 41
       -7.9454036 -1.1895614 26.322205 29.200018
0003c0 8e 43 98 bf 53 91 3c 3d d8 3a 98 bf 97 43 98 bf
       -1.1895616 0.04603703 -1.1892958 -1.1895627
0003d0 ef 41 a4 42 42 dc d7 c0 b2 18 55 41 56 4e cd 42
       82.12878 -6.745637 13.318529 102.653
0003e0 87 90 99 c1 90 43 98 bf 76 0e 49 41 00 b5 38 c2
       -19.19557 -1.1895618 12.5660305 -46.176758
0003f0 91 79 f4 c0 c4 a9 f3 41 51 05 88 c1 c4 65 60 c2
       -7.6398396 30.457893 -17.002596 -56.09938
