weights/chess/ridge.pt (torch, 18469 bytes, 1 tensors)

weight f4 [1, 4424]
000000 31 58 af 41 f8 5a 00 42 05 c5 86 42 75 0f 06 42
       21.918062 32.088837 67.3848 33.515095
000010 5f fe 92 42 23 29 e2 be ba 91 89 c1 c2 16 1a c1
       73.49682 -0.4417201 -17.196156 -9.630556
000020 a6 7d ef c2 94 b1 1f c2 43 01 fa 41 6a ed 47 bd
       -119.74541 -39.923416 31.250616 -0.0488104
000030 ae 34 fe 40 45 dd d0 42 26 6b 10 42 c4 df f6 42
       7.9439306 104.43217 36.104637 123.43704
000040 46 44 2c 43 5e 7c 9c c3 10 86 57 c3 b6 1a 13 42
       172.2667 -312.97162 -215.52368 36.776085
000050 63 62 f8 c2 78 a9 84 c1 d4 07 90 bd 10 5b 39 c3
       -124.19216 -16.582748 -0.07032743 -185.35571
000060 76 4b 28 42 4e 62 eb c2 52 29 26 c1 b3 b9 c0 c1
       42.073692 -117.692 -10.385088 -24.090673
000070 ef 9f 4d c3 f3 5b bc c3 79 65 c7 c2 37 3f 28 c3
       -205.62474 -376.71835 -99.69819 -168.24693
000080 bb 63 d7 c1 6c 45 27 c2 3e 32 40 c1 5c d4 52 40
       -26.923697 -41.817795 -12.012266 3.2942114
000090 7b 98 57 c3 be 42 8f c2 80 13 90 c2 74 f5 3e c3
       -215.59563 -71.630356 -72.038086 -190.9588
0000a0 ca dd 34 c3 4c 8c 9f 41 57 4e bf c2 27 6f cd c1
       -180.86636 19.943504 -95.65301 -25.679274
0000b0 ea 3f d7 c1 9e 86 ec c3 5f bb 21 43 3b 9d 85 c3
       -26.906208 -473.0517 161.73192 -267.22836
0000c0 55 c2 6f 41 e4 55 17 43 4d 19 25 42 18 5d bd c1
       14.984944 151.33551 41.274708 -23.670456
0000d0 6f 0a 99 c3 62 bd 21 43 fd df e7 41 3a cf a3 c1
       -306.0815 161.73978 28.98437 -20.476185
0000e0 8b 84 c1 c2 b4 5b 07 c1 1f 4a 70 c2 45 8c 50 c2
       -96.75887 -8.459888 -60.072384 -52.136982
0000f0 6c 49 1e c2 27 f4 6f c2 ad 03 fa 41 11 b2 36 c3
       -39.5717 -59.98843 31.251795 -182.69557
000100 86 33 64 c3 08 67 9e c2 78 8c 05 40 7f 88 d7 c1
       -228.20126 -79.20123 2.0866985 -26.941648
000110 64 fa 9d c3 9d 3c 23 43 94 99 2b c2 00 c7 93 c0
       -315.95618 163.23677 -42.89998 -4.618042
000120 9f 38 69 41 fe 0d 07 43 33 cc 07 c3 f3 d5 c6 42
       14.5763235 135.05466 -135.79765 99.41787
000130 6e 4e 86 c2 e4 7b 1c 43 c7 c9 34 c3 8a 9b 2a 43
       -67.15318 156.48395 -180.7882 170.60757
000140 10 bb d6 c2 af 3b 60 42 ea 12 f4 41 d1 20 1a c2
       -107.36536 56.058285 30.509235 -38.532047
000150 88 28 24 42 12 10 c4 42 97 2f 16 42 04 ee 0c 43
       41.03958 98.03139 37.546474 140.92975
000160 7f 35 09 c3 99 ee 25 c2 f1 86 3b bf e9 2c c4 42
       -137.20897 -41.483006 -0.7325278 98.087715
000170 1a 69 58 c3 e0 53 b5 42 0c 71 0b 43 e4 03 fa 41
       -216.41055 90.66382 139.44159 31.2519
000180 d6 3b 48 c3 47 2a 48 c3 54 03 4f 42 17 a5 4d c2
       -200.23373 -200.16515 51.75325 -51.41122
000190 c4 db 37 c2 ee c6 0f c3 ff d6 25 c2 07 da 2a c2
       -45.964615 -143.77707 -41.459957 -42.712917
0001a0 36 12 41 c1 bd 00 ab bd 90 5e e3 c2 e4 46 21 42
       -12.066946 -0.0834975 -113.68469 40.31923
0001b0 e5 ed 25 c2 53 bf 25 c1 32 0f 26 c2 c6 36 7d 43
       -41.48232 -10.35921 -41.51484 253.21396
0001c0 4b 21 0b c3 89 f3 ec c0 8c 08 d1 42 33 97 ce c2
       -139.13005 -7.4047284 104.51669 -103.29531
0001d0 df 6a 10 42 9c 74 39 c2 95 f4 f2 40 53 dc ce c2
       36.104366 -46.363876 7.592356 -103.43032
0001e0 a8 79 21 42 65 bc ad c2 c3 6b 13 c2 ca c5 b3 42
       40.368805 -86.86796 -36.855236 89.88631
0001f0 e5 55 97 c3 6c 35 97 c3 4c 23 d9 c1 bb f0 25 c2
       -302.67105 -302.41736 -27.142235 -41.48509
000200 88 9a 95 c3 9c d0 07 c3 87 35 92 c2 0a e3 12 c3
       -299.20728 -135.81488 -73.104546 -146.88687
000210 bc e2 b2 c2 fd 7f e4 42 9e 86 28 43 12 eb 30 43
       -89.44284 114.24998 168.52585 176.91824
000220 ba 5b e3 c2 09 ab 3d c3 a4 c4 5c c2 50 36 4d 43
       -113.67915 -189.6681 -55.19203 205.21216
000230 25 de 4c 43 d1 03 fa 41 1d c8 01 c3 5a 45 01 c3
       204.86775 31.251863 -129.7817 -129.2709
000240 78 f4 5a 43 dd cb bd 42 3e f8 9c c2 e9 61 67 c3
       218.95496 94.89817 -78.48485 -231.38246
000250 2b 72 0a 42 80 d3 62 c3 6b e9 20 42 81 5c 06 c2
       34.611492 -226.82617 40.227947 -33.590336
000260 51 22 dd c1 9d 62 29 41 46 fe fc c2 e5 84 d0 c2
       -27.641756 10.5865755 -126.49663 -104.25956
000270 b3 7b a4 c2 b9 68 29 41 51 0f 29 41 0a 24 29 41
       -82.2416 10.588067 10.566239 10.571299
000280 dd 23 29 41 3e 5a 29 41 a0 84 29 41 2d 2b 0e 43
       10.571256 10.584532 10.594879 142.16866
000290 a9 19 00 c2 b4 d0 43 c2 5a 5b 87 c3 d9 58 29 41
       -32.02506 -48.95381 -270.71368 10.584191
0002a0 34 04 06 c1 f2 42 8a 40 51 c7 93 c0 68 0d 29 41
       -8.376026 4.320672 -4.6180806 10.565773
0002b0 d8 c7 93 c0 9a c8 93 c0 a7 22 36 c1 6d c6 93 c0
       -4.618145 -4.6182375 -11.38346 -4.617972
0002c0 00 5a b2 c2 80 77 1f 43 27 5c 59 c3 ec c8 93 c0
       -89.17578 159.4668 -217.35997 -4.6182766
0002d0 67 c6 93 c0 a9 a4 c0 c0 9c 0f 26 c2 ce 4e 3a c2
       -4.617969 -6.0201 -41.515244 -46.576958
0002e0 18 c9 93 c0 5e 24 36 c1 1c d7 10 c2 1b 9e 8f 42
       -4.6182976 -11.383879 -36.210068 71.8088
0002f0 4f c1 43 c2 38 0f 06 43 17 ec fa c1 93 a1 ba c2
       -48.938778 134.05945 -31.365278 -93.315575
000300 bd 4e be 42 8c 97 5e 43 c2 9c 89 3e bd fe 2b 43
       95.153786 222.59198 0.2687741 171.99507
000310 54 30 c2 42 25 27 01 42 d9 54 0d c3 37 90 9e c2
       97.09439 32.288227 -141.33144 -79.28167
000320 d6 69 75 c3 b8 b3 89 c3 84 86 ce c2 7f 7e c0 c0
       -245.41342 -275.40405 -103.262726 -6.0154414
000330 e8 04 cf c2 40 d0 43 43 fe 83 06 c3 90 b9 48 c3
       -103.50958 195.81348 -134.5156 -200.72485
000340 7a ea 43 c2 2d 01 5f c2 68 e2 ef c2 cd 07 f6 c2
       -48.97898 -55.75115 -119.9422 -123.015236
000350 e0 9b 36 c2 e3 4c 54 43 aa 93 a6 c1 3a b8 99 c3
       -45.65222 212.30034 -20.822102 -307.43927
000360 7b 27 1e c3 ac 59 45 c2 ae 7f 39 c2 95 25 4f c1
       -158.15422 -49.33757 -46.374687 -12.946675
000370 0a 35 0f c3 c9 20 8f 42 32 52 e0 42 ea c6 17 43
       -143.20718 71.56403 112.16054 151.77701
000380 7d 2b 1a c2 d9 20 e0 42 fa 09 76 43 e8 08 3f c3
       -38.54247 112.064156 246.03897 -191.03479
000390 e6 7a f8 c2 4a 73 96 c1 37 60 39 c2 5b 6d b9 c2
       -124.240036 -18.806293 -46.34396 -92.713585
0003a0 7d 98 fd 40 8d 8d 81 c3 73 c8 3f 42 72 8a 6b c3
       7.9248643 -259.10587 47.94575 -235.5408
0003b0 91 91 eb c2 dc 9f 93 c1 f1 6a ea 42 44 8d 0f 43
       -117.78431 -18.453056 117.20887 143.55182
0003c0 10 a0 93 c1 ef 30 8f 42 45 a1 93 c1 b1 9a 93 c1
       -18.453156 71.59557 -18.453745 -18.450533
0003d0 ea 91 07 43 ed 2e 2c c2 1f 5b 06 42 21 d3 1c 43
       135.56998 -43.045826 33.588985 156.82472
0003e0 7b 11 10 c3 ec 9e 93 c1 fd 60 c1 42 4c c8 42 c3
       -144.06828 -18.452599 96.68943 -194.78241
0003f0 de 54 23 c3 4e 10 06 43 db bf c1 c2 e1 75 85 c3
       -163.33151 134.06369 -96.87472 -266.92093
